gnn/1_gnn.pth (torch, 57089 bytes, 12 tensors)

msg_net.0.weight f4 [96, 20]
0.34145913 0.21619329 0.14602612 -0.11502617 0.06988484 0.013524166 0.28899062 -0.11542031
0.19880982 0.100774825 0.058630373 0.0027934 -0.08845832 0.042768314 0.07859357 -0.06992818
-0.106346086 -0.020595608 0.08849735 -0.0333051 -0.01271128 0.052988965 -0.08083796 0.39826778
-0.06094931 0.1694192 -0.31490514 0.061098106 -0.26951048 0.0066885417 -0.12400225 -0.056390658
-0.0903394 -0.24460322 -0.21631454 0.107831284 0.21644296 0.016264472 -0.08480719 0.22804962
0.25421757 -0.07270044 -0.012360746 -0.113363154 0.23585705 0.3946698 -0.25083867 0.10290339
-0.040252548 0.14041127 -0.007862208 -0.0055569266 0.13992672 -0.04193407 -0.12385041 -0.044021193
-0.14200874 -0.0541898 0.1402836 0.04791445 -0.33666018 -0.21506542 0.120987624 0.20133133
0.25677204 0.09639356 0.056900702 0.13147078 0.527742 -0.058348984 -0.12386108 0.01421049
0.04941477 -0.11978462 0.059740465 -0.20809093 0.11149608 -0.0327378 -0.20867825 0.036240876
-0.2991126 0.35458332 -0.1340955 -0.15570773 -0.08824953 -0.17688516 -0.21576309 0.34209645
-0.24529177 -0.40480587 0.07260679 -0.09530889 -0.06845229 -0.15335606 0.020922447 -0.07365299
-0.1532401 -0.051378556 -0.00014457444 0.098793134 -0.062100105 -0.20298569 0.08334264 0.20560102
-0.38593468 -0.21596107 0.11891032 -0.060160223 0.24849144 0.09745626 0.024608387 0.0017766154
-0.11396337 0.18493117 -0.081078045 -0.123266414 -0.17507683 0.0038768668 0.06699772 0.15241455
-0.1399756 -0.21758515 -0.02111797 0.19763821 -0.09237827 0.03823993 0.034781124 0.08618087
0.048142843 -0.18527429 -0.17143805 0.03831946 0.06546202 0.16165291 -0.022649102 -0.25085065
0.0004587949 -0.061915416 0.035585992 -0.016150067 0.0848248 0.18269569 0.19329694 0.21723397
0.13946295 0.12038284 -0.22287557 -0.16824846 -0.1858237 0.27380264 0.079939626 -0.2473764
0.14900155 -0.08968411 -0.022303006 -0.13868968 -0.0068815188 0.03876744 -0.058992676 -0.09335163
0.11206665 -0.14978746 0.21115947 -0.01924521 -0.26735786 0.09274978 0.09374341 0.15246426
0.10895049 -0.020803178 -0.050425813 0.10852774 0.10869204 0.012431635 0.09554032 0.20254958
-0.05502473 0.09901858 0.032802735 -0.06584318 0.17077169 0.21957679 0.05492667 -0.034227792
0.031174187 -0.18546644 -0.04778704 -0.14406513 0.029617425 -0.30136973 -0.10093088 -0.06785504
-0.08030347 -0.026433052 0.16709109 -0.20015657 -0.24169901 -0.0803513 0.1103985 0.15733208
-0.12375202 -0.12935229 0.22333205 -0.09367001 -0.10865036 -0.26533893 -0.25612018 -0.03742669
-0.17967987 -0.045667965 -0.0141063975 -0.07917851 -0.115225546 -0.017412359 0.0441375 0.07364731
0.03633911 0.1268675 0.010832202 -0.13412052 0.2282295 -0.21924952 -0.26591408 0.19852807
-0.023932816 0.061447915 0.024439229 0.23974444 0.032305732 -0.15489896 -0.09133554 0.072027646
0.18190077 0.053428825 0.07165136 -0.08248203 -0.07769613 -0.20551692 -0.10982664 0.15582182
-0.15623198 0.087027766 0.25780934 0.02720347 0.070507914 -0.17977501 0.20082507 -0.1608754
-0.10983781 0.07137019 0.1080108 0.058741353 0.062964976 -0.079221115 -0.080479786 -0.10910368
00000000: bbd3 ae3e c661 5d3e df87 153e d792 ebbd
00000010: c81f 8f3d 7794 5d3c 94f6 933e 7c61 ecbd
00000020: cd94 4b3e 0863 ce3d 6726 703d 7a11 373b
00000030: a329 b5bd d42d 2f3d aaf5 a03d 8136 8fbd
00000040: facb d9bd 1fb8 a8bc 193e b53d ee6a 08bd
00000050: f942 50bc f50a 593d 5f8e a5bd c1e9 cb3e
00000060: fca5 79bd 3a7c 2d3e 3f3b a1be 0242 7a3d
00000070: 47fd 89be 8e2b db3b e4f4 fdbd e4f9 66bd
00000080: dd03 b9bd 4479 7abe 8f81 5dbe a6d6 dc3d
00000090: 39a3 5d3e 123d 853c 64af adbd d785 693e
000000a0: ce28 823e f8e3 94bd ba84 4abc f12a e8bd
000000b0: 8384 713e 2912 ca3e ed6d 80be 03bf d23d
000000c0: dbdf 24bd f9c7 0f3e 7ed0 00bc e116 b6bb
000000d0: f348 0f3e 0fc3 2bbd 49a5 fdbd 914f 34bd
000000e0: bd6a 11be 20f6 5dbd 81a6 0f3e f141 443d
000000f0: b95e acbe 1c3a 5cbe 5cc8 f73d cd29 4e3e
00000100: a077 833e fd69 c53d b610 693d 47a0 063e
00000110: 1a1a 073f 58ff 6ebd e1aa fdbd 1dd3 683c
00000120: 2467 4a3d a451 f5bd 6bb2 743d ca15 55be
00000130: 0f58 e43d 1218 06bd c0af 55be 5071 143d
00000140: 4925 99be f28b b53e 5550 09be d971 1fbe
00000150: 2bbc b4bd 6221 35be 00f1 5cbe 4427 af3e
00000160: c42d 7bbe b742 cfbe deb2 943d 4f31 c3bd
00000170: b730 8cbd 5f09 1dbe 8d65 ab3c 61d7 96bd
00000180: f9ea 1cbe 5272 52bd e898 17b9 0e54 ca3d
00000190: ae5c 7ebd 7bdb 4fbe 8caf aa3d 1389 523e
000001a0: 3b99 c5be e624 5dbe 4187 f33d 916a 76bd
000001b0: 8a74 7e3e 2697 c73d 8797 c93c 52dd e83a
000001c0: a165 e9bd 995e 3d3e 3f0c a6bd 1a73 fcbd
000001d0: 5747 33be 0813 7e3b 1a36 893d 8f12 1c3e
000001e0: c455 0fbe a4ce 5ebe 98ff acbc ac61 4a3e
000001f0: d230 bdbd 79a1 1c3d a776 0e3d 997f b03d
00000200: 6e31 453d 8bb8 3dbe 758d 2fbe def4 1c3d
00000210: f410 863d 5788 253e 9c8a b9bc 7f6f 80be
00000220: 698a f039 059b 7dbd 9ec2 113d 254d 84bc
00000230: a0b8 ad3d 9414 3b3e a2ef 453e 9572 5e3e
00000240: 60cf 0e3e 478b f63d 7e39 64be 5349 2cbe
00000250: 9148 3ebe dc2f 8c3e 63b7 a33d 3d50 7dbe
00000260: dd93 183e 4dac b7bd cbb4 b6bc ab04 0ebe
00000270: 5d7e e1bb 9bca 1e3d 4ea2 71bd 242f bfbd
00000280: 3383 e53d e261 19be 303a 583e 21a8 9dbc
00000290: 21e3 88be 99f3 bd3d 8cfc bf3d 971f 1c3e
000002a0: 6f21 df3d 6d6b aabc 4c8b 4ebd cb43 de3d
000002b0: ef99 de3d 0eae 4b3c a5aa c33d 2869 4f3e
000002c0: 9c61 61bd 41ca ca3d 295c 063d cad8 86bd
000002d0: c6de 2e3e bdd8 603e cafa 603d 7132 0cbd
000002e0: 0261 ff3c eaea 3dbe 58bc 43bd cf85 13be
000002f0: 3ea0 f23c 224d 9abe d9b4 cebd 95f7 8abd
00000300: 2576 a4bd 218a d8bc ed19 2b3e d8f5 4cbe
00000310: f27f 77be 398f a4bd 9c18 e23d a91b 213e
00000320: b371 fdbd ed74 04be 28b1 643e 10d6 bfbd
00000330: 1484 debd 81da 87be 2f22 83be bb4c 19bd
00000340: 00fe 37be 550e 3bbd 851e 67bc 5828 a2bd
00000350: 5ffb ebbd 5da4 8ebc 86c9 343d 67d4 963d
00000360: 52d8 143d 8ee9 013e 8c79 313c e456 09be
00000370: feb4 693e f282 60be e425 88be f14a 4b3e
00000380: c10e c4bc cfb0 7b3d c734 c83c 917f 753e
00000390: 0453 043d d59d 1ebe 210e bbbd 3b83 933d
000003a0: 3244 3a3e 2fd8 5a3d f3bd 923d 57ec a8bd
000003b0: 261f 9fbd 0773 52be caec e0bd c18f 1f3e
000003c0: 47fb 1fbe 9d3b b23d 96ff 833e d0d9 de3c
000003d0: 7466 903d f116 38be 16a5 4d3e 85bc 24be
000003e0: a5f2 e0bd 892a 923d c434 dd3d c69a 703d
000003f0: c8f3 803d ae3e a2bd 96d2 a4bd c071 dfbd

msg_net.0.bias f4 [96]
0.09460299 -0.23771216 -0.18070796 -0.029596668 -0.20698333 0.12663276 -0.1047723 0.08516558
0.04110258 -0.0026701293 0.06732174 0.053432595 0.044155948 -0.2051849 -0.06532864 0.009944264
-0.030316453 0.14712298 0.06964241 0.02834141 -0.11044742 -0.25508925 -0.08459129 0.12121002
-0.10502407 0.053273343 -0.10087008 -0.074367896 0.11802394 -0.21216893 0.011532362 -0.005518236
0.04019005 -0.11338862 -0.030648459 0.04750159 -0.16343342 0.015134596 0.08956251 0.025775338
-0.19546542 0.081027314 -0.11134901 -0.13397089 0.014081941 0.13183926 -0.20407912 0.035097376
0.075495794 -0.12375256 0.016510824 -0.1320903 -0.18389095 -0.13660638 0.118392706 0.005401619
0.13889192 0.12672243 -0.06405688 -0.0012927116 0.008908759 -0.19811979 0.12397181 0.06565077
-0.32783315 -0.18248662 -0.09147649 0.09080406 0.04798524 -0.05949112 0.087473325 -0.08185547
-0.095069736 -0.045621645 0.10010123 -0.17353868 -0.067534156 0.09222808 -0.16173568 0.061208423
-0.14979023 0.08034529 0.06788955 -0.04889213 0.09904178 -0.0292672 -0.070325226 -0.2531981
-0.24992454 -0.114985585 -0.03704915 -0.12184284 0.12488845 -0.1451431 -0.21681377 0.08839685
00000000: 36bf c13d d16a 73be 820b 39be b674 f2bc
00000010: 70f3 53be 05ac 013e dc92 d6bd 4b6b ae3d
00000020: 2e5b 283d 56fd 2ebb fbdf 893d 23dc 5a3d
00000030: dedc 343d fe1b 52be 06cb 85bd 44ed 223c
00000040: 365a f8bc 68a7 163e aea0 8e3d 3f2c e83c
00000050: 4232 e2bd 0f9b 82be 333e adbd f53c f83d
00000060: dc16 d7bd 2635 5a3d f994 cebd 324e 98bd
00000070: 89b6 f13d d042 59be 3bf2 3c3c 52d2 b4bb
00000080: 529e 243d 4b38 e8bd 7a12 fbbc 0791 423d
00000090: 175b 27be 19f7 773c 8d6c b73d cd26 d33c
000000a0: 1628 48be a6f1 a53d f30a e4bd aa2f 09be
000000b0: f1b7 663c df00 073e 1efa 50be 44c2 0f3d
000000c0: 8a9d 9a3d fb71 fdbd b541 873c ae42 07be
000000d0: e94d 3cbe 8be2 0bbe e077 f23d 1000 b13b
000000e0: af39 0e3e 86c3 013e 4130 83bd 3470 a9ba
000000f0: 0bf6 113c eadf 4abe efe4 fd3d e973 863d
00000100: bfd9 a7be c6dd 3abe 0758 bbbd 7bf7 b93d
00000110: 2c8c 443d f6ac 73bd 3725 b33d d7a3 a7bd
00000120: ecb3 c2bd c3dd 3abd e001 cd3d 20b4 31be
00000130: 594f 8abd 13e2 bc3d 0a9e 25be afb5 7a3d
00000140: 9c62 19be 128c a43d ad09 8b3d 1d43 48bd
00000150: 6bd6 ca3d c4c1 efbc ac06 90bd 2ea3 81be
00000160: 38ec 7fbe 907d ebbd d9c0 17bd bd88 f9bd
00000170: 84c5 ff3d 65a0 14be 6e04 5ebe 6809 b53d

msg_net.2.weight f4 [96, 96]
-0.38828802 -0.018555876 -0.21178661 -0.4696588 0.22713645 -0.1418057 0.0058762566 -0.35794854
-0.12001625 0.05032898 0.14341074 -0.269942 -0.13420488 0.10845841 -0.44142425 0.1991601
-0.24519606 -0.29686898 0.09297392 -0.18393345 0.2078818 -0.5860315 -0.028675025 -0.044710927
0.17531402 -0.04924934 -0.038336497 -0.44416752 -0.04291671 -0.023892444 -0.057095423 -0.06419053
-0.012818671 -0.034524374 -0.14361064 -0.19457851 -0.3493116 -0.13323757 -0.121286646 -0.28796566
-0.18804875 0.18510701 -0.093437955 0.32410905 -0.13791573 0.057224017 0.024964131 -0.3640372
-0.3475789 -0.4803055 0.10775674 -0.16339655 0.024602674 0.28240716 -0.06818452 -0.12672779
-0.10931323 -0.093346074 0.41767886 -0.0976993 0.17161615 -0.33570212 -0.22409672 -0.20539542
-0.38252702 0.026569424 -0.0894738 -0.17819881 -0.15206099 -0.4033111 -0.09750088 -0.4780715
0.09029845 -0.17105402 0.1492059 -0.11212792 -0.032681994 0.09230186 -0.03083727 0.0959101
0.16699557 0.05139902 -0.13219906 -0.12307609 0.26225623 -0.23635942 -0.31868476 0.0697542
-0.34808624 -0.30132344 0.22267342 -0.29281446 -0.27624488 -0.16665998 -0.50048786 0.08781165
0.119955435 -0.14543171 0.023514915 -0.15326582 -0.05865605 0.03883344 -0.023058696 -0.052060526
0.104269095 -0.037747435 0.07002837 -0.07208991 -0.016234733 0.096358605 0.19788724 -0.03925091
-0.060238328 0.07883615 0.022953674 -0.014658186 0.07243084 0.046993714 0.0075561334 0.010623552
0.0645925 -0.042806845 0.026634762 -0.1532902 -0.11275164 -0.03554083 0.04398413 0.093497075
0.080113806 -0.012874918 0.089541115 -0.20093581 0.03083952 -0.06079663 -0.16447522 -0.08590365
0.004137986 0.06409489 0.1240917 0.07043437 -0.036341324 -0.05795735 0.040302247 -0.08806638
0.0040550153 -0.03906779 -0.0062775225 0.026731098 0.07863533 -0.1658476 -0.052569784 -0.2646902
-0.08790856 -0.049194027 -0.023284571 -0.12620452 0.0554077 -0.06506923 0.080928914 -0.03121725
0.08930412 -0.06687012 0.108825415 0.048157107 -0.05227875 0.044691816 0.018910345 -0.06604994
-0.034685712 -0.082004465 -0.122555524 0.003302396 -0.104393855 0.030495081 -0.16463612 0.01757139
-0.111887164 -0.06634226 0.07323628 0.024729397 0.0074740364 0.05097174 0.09966238 -0.00095771276
-0.10958747 -0.07786518 0.03928572 -0.2746495 -0.14943068 0.073507465 -0.08180762 -0.122917145
-0.08730147 -0.03361702 0.014343982 0.07812312 -0.08745343 0.05212791 0.00088509166 -0.006594577
0.009121232 0.03846857 -0.023459394 0.015201806 -0.017660052 0.032191467 0.005253696 -0.14737867
-0.030168459 -0.038643852 -0.04228579 -0.0012201424 0.099541835 0.05777959 0.05429825 -0.013023107
-0.038128752 0.007986449 0.08159176 -0.04875025 0.10252643 -0.020327836 0.07732811 -0.02303293
-0.004964384 -0.074224696 0.037249867 -0.081669666 -0.07045693 0.046681143 -0.12771198 -0.033833068
0.03601367 -0.065597825 -0.03616106 -4.586444e-05 0.06209054 -0.062438805 0.07313198 0.015927406
-0.108109206 0.08262644 0.049998455 0.02695456 0.022814933 -0.09622366 -0.11899683 0.051036157
-0.0742612 0.013926826 0.019246286 -0.15767229 0.0722645 -0.022508517 -0.05312155 -0.0027813944
00000000: b0cd c6be 7e02 98bc 97de 58be 1e77 f0be
00000010: 7596 683e 8335 11be 9d8d c03b 0845 b7be
00000020: 14cb f5bd c325 4e3d 44da 123e d635 8abe
00000030: 016d 09be 711f de3d 5c02 e2be a0f0 4b3e
00000040: ad14 7bbe 36ff 97be 1c69 be3d 0d59 3cbe
00000050: f7de 543e 2906 16bf e3e7 eabc ce22 37bd
00000060: 8585 333e adb9 49bd bb06 1dbd ed69 e3be
00000070: 6fc9 2fbd 16ba c3bc e4dc 69bd 5376 83bd
00000080: 6705 52bc 6e69 0dbd ab0e 13be 973f 47be
00000090: f8d8 b2be 6e6f 08be 2265 f8bd 3c70 93be
000000a0: da8f 40be b18c 3d3e 665c bfbd 9ff1 a53e
000000b0: c839 0dbe bb63 6a3d 9481 cc3c 1563 babe
000000c0: ddf5 b1be 9aea f5be 91af dc3d 6d51 27be
000000d0: 8c8b c93c ac97 903e 53a4 8bbd eec4 01be
000000e0: 9ddf dfbd 3a2c bfbd 01da d53e 9216 c8bd
000000f0: 25bc 2f3e 26e1 abbe 9c79 65be 2d53 52be
00000100: 95da c3be 1fa8 d93c 0a3e b7bd c079 36be
00000110: e0b5 1bbe cb7e cebe 8bae c7bd cac5 f4be
00000120: 65ee b83d c928 2fbe 6ec9 183e 53a3 e5bd
00000130: 8edd 05bd c208 bd3d 719e fcbc 846c c43d
00000140: e300 2b3e c787 523d 315f 07be 510f fcbd
00000150: 7346 863e 3408 72be a62a a3be 4adb 8e3d
00000160: 5c38 b2be 1147 9abe 8004 643e c7eb 95be
00000170: f86f 8dbe eaa8 2abe f91f 00bf 98d6 b33d
00000180: 32ab f53d 0dec 14be 5aa2 c03c b7f1 1cbe
00000190: 5441 70bd d00f 1f3d 97e5 bcbc 6b3d 55bd
000001a0: 098b d53d 0e9d 1abd 096b 8f3d e0a3 93bd
000001b0: b4fe 84bc a957 c53d f4a2 4a3e 90c5 20bd
000001c0: 77bc 76bd d974 a13d 5809 bc3c e328 70bc
000001d0: 9f56 943d 7b7c 403d 7199 f73b 680e 2e3c
000001e0: 1349 843d 3b56 2fbd 2531 da3c 1bf8 1cbe
000001f0: 55ea e6bd 4393 11bd b428 343d 657b bf3d
00000200: b512 a43d 52f1 52bc 5561 b73d 1ec2 4dbe
00000210: 29a3 fc3c e305 79bd 316c 28be 41ee afbd
00000220: f197 873b 2f44 833d ca23 fe3d e53f 903d
00000230: a4da 14bd b064 6dbd f813 253d 255c b4bd
00000240: efdf 843b 8c05 20bd adb3 cdbb 2dfb da3c
00000250: 8f0b a13d f4d3 29be 6a53 57bd 7985 87be
00000260: 6709 b4bd ad7f 49bd 49bf bebc c23b 01be
00000270: 2ff3 623d 0443 85bd 0fbe a53d 51bb ffbc
00000280: 14e5 b63d 34f3 88bd dcdf de3d 6340 453d
00000290: 3e22 56bd c40e 373d dee9 9a3c 3145 87bd
000002a0: 9b12 0ebd f5f1 a7bd 64fe fabd 036d 583b
000002b0: 72cc d5bd d2d0 f93c 5f96 28be e0f1 8f3c
000002c0: 1925 e5bd 73de 87bd e7fc 953d 4e95 ca3c
000002d0: c3e8 f43b bec7 503d ca1b cc3d 040f 7bba
000002e0: 656f e0bd c877 9fbd 10ea 203d dc9e 8cbe
000002f0: 5b04 19be 158b 963d c18a a7bd fcbb fbbd
00000300: 1dcb b2bd 00b2 09bd 0503 6b3c 04ff 9f3d
00000310: c91a b3bd 1384 553d 7f05 683a 5217 d8bb
00000320: 3871 153c 3891 1d3d ea2d c0bc ff10 793c
00000330: d0ab 90bc 33db 033d 3227 ac3b 6fea 16be
00000340: d823 f7bc 0449 1ebd dd33 2dbd 2fed 9fba
00000350: 97dc cb3d 4baa 6c3d d767 5e3d df5e 55bc
00000360: e52c 1cbd 98d9 023c 9519 a73d 58ae 47bd
00000370: 60f9 d13d 9086 a6bc 335e 9e3d 8eaf bcbc
00000380: 45ac a2bb 1e03 98bd 5193 183d 6d42 a7bd
00000390: b94b 90bd ba34 3f3d eec6 02be 8b94 0abd
000003a0: 1283 133d 2758 86bd 9f1d 14bd 915e 40b8
000003b0: a652 7e3d d5bf 7fbd 38c6 953d 317a 823c
000003c0: 5c68 ddbd 0d38 a93d 2ecb 4c3d cfcf dc3c
000003d0: 62e6 ba3c e910 c5bd 9cb4 f3bd 4a0b 513d
000003e0: 4216 98bd 582d 643c 63aa 9d3c d874 21be
000003f0: 69ff 933d c863 b8bc fb95 59bd 0e48 36bb

msg_net.2.bias f4 [96]
-0.057935387 0.033795748 0.106353484 0.09403873 0.021579267 0.081406675 0.012072493 0.08648741
0.02666962 -0.0010322247 -0.024037153 0.0002873519 -0.0015688303 0.02986899 0.022821456 0.011144371
0.07605197 0.03904336 -0.14786719 -0.04320174 -0.059049528 0.06521947 -0.013579172 0.049063932
0.07362622 -0.011489775 0.082156025 -0.06986357 0.1035642 -0.0685596 -0.06364431 -0.053893134
-0.03138719 -0.031724602 0.07776366 0.006405729 -0.049400177 -0.05009111 -0.010856729 0.016647166
-0.045961484 0.03888476 0.057856556 -0.08596832 0.022449745 0.0326428 -0.08410607 0.038034
-0.10548557 0.03789851 0.026352517 -0.10007646 -0.05118308 -0.062013563 0.08522939 -0.016072033
0.03602997 -0.06230849 0.042025354 -0.0024551656 0.075754166 -0.023445116 0.027328074 0.07195312
-0.0027984073 0.06957776 0.012381788 0.070217915 0.07040371 -0.08405127 0.062287092 -0.10587411
0.029042888 -0.022566568 0.015300929 -0.034291804 -0.036288112 0.090009265 0.0071436856 -0.042704813
-0.02783564 0.036834136 0.08215595 -0.04806765 0.059865665 0.057207637 -0.0059755095 -0.04285175
0.009191279 0.058362387 0.06413463 0.0083084805 0.079180345 -0.07982607 0.03545591 -0.046416886
00000000: a84d 6dbd 696d 0a3d dbcf d93d 6197 c03d
00000010: 01c7 b03c 8bb8 a63d b5cb 453c 5020 b13d
00000020: 3f7a da3c b74b 87ba 90e9 c4bc b8a7 9639
00000030: 36a1 cdba d0af f43c 10f4 ba3c e196 363c
00000040: 23c1 9b3d eeeb 1f3d 7f6a 17be 4ff4 30bd
00000050: ebdd 71bd c991 853d 2d7b 5ebc 43f7 483d
00000060: 58c9 963d 9c3f 3cbc 6b41 a83d a214 8fbd
00000070: 7819 d43d fa68 8cbd f357 82bd 0cbf 5cbd
00000080: db8f 00bd a8f1 01bd 8e42 9f3d 26e7 d13b
00000090: d757 4abd 562c 4dbd 6ce0 31bc a35f 883c
000000a0: 1c42 3cbd a045 1f3d fffa 6c3d 2910 b0bd
000000b0: 87e8 b73c 75b4 053d ce3f acbd 8ac9 1b3d
000000c0: d208 d8bd 783b 1b3d 3ce1 d73c e3f4 ccbd
000000d0: 59a5 51bd ef01 7ebd bf8c ae3d 7fa9 83bc
000000e0: 2994 133d 3037 7fbd c722 2c3d d8e6 20bb
000000f0: 0025 9b3d f90f c0bc 20df df3c 285c 933d
00000100: 7c65 37bb c97e 8e3d fcdc 4a3c 69ce 8f3d
00000110: d22f 903d 1223 acbd c020 7f3d 86d4 d8bd
00000120: 5aeb ed3c 86dd b8bc bfb0 7a3c 9075 0cbd
00000130: d8a2 14bd c756 b83d 9415 ea3b 3eeb 2ebd
00000140: 9107 e4bc 64df 163d 6141 a83d 96e2 44bd
00000150: b335 753d 8e52 6a3d 35ce c3bb 5185 2fbd
00000160: 0597 163c 660d 6f3d 0459 833d 4b20 083c
00000170: 4e29 a23d da7b a3bd 373a 113d a21f 3ebd

msg_net.4.weight f4 [11, 96]
0.4205213 -0.006917603 -0.0036250257 -0.088955484 -0.114568256 -0.009222281 -0.034826145 0.05996444
0.075261794 0.013810719 -0.14211859 0.04179738 -0.1492916 -0.087313645 -0.05315846 0.07954614
-0.07838575 0.047161877 0.057163943 -0.06948344 -0.0265994 0.015903452 -0.0046874224 -0.20155324
0.14156188 -0.0077929157 0.046678077 -0.0379164 0.08525402 0.0003251835 0.03404472 0.010475395
0.027155228 0.016017674 -0.07276711 -0.07018415 -0.020338483 0.022127703 -0.027476186 -0.080716215
0.05704271 0.022032538 0.1022114 0.28132296 -0.008382596 -0.28412405 -0.551987 0.008887375
-0.09641973 0.030823827 -0.091457345 -0.06503894 -0.031853076 -0.06150417 -0.08835625 0.01442576
0.033126887 0.17370932 0.09873588 -0.16298492 -0.07369357 -0.0045404444 0.03902704 0.060930025
-0.053543873 -0.15385853 -0.16271946 -0.1274578 0.050598335 0.0327399 0.0737896 2.7119619e-05
-0.0017936642 0.09938527 0.01691684 -0.13857599 -0.062144585 -0.03573331 -0.03230178 -0.03983287
-0.0025138499 0.06724114 -0.0024602993 -0.074167326 -0.00029513997 -0.0840788 -0.18938386 0.1873172
0.03080669 0.06387923 -0.02435028 -0.0152048385 -0.017372316 0.046508364 -0.20008786 -0.11670022
0.2684245 -0.04476061 -0.012073646 -0.06253439 0.0109576825 -0.06788199 0.11946824 -0.026720377
-0.24070808 0.037541706 0.12553357 0.09880109 0.06778818 -0.013683015 -0.016010148 0.05652323
0.02969718 0.12398245 -0.049422555 0.047237042 -0.037427522 -0.012637321 -0.07144689 -0.15219106
-0.16296138 0.04168211 -0.039769676 0.025272736 -0.06765799 0.05321477 -0.26946455 0.05852935
-0.063743845 0.14753737 0.04788898 0.08745855 0.03147266 0.10503996 0.14689556 0.08012998
0.14138103 0.009315016 -0.095795244 -0.16674753 -0.021641295 0.17156005 0.26678964 -0.039859578
-0.08069194 0.22984648 -0.13303782 -0.0016894166 0.07110678 -0.16866678 -0.08643763 0.027788064
-0.079596475 0.028418105 0.10040239 -0.13955508 0.043224122 0.043250516 0.045812964 0.009318944
0.018925777 -0.5824714 -0.028167218 0.07303955 -0.038690202 -0.07251968 0.07504108 0.14656523
0.0694619 -0.05811355 0.078045756 0.017130436 -0.07427478 0.07437397 0.07058787 0.029588735
-0.13709055 -0.060511135 -0.08733374 0.24547699 -0.007752509 -0.024119906 -0.001060579 0.19972694
-0.10054798 -0.055813015 0.0033044068 -0.06245476 -0.042169344 0.18738791 0.19336072 -0.057047617
0.015599638 -0.07101931 -0.099781886 -0.04584466 0.09793179 -0.04774955 0.0035338544 0.030271567
0.15536568 -0.046446316 -0.043107513 -0.0067902715 -0.044295374 -0.00069764693 -0.1070497 0.41015476
-0.030650496 -0.21367662 0.07839327 -0.08531279 0.03209803 0.08233371 0.050668716 -0.16832994
0.026822684 -0.026625825 -0.08397795 0.078915775 -0.037610333 0.025033163 0.15182546 -0.014527903
-0.034651216 0.068673104 -0.05284932 -0.105345905 0.07630136 -0.025264593 0.061435167 0.0030094248
-0.04913668 -0.08123786 -0.0056980415 -0.11948746 0.015583242 -0.16444866 -0.13169667 0.0017985146
0.086926445 -0.08361031 -0.06230537 -0.06572288 -0.11312883 0.038462415 -0.07166347 0.012906962
-0.017841429 -0.073657446 0.051232398 0.09368226 -0.0027121613 0.08218589 0.009106205 0.02886196
00000000: 914e d73e 0fad e2bb d791 6dbb 4b2e b6bd
00000010: c3a2 eabd 0d19 17bc dca5 0ebd 469d 753d
00000020: db22 9a3d 5b46 623c 8987 11be bb33 2b3d
00000030: e6df 18be 7fd1 b2bd afbc 59bd 16e9 a23d
00000040: b588 a0bd d02c 413d bd24 6a3d 554d 8ebd
00000050: fce6 d9bc f547 823c f398 99bb f963 4ebe
00000060: 99f5 103e b75b ffbb 8331 3f3d 3a4e 1bbd
00000070: a999 ae3d 647d aa39 7a72 0b3d fea0 2b3c
00000080: a474 de3c 7f37 833c ec06 95bd b5bc 8fbd
00000090: e49c a6bc 2845 b53c bd15 e1bc 8b4e a5bd
000000a0: 9ea5 693d 957d b43c 3654 d13d 9009 903e
000000b0: 2857 09bc b578 91be 054f 0dbf 5a9c 113c
000000c0: b577 c5bd 4082 fc3c fd4d bbbd 2333 85bd
000000d0: 5f78 02bd cceb 7bbd 1ff4 b4bd 065a 6c3c
000000e0: 0fb0 073d dbe0 313e 0936 ca3d 85e5 26be
000000f0: a8ec 96bd 02c8 94bb d1da 1f3d c391 793d
00000100: d250 5bbd 178d 1dbe ee9f 26be 4c84 02be
00000110: 3340 4f3d 461a 063d 001f 973d f07e e337
00000120: 6219 ebba 818a cb3d 2f95 8a3c dde6 0dbe
00000130: 528b 7ebd 175d 12bd df4e 04bd cb27 23bd
00000140: 67bf 24bb b9b5 893d f93c 21bb 0ae5 97bd
00000150: 04bd 9ab9 8231 acbd d8ed 41be 14d0 3f3e
00000160: 505e fc3c 1dd3 823d 3d7a c7bc b71d 79bc
00000170: 6350 8ebc 8e7f 3e3d d5e3 4cbe 8600 efbd
00000180: f06e 893e e756 37bd 8bd0 45bc 0812 80bd
00000190: da87 333c b605 8bbd c4ab f43d b1e4 dabc
000001a0: 2e7c 76be 55c5 193d df8b 003e 3a58 ca3d
000001b0: 88d4 8a3d b92e 60bc b727 83bc e784 673d
000001c0: 8047 f33c 83ea fd3d 4e6f 4abd a17b 413d
000001d0: 9a4d 19bd c40c 4fbc bf52 92bd f9d7 1bbe
000001e0: 59df 26be dcba 2a3d 87e5 22bd c508 cf3c
000001f0: 4690 8abd bbf7 593d 42f7 89be 79bc 6f3d
00000200: 228c 82bd 0914 173e 3c27 443d 781d b33d
00000210: 7ae9 003d 311f d73d ca6b 163e 301b a43d
00000220: 30c6 103e 029e 183c 4c30 c4bd ddbf 2abe
00000230: 1649 b1bc 70ad 2f3e a798 883e cc43 23bd
00000240: d141 a5bd e05c 6b3e 113b 08be 6a6f ddba
00000250: 6ea0 913d fcb6 2cbe 3606 b1bd cba3 e33c
00000260: 7a03 a3bd 16cd e83c c59f cd3d 87e7 0ebe
00000270: c70b 313d 7427 313d 60a6 3b3d 7cae 183c
00000280: 3b0a 9b3c d81c 15bf f0be e6bc c295 953d
00000290: 9e79 1ebd 3385 94bd 23af 993d 3215 163e
000002a0: 0a42 8e3d 7908 6ebd 74d6 9f3d 2155 8c3c
000002b0: 601d 98bd 6151 983d 6090 903d 1364 f23c
000002c0: 7761 0cbe 86da 77bd 08dc b2bd 525e 7b3e
000002d0: c208 febb 1c97 c5bc 2003 8bba 3885 4c3e
000002e0: 19ec cdbd 309c 64bd bf8e 583b 90d0 7fbd
000002f0: c3b9 2cbd 9ee2 3f3e 5a00 463e c3aa 69bd
00000300: a095 7f3c 9272 91bd 725a ccbd 9cc7 3bbd
00000310: 7690 c83d 0895 43bd 3d98 673b 14fc f73c
00000320: 2e18 1f3e 7e3e 3ebd 8191 30bd ed80 debb
00000330: 116f 35bd 4be2 36ba e03c dbbd ceff d13e
00000340: c016 fbbc 0bce 5abe a78c a03d 79b8 aebd
00000350: 3979 033d 939e a83d 008a 4f3d af5e 2cbe
00000360: 3fbb db3c 671e dabc a2fc abbd 989e a13d
00000370: 4b0d 1abd 5912 cd3c 2278 1b3e 7106 6ebc
00000380: 6fee 0dbd 7ca4 8c3d 8778 58bd 98bf d7bd
00000390: e343 9c3d b1f7 cebc 71a3 7b3d c539 453b
000003a0: 8b43 49bd 0960 a6bd a3b6 babb d7b5 f4bd
000003b0: db50 7f3c 3b65 28be 7edb 06be 23bc eb3a
000003c0: 7e06 b23d e23b abbd ea33 7fbd b899 86bd
000003d0: 17b0 e7bd c48a 1d3d 4cc4 92bd b977 533c
000003e0: 3028 92bc b7d9 96bd 10d9 513d 7cdc bf3d
000003f0: 84be 31bb 1351 a83d 3132 153c eb6f ec3c

msg_net.4.bias f4 [11]
0.024311341 0.039798997 0.030350154 -0.03226685 -0.053584184 0.03671395 0.02317137 0.030127974
0.0072298083 -0.07494751 0.037049465
00000000: 9428 c73c 4604 233d e3a0 f83c 3f2a 04bd
00000010: 177b 5bbd 5e61 163d e3d1 bd3c f1ce f63c
00000020: 07e8 ec3b 157e 99bd 2ec1 173d

gru.weight_ih_l0 f4 [30, 20]
-0.18575309 0.28542015 -0.47792652 0.07600486 0.20296854 0.030561185 -0.08219774 -0.06446454
-0.035399035 -0.36934572 0.04607825 0.37709728 0.68073523 -0.63092446 -0.7491241 0.6656752
-0.9848278 -0.05862934 -0.50137055 0.9668883 0.13393718 -0.23662272 0.10126793 -0.2556311
-0.28664714 -0.11624143 -0.123455316 0.23669659 -0.1125459 -0.18187585 -0.21654491 0.9952166
0.49307644 -0.40693048 1.0152843 -1.1567255 0.63234377 -0.6805744 -0.5839033 0.1760225
-0.2931573 -0.14302653 -0.12094502 -0.0008368929 -0.025477141 -0.2521155 0.27742854 -0.6246556
0.026393754 0.30446494 -0.30459127 0.45058116 0.87555224 -0.0594728 -0.23610741 0.76737
-0.61477524 -0.4535498 -0.7740799 -0.2933813 0.17806634 -0.18110664 -0.14739439 -0.17224284
0.34660682 -0.09069807 0.335922 0.3431498 0.23657149 0.37337655 0.13711588 1.3841316
-0.7032389 0.2398161 0.34637186 -0.91347057 0.54131126 0.15634409 0.06895632 0.37447312
-0.5102609 0.3586026 0.20318034 0.2051161 0.030543776 0.0030422574 -0.116745256 0.25548682
-0.04319366 0.43580624 -0.2911159 -0.2267428 0.79992735 -0.606425 0.6787546 -0.0064361007
1.1191705 0.56750524 -0.849645 -0.5434721 0.73864144 -0.4788244 -0.06126597 -0.22670254
0.08940221 0.0798894 0.4493627 -0.056540433 0.1555905 -0.33456308 0.05811046 0.35953575
0.5413165 -0.6989225 0.92341745 -0.14358433 -1.2222974 -0.6731099 0.54310757 -0.5363865
-0.05515315 0.16017525 -0.09231423 0.2385576 0.011743617 -0.14547771 -0.008018666 0.250979
0.0776676 0.22895817 -0.10765494 0.5655686 -0.5811248 -0.53459567 -0.086498454 1.0686071
-0.8352481 0.37395737 -0.17008312 -0.7095577 0.10642398 -0.040559918 0.16061413 0.31407583
-0.09792362 -0.29245266 0.3011029 0.19202676 0.27408805 -0.167958 -0.34449172 -1.3134396
0.12884581 -0.8754257 1.0562911 1.0088354 0.7960202 -0.98356944 0.04582525 0.98969454
-0.42812315 -0.09621648 -0.29541516 -0.089966916 0.06982001 0.23551546 0.59369355 -0.16334601
0.29405263 0.24472979 0.069052376 -0.41511267 -0.2809967 0.5187103 0.49769917 -0.76497537
-0.26447347 0.15047221 -0.43855822 0.3993917 0.31185487 0.06715097 0.04674674 -0.047690343
-0.21683346 0.114774175 -0.44038862 -0.05923648 -0.19730034 0.113176204 -0.41179457 0.5226488
-0.97100115 0.27396783 -0.31090033 0.6291487 0.68822926 -0.8679645 -0.5468451 0.20121874
0.8328852 -0.55832434 -0.112864934 0.11091093 0.4782442 -0.3915747 0.414836 0.8003104
-0.43089443 0.48525432 -0.2792336 -0.20946662 0.16166157 0.26831818 -0.40933594 -0.31288958
-0.28495514 0.2405967 -0.015254423 -0.26449957 0.52880687 -0.30268866 0.7402976 0.47333053
0.06878898 -0.40883017 -0.023160914 0.483646 -0.16800213 -0.07633799 -0.4041891 -0.044913057
0.03995208 -0.26940858 -0.20178765 -0.59590447 0.37095928 -0.028582668 0.2844543 0.09950867
0.60487044 -0.094472036 0.21615626 0.31710202 0.32189158 -0.5532571 0.48144922 -0.118790805
-0.6256776 0.21235451 0.112778395 -0.26543733 -0.41867518 0.15553208 -0.03874739 -0.44996417
00000000: 0f36 3ebe 9722 923e c9b2 f4be 70a8 9b3d
00000010: fcd6 4f3e 735b fa3c 4a57 a8bd fc05 84bd
00000020: 94fe 10bd e21a bdbe 8cbc 3c3d e512 c13e
00000030: aa44 2e3f 4484 21bf 99c6 3fbf b169 2a3f
00000040: ad1d 7cbf 5225 70bd d259 00bf fe85 773f
00000050: d426 093e 3a4d 72be 8f65 cf3d 14e2 82be
00000060: 6ac3 92be fd0f eebd 24d6 fcbd 9760 723e
00000070: 777e e6bd aa3d 3abe f3bd 5dbe 84c6 7e3f
00000080: 8474 fc3e 3159 d0be d6f4 813f 950f 94bf
00000090: 48e1 213f 203a 2ebf b07a 15bf 3e3f 343e
000000a0: b718 96be 8c75 12be 06b2 f7bd ef62 5bba
000000b0: 70b5 d0bc 4815 81be 1d0b 8e3e 6ee9 1fbf
000000c0: b737 d83c d4e2 9b3e 63f3 9bbe 93b2 e63e
000000d0: 3124 603f c099 73bd 24c6 71be 5c72 443f
000000e0: e961 1dbf ae37 e8be 1a2a 46bf 1336 96be
000000f0: 0657 363e 0574 39be 8eee 16be 6d60 30be
00000100: 7376 b13e e9bf b9bd f8fd ab3e 55b1 af3e
00000110: cc3f 723e 362b bf3e 1b68 0c3e 392b b13f
00000120: 7707 34bf 5a92 753e a757 b13e 35d9 69bf
00000130: 6093 0a3f aa18 203e f938 8d3d f1ba bf3e
00000140: 75a0 02bf c39a b73e 820e 503e f409 523e
00000150: f136 fa3c 9c60 473b 2318 efbd 2bcf 823e
00000160: d6eb 30bd ff21 df3e 250d 95be 442f 68be
00000170: 0ac8 4c3f ab3e 1bbf ddc2 2d3f ede5 d2bb
00000180: fb40 8f3f 0648 113f 5682 59bf fd20 0bbf
00000190: 9b17 3d3f 7928 f5be 07f2 7abd b624 68be
000001a0: 8218 b73d 0e9d a33d de12 e63e f196 67bd
000001b0: 1e53 1f3e da4b abbe 3c05 6e3d 1215 b83e
000001c0: b893 0a3f 96ec 32bf 1665 6c3f c507 13be
000001d0: 3e74 9cbf ee50 2cbf 1909 0b3f a050 09bf
000001e0: 45e8 61bd fb04 243e 3e0f bdbd 7248 743e
000001f0: 4d68 403c 1cf8 14be b960 03bc 5280 803e
00000200: 3110 9f3d 0374 6a3e 317a dcbd 1bc9 103f
00000210: 98c4 14bf 43db 08bf 1a26 b1bd 1ec8 883f
00000220: d2d2 55bf 5777 bf3e 452a 2ebe 93a5 35bf
00000230: d1f4 d93d 2822 26bd 0878 243e 8cce a03e
00000240: 2e8c c8bd 5bbc 95be 292a 9a3e aaa2 443e
00000250: 4555 8c3e 2ffd 2bbe 3861 b0be ca1e a8bf
00000260: 28f0 033e e61b 60bf 8c34 873f 8521 813f
00000270: fbc7 4b3f 35cb 7bbf 42b3 3b3d 9f5c 7d3f
00000280: f532 dbbe 250d c5bd a840 97be 9340 b8bd
00000290: cbfd 8e3d f72a 713e 4dfc 173f 2d44 27be
000002a0: 118e 963e 729a 7a3e 556b 8d3d a689 d4be
000002b0: cdde 8fbe 33ca 043f 6dd2 fe3e 6dd5 43bf
000002c0: 1169 87be 6315 1a3e b48a e0be 127d cc3e
000002d0: 71ab 9f3e 7386 893d 8279 3f3d f356 43bd
000002e0: 9709 5ebe b90e eb3d 9e7a e1be f4a1 72bd
000002f0: 1a09 4abe edc8 e73d bdd6 d2be 50cc 053f
00000300: 8893 78bf 8345 8c3e 542e 9fbe e40f 213f
00000310: cb2f 303f ec32 5ebf 0afe 0bbf 490c 4e3e
00000320: f737 553f 58ee 0ebf bb25 e7bd 4525 e33d
00000330: 6cdc f43e 7b7c c8be 6265 d43e 24e1 4c3f
00000340: 329e dcbe 4173 f83e b5f7 8ebe 6b7e 56be
00000350: 9c8a 253e 0061 893e 7b94 d1be 1033 a0be
00000360: a4e5 91be fb5e 763e b0ed 79bc 7d6c 87be
00000370: e35f 073f 02fa 9abe 2584 3d3f 6158 f23e
00000380: 3de1 8c3d 3052 d1be f5bb bdbc 73a0 f73e
00000390: c008 2cbe 1857 9cbd e0f1 cebe c1f6 37bd
000003a0: cba4 233d ecef 89be 6ca1 4ebe 328d 18bf
000003b0: 60ee bd3e 3326 eabc fea3 913e 34cb cb3d
000003c0: cad8 1a3f 8e7a c1bd 1158 5d3e 325b a23e
000003d0: f9ce a43e 42a2 0dbf 8380 f63e 9848 f3bd
000003e0: 682c 20bf 7673 593e 5cf8 e63d 67e7 87be
000003f0: 985c d6be cd43 1f3e 95b5 1ebd b461 e6be

gru.weight_hh_l0 f4 [30, 10]
-0.22956623 -0.3090246 0.43245277 0.34898156 -0.24630494 -0.1447794 0.29872596 0.44104457
0.20453611 -0.13855352 -0.18061651 -0.30779737 -0.12088861 0.31030643 -0.07951958 0.099580236
0.11303953 -0.02184712 0.14194953 0.15865794 -0.42761382 0.47729743 0.088980585 -0.25586915
-0.07934959 -0.031705838 0.23411623 -0.1538415 -0.031976108 -0.5599676 0.1890667 -0.11942635
0.10904161 0.22917531 -0.11952508 -0.26473585 -0.31568164 0.15224823 -0.031334765 0.50339794
0.23662826 -0.5900258 -0.12865065 0.29236156 -0.40537322 -0.18897888 0.32999724 0.3486105
-0.5229063 -0.11884133 0.06981821 -0.19145574 0.057579953 0.18451862 -0.31381404 -0.2135376
-0.54509753 0.2464702 0.23195097 0.37234485 0.27760226 -0.2679295 0.62484425 -0.25779572
-0.26761308 -0.051761724 -0.033011153 0.31212583 0.033649903 -0.27276504 -0.034024373 0.039034568
0.5850282 -0.23427235 0.35080487 0.2278233 0.11448372 -0.080277056 0.1207935 0.3382336
0.6976945 0.46509787 -0.0867241 -0.063251145 0.2082352 0.063053794 0.0818531 -0.348051
0.17489551 0.19756788 0.13782507 0.3709699 0.26069048 0.06040327 0.20479122 0.2908791
-0.007150576 0.3618606 0.1026835 0.09931767 -0.14604497 0.089033015 -0.36431307 -0.11163954
-0.20761912 -0.25123712 -0.1849968 -0.07392802 -0.21016821 -0.076512605 0.048336092 0.25612995
0.055035766 0.35606393 -0.047607157 -0.27344525 -0.25715902 -0.49559832 0.3525665 -0.15206806
-0.0368894 0.40935886 -0.58450323 -0.52591765 0.1914443 -0.3568967 0.07747981 -0.3951875
0.7395677 -0.52608323 0.5981127 -0.032813534 0.20149043 -0.22676668 -0.009935039 0.4617709
-0.24531324 -0.2687993 0.018737882 0.25736326 0.13565227 0.052585363 -0.15129925 0.107215
0.015071557 0.2756617 0.22563551 -0.085993044 0.03833164 -0.19512966 0.15958111 0.13943644
0.29969022 -0.077989 0.0051736548 -0.012382734 -0.2953204 0.31230965 0.3542216 -0.07991876
-0.34592363 0.02133917 -0.08396923 -0.35141188 0.13462001 0.017080074 0.2731047 -0.3548737
0.08194275 0.39894888 -0.18970288 -0.51113755 -0.42954212 0.62010276 0.07412409 0.75866884
-0.55136245 -1.1145697 -0.42384976 -0.7507504 -0.28020716 -0.1302263 -0.055336524 0.13741829
-0.15682775 0.07942791 -0.19893773 -0.19572994 0.40231267 0.2779065 -0.15095837 -0.400526
-0.21782097 -0.011573546 0.16398852 0.56767374 -0.48591352 -0.9137745 0.28154835 -0.1178046
0.3269769 0.002136305 -0.15049124 -0.08617152 -0.27736634 -0.27231032 0.13600549 0.008210186
0.17094389 -0.16601649 0.2861439 0.24702139 0.15802936 -0.09523305 -0.03391321 -0.2579062
0.19467421 0.054691788 0.2817996 0.38282663 -0.10171491 -0.41588295 0.04351449 0.19930352
-0.05096847 -0.13198006 0.21880804 -0.15392105 -0.02152617 0.33880138 0.08449107 -0.08649877
-0.061281905 0.013172945 -0.26665094 -0.2413261 -0.23533478 0.19425547 0.22722499 -0.021950996
-0.30801696 0.07227928 -0.08749149 0.031258214 0.036544837 0.3978969 -0.35846928 0.04308939
-0.10010316 0.036354408 0.3215233 -0.25451723 0.13532257 -0.19170977 0.03170886 0.20805216
00000000: 6913 6bbe 7938 9ebe 736a dd3e b6ad b23e
00000010: 5d37 7cbe 0d41 14be 9cf2 983e 98d0 e13e
00000020: ea71 513e f9e0 0dbe 89f3 38be 9e97 9dbe
00000030: 7394 f7bd 7ce0 9e3e 29db a2bd b9f0 cb3d
00000040: 4581 e73d bbf8 b2bc 385b 113e 3a77 223e
00000050: 33f0 dabe 5460 f43e 743b b63d 4801 83be
00000060: 0a82 a2bd fbdd 01bd 2abc 6f3e a088 1dbe
00000070: 61f9 02bd 095a 0fbf b39a 413e cd95 f4bd
00000080: 3551 df3d efac 6a3e 91c9 f4bd 758b 87be
00000090: 06a1 a1be f6e6 1b3e e258 00bd b0de 003f
000000a0: ae4e 723e ee0b 17bf ffbc 03be 6ab0 953e
000000b0: 148d cfbe ae83 41be 66f5 a83e 137d b23e
000000c0: 30dd 05bf 1563 f3bd dafc 8e3d f90c 44be
000000d0: f5d8 6b3d 73f2 3c3e 3cac a0be 9aa9 5abe
000000e0: 838b 0bbf af62 7c3e 8e84 6d3e fca3 be3e
000000f0: e221 8e3e 0e2e 89be cbf5 1f3f cdfd 83be
00000100: 9504 89be 1a04 54bd b436 07bd f5ce 9f3e
00000110: 7bd4 093d dca7 8bbe 245d 0bbd b6e2 1f3d
00000120: 68c4 153f 17e5 6fbe b29c b33e 834a 693e
00000130: 7176 ea3d 4c68 a4bd 9562 f73d f42c ad3e
00000140: 1b9c 323f 4f21 ee3e 689c b1bd d189 81bd
00000150: 9c3b 553e 5922 813d 99a2 a73d be33 b2be
00000160: cf17 333e 3c4f 4a3e 0422 0d3e c4ef bd3e
00000170: 3979 853e 6b69 773d cab4 513e 1bee 943e
00000180: 614f eabb cb45 b93e ba4b d23d 1067 cb3d
00000190: d08c 15be f156 b63d 3e87 babe 45a3 e4bd
000001a0: 1b9a 54be 27a2 80be cd6f 3dbe 9367 97bd
000001b0: 5636 57be a4b2 9cbd 11fc 453d 7723 833e
000001c0: 2f6d 613d 034e b63e b9ff 42bd 0401 8cbe
000001d0: 59aa 83be 10bf fdbe 9983 b43e bbb7 1bbe
000001e0: 5719 17bd 7c97 d13e 01a2 15bf 8aa2 06bf
000001f0: f909 443e 2abb b6be bcad 9e3d 0456 cabe
00000200: 4f54 3d3f 64ad 06bf ea1d 193f 7c67 06bd
00000210: 8253 4e3e 8635 68be 93c6 22bc 3c6d ec3e
00000220: 6533 7bbe 10a0 89be 3080 993c 1ec5 833e
00000230: 6ee8 0a3e c063 573d 31ee 1abe 8a93 db3d
00000240: b1ee 763c 8823 8d3e ff0c 673e 1f1d b0bd
00000250: a301 1d3d 12d0 47be 3b69 233e 6dc8 0e3e
00000260: ff70 993e b2b8 9fbd c387 a93b f3e0 4abc
00000270: 3c34 97be 0de7 9f3e 895c b53e 72ac a3bd
00000280: e71c b1be 7ccf ae3c 0ff8 abbd 42ec b3be
00000290: d4d9 093e 83eb 8b3c 61d4 8b3e 01b2 b5be
000002a0: 9ad1 a73d 0743 cc3e 7941 42be e9d9 02bf
000002b0: f2ec dbbe 0ebf 1e3f 5fce 973d 1f38 423f
000002c0: 1726 0dbf 38aa 8ebf d602 d9be 2e31 40bf
000002d0: 5077 8fbe 0b5a 05be 8da8 62bd 61b7 0c3e
000002e0: 7497 20be 1aab a23d 55b6 4bbe 6e6d 48be
000002f0: edfb cd3e c349 8e3e d594 1abe be11 cdbe
00000300: 760c 5fbe f89e 3dbc 9bec 273e 1153 113f
00000310: a8c9 f8be 20ed 69bf 1b27 903e 8a43 f1bd
00000320: 8469 a73e 4001 0c3b 601a 1abe b27a b0bd
00000330: f602 8ebe 426c 8bbe 0645 0b3e 0484 063c
00000340: ea0b 2f3e 3a00 2abe 7481 923e 2df3 7c3e
00000350: 73d2 213e 8c09 c3bd 94e8 0abd 480c 84be
00000360: ad58 473e 7f04 603d 0a48 903e da01 c43e
00000370: e84f d0bd 9cee d4be 403c 323d 3916 4c3e
00000380: 50c4 50bd c825 07be 370f 603e 7b9d 1dbe
00000390: a757 b0bc 6077 ad3e a709 ad3d 4426 b1bd
000003a0: bc02 7bbd 56d3 573c 7986 88be 301e 77be
000003b0: 9afb 70be e8ea 463e abad 683e 93d2 b3bc
000003c0: 66b4 9dbe 2907 943d bd2e b3bd 9d08 003d
000003d0: 0ab0 153d 24b9 cb3e 4989 b7be 807e 303d
000003e0: e302 cdbd 5ce8 143d b49e a43e 1550 82be
000003f0: 0092 0a3e 914f 44be 26e1 013d a00b 553e

gru.bias_ih_l0 f4 [30]
-0.12146482 -0.26292408 0.016946724 -0.052214034 0.005531814 -0.17964642 -0.0593909 -0.18838985
-0.06186095 0.2240761 -0.34107324 0.07799501 -0.01784281 0.01585716 0.016774813 0.106479876
-0.16215348 -0.042054545 0.13589919 0.14145711 -0.11474662 -0.23603262 -0.05460348 0.13033077
-0.07722366 -0.30515164 0.08332042 0.3034198 -0.2509774 0.08221378
00000000: 8cc2 f8bd fc9d 86be dbd3 8a3c 62de 55bd
00000010: 3844 b53b 3bf5 37be df43 73bd 45e9 40be
00000020: e861 7dbd 3574 653e 27a1 aebe d9bb 9f3d
00000030: 162b 92bc e0e6 813c 556b 893c 1f12 da3d
00000040: 900b 26be 6341 2cbd 2829 0b3e 22da 103e
00000050: 4700 ebbd 89b2 71be e6a7 5fbd 6e75 053e
00000060: 7027 9ebd d63c 9cbe e5a3 aa3d d759 9b3e
00000070: 1c80 80be b35f a83d

gru.bias_hh_l0 f4 [30]
0.3334796 -0.29077888 -0.048207957 -0.097203925 0.07979001 0.20442553 -0.14235596 0.14156853
-0.1476715 -0.14002721 0.03452734 -0.25281346 0.09643032 0.23978111 -0.076269425 0.037109926
-0.42040372 -0.45778877 0.08313299 -0.26762325 -0.3910477 -0.37652966 -0.4827338 0.07126204
-0.47485167 0.20281371 -0.07125407 0.49534824 0.3125981 -0.27095374
00000000: d7bd aa3e f8e0 94be b575 45bd da12 c7bd
00000010: f268 a33d ed54 513e c3c5 11be 57f7 103e
00000020: 3337 17be 4b63 0fbe 8a6c 0d3d c470 81be
00000030: 427d c53d 2e89 753e 2533 9cbd 9400 183d
00000040: 283f d7be 4a63 eabe a141 aa3d ea05 89be
00000050: 6737 c8be 7fc8 c0be e228 f7be d5f1 913d
00000060: c21f f3be 66ae 4f3e a7ed 91bd 499e fd3e
00000070: dc0c a03e 73ba 8abe

fc.weight f4 [9, 10]
0.22310321 -1.6840127 -1.6156286 2.583871 2.261137 1.2012194 -1.1446103 -2.2076583
-2.2067194 -2.1029112 -1.0128008 -2.3127487 -2.0616071 -1.9222918 -1.9181966 0.90449816
1.5990148 0.2635123 -1.1659139 2.6434073 1.8654987 1.5445911 -1.0126718 -2.2197437
0.30340376 0.16603176 1.7163733 -1.9461381 3.107493 -2.0886579 1.8193048 -0.9165209
0.42856094 1.1202106 -1.6091172 2.4335823 -2.880249 2.020838 2.545929 -0.045360748
-1.8721633 2.2753258 -1.4319867 -1.8068879 -0.7655898 -1.1451821 -2.4491968 2.0760217
-1.8045317 -2.2557793 2.619882 -1.1039468 1.5974067 1.1461921 -2.0968275 -1.8463591
2.0611417 1.6381733 -1.6471586 -2.1597135 -0.4925367 1.6387944 0.7815161 1.9401402
-1.7393818 -2.5542517 -1.237248 -2.3625126 0.4634236 2.511846 1.5923512 1.1651518
2.848219 -1.5776551 2.90549 1.412593 -0.14815743 0.8346202 -1.8770866 2.1856902
-3.4509969 -1.8642827 1.7092478 0.61964446 1.9979918 -1.2292601 0.8578598 1.8192186
2.6790793 -0.93177056
00000000: 2b75 643e ba8d d7bf ebcc cebf 245e 2540
00000010: 78b6 1040 8fc1 993f 9782 92bf 464a 0dc0
00000020: e43a 0dc0 1996 06c0 75a3 81bf 1304 14c0
00000030: 5ff1 03c0 a80d f6bf 7787 f5bf 318d 673f
00000040: 84ac cc3f 16eb 863e ab3c 95bf 962d 2940
00000050: a9c8 ee3f 29b5 c53f 3b9f 81bf 4810 0ec0
00000060: bd57 9b3e 3b04 2a3e 1fb2 db3f 0e1b f9bf
00000070: 2ae1 4640 92ac 05c0 fbde e83f 1da1 6abf
00000080: 576c db3e 1063 8f3f 8df7 cdbf d0bf 1b40
00000090: 0056 38c0 6955 0140 80f0 2240 31cc 39bd
000000a0: 0ca3 efbf f09e 1140 574b b7bf 1a48 e7bf
000000b0: b1fd 43bf 5495 92bf a4bf 1cc0 8add 0440
000000c0: e5fa e6bf b05e 10c0 26ac 2740 214e 8dbf
000000d0: d377 cc3f 6cb6 923f 6c32 06c0 7f55 ecbf
000000e0: bfe9 0340 aaaf d13f 18d6 d2bf bf38 0ac0
000000f0: c52d fcbe 04c4 d13f 7011 483f 8456 f83f
00000100: 10a4 debf dc78 23c0 245e 9ebf 6833 17c0
00000110: dc45 ed3e 16c2 2040 2ad2 cb3f b223 953f
00000120: 3849 3640 9af0 c9bf 8cf3 3940 d9cf b43f
00000130: 95b6 17be aba9 553f 6044 f0bf 59e2 0b40
00000140: 22dd 5cc0 d1a0 eebf a2c8 da3f 05a1 1e3f
00000150: 32be ff3f 6558 9dbf b39c 5b3f 28dc e83f
00000160: 0976 2b40 8488 6ebf

fc.bias f4 [9]
-0.11840426 0.010763258 0.12583722 0.08967395 -0.18760508 -0.63124996 0.20823355 0.07026625
0.18396808
00000000: ef7d f2bd 6058 303c 79db 003e faa6 b73d
00000010: 8c1b 40be 9999 21bf 2d3b 553e c0e7 8f3d
00000020: 2162 3c3e
