mlp/2_mlp.pth (torch, 2583 bytes, 5 tensors)

fc1.weight f4 [10, 1]
0	0x3f7dcf88	0.9914479
1	0xbf955e19	-1.1669341
2	0x3fab9364	1.3404355
3	0xbf8921e3	-1.0713466
4	0xbe3867f6	-0.18008408
5	0x3f5616fa	0.8362881
6	0xbf6b86f0	-0.92002773
7	0xbf1ccc39	-0.6124912
8	0x3fb45eeb	1.4091467
9	0x3db9891d	0.090593554

fc1.bias f4 [10]
0	0x3d235b4d	0.039881993
1	0xbfca95fa	-1.5827019
2	0x3e9a4d3c	0.3013705
3	0xbe0114c2	-0.12605575
4	0xbeae16a9	-0.34001663
5	0x3f8a1cd4	1.0790048
6	0x3f8a230d	1.0791947
7	0x3f1d00c2	0.6132928
8	0x3e6da069	0.23205723
9	0xbf2b69e1	-0.66958433

fc2.weight f4 [11, 10]
0	0xbca1c135	-0.019745449
1	0xbf0f86e8	-0.56065226
2	0xbe29968e	-0.16561338
3	0xbded4fb0	-0.11587465
4	0xbc9d5975	-0.019207695
5	0x3f23746e	0.6384953
6	0x3d6fd3b2	0.058551498
7	0xbecc572f	-0.39910266
8	0xbd7621a1	-0.060090665
9	0xbebb01eb	-0.365249
10	0x3e04cb30	0.12968135
11	0x3f2934bc	0.6609609
12	0x3ef75f23	0.4831477
13	0xbded97fd	-0.11601255
14	0x3e972e25	0.29527393
15	0xbf2a5ccd	-0.6654785
16	0x3f13a5cd	0.57674867
17	0x3f69a1bf	0.9126243
18	0x3f4c97d4	0.7991917
19	0x3daf5495	0.085610546
20	0xbe81e836	-0.25372475
21	0xbe19159d	-0.14949651
22	0xbe63e16c	-0.2225396
23	0x3eb8215c	0.3596295
24	0xbf17277d	-0.5904463
25	0x3ecab9b8	0.39594817
26	0xbf4ffd7b	-0.81246156
27	0xbf7dd4eb	-0.9915301
28	0xbecc67f0	-0.39923048
29	0x3ec004ac	0.37503564
30	0x3e912be6	0.28353804
31	0x3ef65768	0.4811356
32	0x3f043626	0.51645124
33	0xbdb0de97	-0.08636206
34	0x3e9e0557	0.3086345
35	0xbef169bb	-0.47150978
36	0x3f1941b7	0.598659
37	0x3f647a84	0.89249444
38	0x3ed2cc8e	0.41171688
39	0x3c5d816b	0.013519625
40	0xbe1900da	-0.14941731
41	0x3f026b8a	0.5094534
42	0x3df0139e	0.11722492
43	0xbeac4783	-0.3364831
44	0x3da680c5	0.081300296
45	0xbe91f56b	-0.28507552
46	0x3f4f6612	0.8101512
47	0x3eadea0e	0.33967632
48	0x3f3c7394	0.7361386
49	0x3e0a3d07	0.13499843
50	0xbf173f45	-0.59080917
51	0xbd9e6e9d	-0.077359416
52	0xbed5a05b	-0.41723904
53	0x3f00cb3c	0.5031011
54	0xbe212423	-0.15736441
55	0xbdb0b251	-0.08627761
56	0x3d1d5643	0.038412344
57	0x3f1116af	0.5667524
58	0xbf116ca6	-0.5680641
59	0xbebf35d8	-0.37345767
60	0xbed6843f	-0.4189777
61	0xbf1be8e6	-0.6090225
62	0xbd8aebeb	-0.06783279
63	0x3d6ad211	0.05732924
64	0xbf31e879	-0.6949535
65	0x3e6103de	0.21974131
66	0xbf3c3c33	-0.73529357
67	0xbf3be7f8	-0.7340083
68	0xbf5759c6	-0.8412136
69	0x3d14da2c	0.036340877
70	0x3dbbd082	0.09170629
71	0x3f4eb37e	0.80742633
72	0x3eee30ee	0.46521705
73	0xbe1a7edc	-0.15087456
74	0x3ecd0325	0.40041462
75	0xbeb05417	-0.34439155
76	0x3e897eea	0.2685464
77	0x3f1c24fe	0.60993946
78	0x3e5dd03d	0.21661468
79	0x3d832950	0.06404364
80	0xbeda9869	-0.42694405
81	0xbeac5ff7	-0.33666965
82	0xbbc76b55	-0.006085793
83	0x3eede1d3	0.46461353
84	0x3e49cf7d	0.19708057
85	0x3d7ea9d2	0.062173672
86	0xbef9728f	-0.48720214
87	0xbf2ab38a	-0.66680205
88	0xbec1aa9b	-0.37825474
89	0xbea24591	-0.316937
90	0x3f3815a8	0.71908045
91	0x3e77f26c	0.2421357
92	0x3e5d5675	0.21615012
93	0xbf3a685a	-0.7281548
94	0x3f017213	0.5056469
95	0x3cef0ee6	0.029181909
96	0xbf6c56b6	-0.9231981
97	0xbf74c199	-0.95607907
98	0x3f0ea57f	0.55721277
99	0x3eb60105	0.35547653
100	0xbd805b36	-0.06267397
101	0x3f1bd98b	0.6087882
102	0x3eedd049	0.4644797
103	0xbd3f6fd5	-0.04673751
104	0xbe84243c	-0.25808895
105	0xbe3cb5de	-0.18428752
106	0x3e7bb6c1	0.24581434
107	0x3effd5ba	0.49967748
108	0x3eb6ceee	0.3570475
109	0x3c0aaac2	0.008463563

fc2.bias f4 [11]
0	0x3d0a2a36	0.03373166
1	0x3e8bb6a2	0.27287775
2	0x3dfb08b5	0.1225752
3	0x3e12504e	0.14288446
4	0x3e1d407b	0.15356629
5	0x3ee7e908	0.45294976
6	0xbdfc6b66	-0.12325172
7	0x3d621847	0.055198934
8	0x3d8c5f5d	0.068541266
9	0xbe4f1d07	-0.20225917
10	0xbd906e5f	-0.070523016

fc3.weight f4 [1, 11]
0	0xbed0e8b9	-0.40802553
1	0x3f3e9b68	0.7445588
2	0xbf16e716	-0.5894636
3	0x3f23b281	0.6394425
4	0x3f62417c	0.8838117
5	0xbf39bc39	-0.7255283
6	0xbf25c12a	-0.6474787
7	0x3efe464c	0.49663007
8	0xbec01a1d	-0.37519923
9	0x3f152fbf	0.5827598
10	0x3ecb41d0	0.39698648
