reg/recsys.pth (torch, 588751 bytes, 7 tensors)

user_embd.weight f4 [944, 50]
00000000: c4d6 0000 4fe3 0080 de26 0080 35b6 0600
00000010: c889 0780 0434 0580 1291 0100 db8c 0580
00000020: 545e 0200 d570 0300 dfae 0180 6860 0100
00000030: 7d8b 0580 487e 0280 fefc 0000 81a2 0180
00000040: ecae 0080 f7ec 0100 4764 0100 2c7f 0200
00000050: 6270 0180 3203 0300 6031 0480 cd4e 0280
00000060: ce9a 0000 08cc 8332 5668 0180 f524 0380
00000070: f66f 0180 e59d 0000 8e1b 0180 f4a6 0600
00000080: 03fe 0200 99de 0280 f989 0400 1153 0480
00000090: cf2f 0080 8e73 0680 8d0a 0480 4d11 0280
000000a0: 9b4d 0180 c668 0000 bc01 0000 575a 0200
000000b0: 6106 0200 0a26 0680 0dc0 0200 3653 0200
000000c0: 9f78 0100 2c07 0280 f830 343d 1f77 093d
000000d0: 8493 273d e3e8 583d 84d4 5cbc d819 b53c
000000e0: f89a 983c 695d 36bb 461f ca3c 7717 bdbc
000000f0: b4d7 743c b5af f0bb 34bb 1bbc 0f87 97bd
00000100: 7372 6d3e ff08 2cbd c5da 653d 3ac9 a4bc
00000110: 4126 19bc 5fae 773c bec1 4a3d 82ad 29bd
00000120: 0590 ca3c 4763 ff3c b2fd 9dbc 087a d23c
00000130: 027e c83c f53c 023a 72d6 ebbc b684 733b
00000140: 2769 59bd 8ed9 973c 3a14 6bbd 20ee 12bd
00000150: d09d c23c 6901 98bd 5b04 60bc 782d 1c3d
00000160: 337b 0abc cee0 46bd 759a 773b 4183 663d
00000170: e61a 0e3b f01c b93c 27c1 7d3c 05a9 aabc
00000180: 62d3 3e3c a214 ae3c 2d99 473d 83a7 3d3d
00000190: ec33 9b3a e481 a5bb b8f8 66bc 444c c6bb
000001a0: d6c5 95bc 4cf9 9abc 4d11 c23c eafb 20bb
000001b0: 61ab a9bc 8823 053d 2456 26bc 01ac 8a3b
000001c0: 67ec 9ebc 07ec c23c f61c fb3d 724a 7bba
000001d0: f5c8 11bc 4869 d13c deb8 a8b9 e2d4 05bc
000001e0: 939f e73b 888d 923c 1510 693c 7f1d a6bd
000001f0: 1da0 563c ed41 47bc 7b24 653c e111 e1bb
00000200: f345 133c 8600 a93c 7d80 383b 0569 58bc
00000210: 31f9 623c f06b 093c 4b4e a3bc 6ae6 683c
00000220: 501b e6bc 03f6 3ebc 7d8c 253c 55f2 a3bc
00000230: 5932 0fbc 1b39 cbbc f8a4 fc3b 9b21 74bc
00000240: 807d 96ba 43fe 9bb9 231b 303c 1431 a3bc
00000250: 571d ae3b 3552 e13c 1349 0dbc 83fe 02bc
00000260: a632 b43c 94d1 373d 7202 e9bc 7c36 62bb
00000270: fad4 cdbc 6e11 14bd 4966 353b fc86 db3c
00000280: 1b8e b33c b743 8abd a0d4 7cbd 4530 f1bc
00000290: 7fde a7bc 51fb 103d b981 dfbb b347 f5bb
000002a0: ff26 ccbc 71bf 6ebc 49c6 243d 4a5f ffbb
000002b0: 9744 bdbc 8330 7e3e c458 08bd 3ded 003d
000002c0: 9c01 343d 12a0 57bd 4455 163d 7e96 203c
000002d0: 2b74 7cbd 0bbd e1bc e1c9 98bc 0439 8d3c
000002e0: b7b8 1e3d 2ae7 5cbd ec97 fc3b 2376 133c
000002f0: 0ed2 8b3d 92dc b33a 3c29 f0bc fb13 5f3d
00000300: 982e 1a3b 3d18 84bc 3e5e 593d a074 253d
00000310: 40c1 e63a 9b5d 503d 9efb d33c 3ead f13c
00000320: ec4f 52bc 1699 b0bc ad5e 793c 794f a23b
00000330: 9090 a239 06bf 43bb b99c 8d3a 513c 753b
00000340: 71ca 713c 5d57 a73b 70c2 9aba da65 a5bc
00000350: eae1 2cbc 7882 783c 6aaa 133e b118 633c
00000360: 6a83 2abb f185 85bb 81b2 ba3a 2bdf b8ba
00000370: 0a79 c53b 7b5d b9bb f312 11bc 9fa1 73be
00000380: 1718 afbb 5aa2 c5bb 71be 7c3b 1e79 82bb
00000390: 337d a83a d7cf 7e3b ee29 813b e12e 1b3c
000003a0: 3225 82ba a3e7 f3bb 941d 113c b03b af39
000003b0: 36f0 1fbb b0aa 153a 0397 8c3c 7396 f03b
000003c0: 1d09 443b 1e9a 89bb 9897 c1bb cdbe b5bb
000003d0: 8e21 4b3c 4e51 a0bb 60e4 c2bb b129 173c
000003e0: 4442 32bc a8a3 08bc 474d 433c a72a 763d
000003f0: c0f8 903b 0337 d63d 555c 29bd 7229 20bb
7.7043e-41 -8.1543e-41 -1.3943e-41 6.16377e-40 -6.92275e-40 -4.77837e-40 1.43877e-40 -5.09707e-40
2.1751e-40 3.15983e-40 -1.54567e-40 1.2642e-40 -5.09216e-40 -2.28972e-40 9.0756e-41 -1.50131e-40
-6.275e-41 1.76842e-40 1.27808e-40 2.29292e-40 -1.32151e-40 2.76653e-40 -3.85054e-40 -2.1194e-40
5.5533e-41 1.534319e-08 -1.29264e-40 -2.88764e-40 -1.32e-40 5.6642e-41 -1.0172e-40 6.10904e-40
2.74793e-40 -2.63524e-40 4.16837e-40 -3.9714e-40 -1.715e-41 -5.92466e-40 -3.71127e-40 -1.89877e-40
-1.19675e-40 3.7586e-41 6.22e-43 2.16079e-40 1.8596e-40 -5.64659e-40 2.52566e-40 2.13521e-40
1.35106e-40 -1.86244e-40 0.043992013 0.03356087 0.040912166 0.052956473 -0.013478402 0.02210705
0.018628582 -0.0027826673 0.024673115 -0.023082478 0.014944006 -0.0073451647 -0.009505082 -0.07398807
0.2318819 -0.042000767 0.056116838 -0.020115484 -0.009347499 0.015117257 0.049501173 -0.041425236
0.024726877 0.031175269 -0.01928601 0.025692955 0.024474148 0.000496819 -0.028788779 0.003715796
-0.053078797 0.018536355 -0.057392336 -0.035871625 0.023756891 -0.07422144 -0.013672913 0.0381293
-0.008452225 -0.048554234 0.0037781273 0.056277517 0.0021683513 0.022596806 0.015487946 -0.020832548
0.011647077 0.021250073 0.048730064 0.04630233 0.0011841035 -0.0050508846 -0.014097385 -0.006051572
-0.018282812 -0.018917702 0.02368989 -0.0024564215 -0.020711603 0.03250459 -0.010152373 0.0042319302
-0.019399835 0.023794187 0.12261383 -0.00095859834 -0.00889801 0.025562897 -0.00032181194 -0.008168431
0.0070685833 0.017889753 0.014225026 -0.08111095 0.013099697 -0.012161714 0.013985748 -0.0068685864
0.008988845 0.020630132 0.0028152757 -0.013208632 0.013853357 0.008387551 -0.019934794 0.014215091
-0.028089195 -0.011655333 0.010104296 -0.020013014 -0.008740031 -0.024807503 0.0077100955 -0.01490059
-0.0011481494 -0.00029753344 0.010748657 -0.019920863 0.005313556 0.02750502 -0.008623379 -0.007995251
0.021996807 0.044877604 -0.028443549 -0.0034517338 -0.02512597 -0.036149435 0.0027679375 0.026797764
0.021918347 -0.06751197 -0.061726213 -0.029441962 -0.020491837 0.035395924 -0.006820884 -0.007485354
-0.024920939 -0.01457201 0.040228162 -0.0077933418 -0.023103995 0.24823193 -0.03328778 0.031476248
0.043946847 -0.05264289 0.03670241 0.009801505 -0.061634224 -0.027555963 -0.01865095 0.017239101
0.038750377 -0.053931393 0.00770854 0.009000334 0.06827174 0.0013722351 -0.029316537 0.054462414
0.0023526307 -0.016124839 0.053068392 0.040394425 0.00176052 0.05087052 0.025876816 0.029501554
-0.012836438 -0.021557372 0.015220326 0.0049533215 0.00031006755 -0.0029868498 0.0010804153 0.0037419985
0.014757738 0.00510685 -0.0011807214 -0.020190168 -0.010551909 0.015167825 0.14420477 0.013860867
-0.002601827 -0.004074805 0.0014243872 -0.0014104595 0.006026392 -0.0056568957 -0.0088546155 -0.23792122
-0.005343448 -0.0060313167 0.003856566 -0.0039817235 0.0012854695 0.0038881206 0.003941766 0.009471626
-0.0009929298 -0.0074433847 0.00885715 0.00033423072 -0.0024404651 0.00057093333 0.017161852 0.0073421537
0.0029912659 -0.0041992804 -0.005907964 -0.005546427 0.012398137 -0.004892505 -0.0059476346 0.009226249
-0.010880057 -0.0083398 0.01192028 0.06009927 0.0044241846 0.104597114 -0.04134782 -0.0024438766

item_embd.weight f4 [1683, 50]
00000000: d51e 0700 0ebd 0180 2a3a 0100 f151 0480
00000010: 3283 0180 3526 0180 fc0f e6b0 4171 0080
00000020: d6ab 0000 4881 0380 7a1c 0100 d788 0300
00000030: cfa6 0280 fdd7 0100 bc6a 0280 d80d 0280
00000040: 3f46 0280 917b 0600 15d4 0100 296e 0180
00000050: 86fb 0380 d981 0200 9e4f 0300 b376 0080
00000060: 59b0 0100 555e 0700 5f1d 0080 6906 0200
00000070: b42b 0300 f90e 2835 95f7 0280 1f34 0580
00000080: ef49 0100 5eef 0280 8ce1 0000 71a8 0280
00000090: 6b7e 0300 bd82 0380 cd5b 0000 9709 0080
000000a0: 5180 0000 33a0 0500 eee9 0180 c78b 0500
000000b0: 6388 0080 528f 0280 9ad6 0200 daec 0200
000000c0: eae0 0280 44ac 0080 72d7 76bd 2fb9 1fbd
000000d0: 0a2f 143c 68fd 81bc 0ebb 09bd 40bd 1e3a
000000e0: 751c 28bd 355e c4bc ab5f 8abc 7c17 f7bc
000000f0: 3385 293d 8ba0 debb 8bc0 15be 39ce 0cbd
00000100: 09a1 8dbc b5b5 8bbb dfd9 2a3d 99d9 193d
00000110: ce7d e5bb 2cf8 0abc 1bd7 2a3d 3804 763b
00000120: da16 863c 10c8 8b3b f6bd f3bc 6493 643c
00000130: 6048 5d3e bf42 88bd 1150 623b ea6e 48bc
00000140: 2732 a73d a01b aebc 9627 4bbd 5ea0 9d3c
00000150: c164 443d 355a 123d 033b 30bc 9f60 3d3d
00000160: ef93 21bc 50c2 153d 684f a93b 95db 84bc
00000170: b8d5 283d 161f d53b ae8d 33bd 9342 243c
00000180: 9695 f4bc 9cf9 d5bc 7b4e 2bbd b9b9 86bd
00000190: 4b0c 06bd caea ea3c bc45 adba e58f f83c
000001a0: 146a d83c 0818 8abc 88ca 94bc d6f2 fd3b
000001b0: 9967 503b 6474 49bc 5289 263c 5ef9 d13b
000001c0: 1a22 a2bd 76d7 bfbc d22d 4b3b 0df1 0ebd
000001d0: 157f 81bb ec66 c43b ee0d 2bbc 6858 2a3b
000001e0: 1beb 973a c09f ff3b f374 15bc 26c1 943c
000001f0: c8d8 1d3c c7b8 c73c 0d1a aebc d1cc 0e3d
00000200: c317 5d3c 2427 dabc 285f 2cbd 112e 48bb
00000210: da73 5b3c c7d7 db3b d7a1 943b 8084 953c
00000220: 8f75 663c 8976 0c3c 408d 54bc 297e 35bd
00000230: ce2b 1dbc 54d2 b1bb 810a 67bc 7bcb f1bc
00000240: fe24 9a3c 87dd 8c3b 6363 853c 77b7 533b
00000250: 6d6e a6bc 0784 fabc 463e f63c 2e0d 353d
00000260: f01e 75bc 679b 51bc 8a71 173c 8070 10bd
00000270: a766 223d 7549 8e3c eca1 41bd f373 60bd
00000280: f317 9fbc e599 933c 50cb 663d 2729 28bc
00000290: cd43 0bbd bc82 9f3c 5cae 99bc b3f3 54bd
000002a0: bece d33c 7448 8abc 09bc 1c3d bb60 783c
000002b0: be10 e1bc 0e59 d1bb 5eaf 46bc cdf6 57bd
000002c0: a2d8 8b3c 0465 113c ecb4 38bd 0f27 15bd
000002d0: 3eaa e7bd 5b87 ad3c 854e 123c a9ab 7bbd
000002e0: 31fd 883c e9d5 80bc 7093 d73c 12f7 09bd
000002f0: 3daf 533b 8e68 093d 0bdc febc f952 793c
00000300: 438a 42bd 9489 853c 3154 dc3c 1eb6 903c
00000310: 2a77 9bbc 607c 0d3b d750 d63c fd88 0e3d
00000320: 639b ddbc b7a4 51bc 1e1c 1f3d 2442 cf3c
00000330: 56a4 483c 052b 253d b1fb bdbc 11bb c4bc
00000340: 217b 9a3d 69c4 8c3d b1e3 2abd d796 a9bd
00000350: b516 2f3d 80d1 9f3d dc1a 623c a3e5 babb
00000360: 5741 15bd 307d 613d 4fe9 b2bc e3d0 163d
00000370: e217 d2bd 5845 373d 9bb8 a4bc c6b2 56bd
00000380: 5e05 c83c b0af ef3c 3cd9 d4bc 3a39 893c
00000390: 2940 993d 4913 ae3d 520d b23d 4d68 c939
000003a0: 9c75 f7bb e360 8c3d 4ccf 8bbd 6147 e33c
000003b0: 6791 a8bd 63d2 e6bc 30b7 c03c d1f8 c0bc
000003c0: ecba 0b3d 9a58 7f3d 216b 603d d0bb b9bd
000003d0: 792c c0bc e2e9 f2ba 457c 843d 195a 553a
000003e0: 8124 743d a4e9 beba fd86 223b bdf9 0f3c
000003f0: 2063 07bd dc14 1c3d c585 063d 3458 f0bc
6.53909e-40 -1.59656e-40 1.12701e-40 -3.96737e-40 -1.389e-40 -1.05542e-40 -1.6739246e-09 -4.0628e-41
6.1643e-41 -3.21884e-40 1.02051e-40 3.24595e-40 -2.4351e-40 1.69317e-40 -2.2196e-40 -1.88637e-40
-2.0887e-40 5.9534e-40 1.67916e-40 -1.31354e-40 -3.65736e-40 2.30252e-40 3.04068e-40 -4.2581e-41
1.55097e-40 6.76688e-40 -1.0536e-41 1.8597e-40 2.91184e-40 6.2606665e-07 -2.72487e-40 -4.77875e-40
1.18358e-40 -2.6954e-40 8.0911e-41 -2.44096e-40 3.20857e-40 -3.22407e-40 3.2932e-41 -3.44e-42
4.6031e-41 5.16646e-40 -1.75754e-40 5.0932e-40 -4.8926e-41 -2.35085e-40 2.60656e-40 2.68637e-40
-2.64355e-40 -6.1797e-41 -0.06026406 -0.038994964 0.009044418 -0.015867904 -0.033625655 0.0006055422
-0.041042764 -0.023970703 -0.016891321 -0.030162565 0.041386794 -0.0067940406 -0.1462423 -0.034376357
-0.017288702 -0.0042636045 0.041711684 0.037561033 -0.0070035225 -0.00848202 0.041709047 0.0037539136
0.016368318 0.0042657927 -0.029753666 0.013951156 0.2160964 -0.06653356 0.0034532587 -0.012233475
0.08163863 -0.021253407 -0.0495983 0.019241508 0.04794765 0.03573056 -0.010756257 0.046234723
-0.00986193 0.036562264 0.0051669367 -0.016217986 0.041219443 0.00650395 -0.04383629 0.010025638
-0.029856484 -0.02612 -0.04182289 -0.065783925 -0.032726567 0.02867641 -0.0013219635 0.030342052
0.02641777 -0.016857162 -0.01816298 0.0077498956 0.003180003 -0.012295816 0.010164576 0.0064079007
-0.079166606 -0.02341817 0.0031002653 -0.034897853 -0.003951917 0.0059937146 -0.010440333 0.0025992636
0.0011590453 0.007801026 -0.009122121 0.018158507 0.009634204 0.0243801 -0.021252656 0.034863297
0.013494435 -0.026629992 -0.042082936 -0.0030545036 0.01339432 0.0067090723 0.0045358944 0.018251657
0.014066114 0.008573183 -0.01297313 -0.04430977 -0.009592963 -0.0054266844 -0.014101625 -0.029515972
0.018816467 0.004298869 0.016282743 0.0032305398 -0.020316327 -0.030580534 0.030058991 0.044202022
-0.014960989 -0.012793398 0.009243378 -0.03526354 0.03964868 0.017369011 -0.04727356 -0.054798078
-0.0194206 0.018017719 0.056346238 -0.010263718 -0.034000207 0.019471519 -0.018759899 -0.051990222
0.025855418 -0.016880251 0.03826526 0.015159781 -0.027473804 -0.00638879 -0.012126772 -0.052725602
0.017071072 0.008874182 -0.045094416 -0.036414202 -0.11311768 0.021182707 0.008929853 -0.061443005
0.016722294 -0.015727 0.02631542 -0.03368289 0.0032300495 0.033546977 -0.031110784 0.015217536
-0.047495138 0.016300954 0.026895614 0.017664965 -0.01897772 0.0021589026 0.026161594 0.03479861
-0.027051633 -0.012795619 0.038845174 0.025300093 0.012246212 0.04032423 -0.023191305 -0.024014981
0.07543016 0.068734 -0.04172105 -0.082807235 0.042746264 0.07803631 0.013800349 -0.0057036444
-0.036439266 0.05505103 -0.021839766 0.036820304 -0.102584615 0.044743866 -0.020107558 -0.052416585
0.024416622 0.029258579 -0.025982492 0.01675092 0.07482941 0.08499772 0.08693947 0.00038415418
-0.007551862 0.06854417 -0.06826648 0.027743997 -0.08230858 -0.028176492 0.02352485 -0.023556145
0.03411381 0.062340356 0.054789666 -0.090690255 -0.023458706 -0.0018532837 0.06469015 0.0008138731
0.059605125 -0.001456548 0.0024799698 0.00878757 -0.033053517 0.03810583 0.032842416 -0.029338934

fc1.weight f4 [100, 100]
00000000: 5790 0100 1266 0600 9d13 0780 4e85 0500
00000010: 6816 0000 86cb 0100 a07b 0280 2397 0000
00000020: 92c3 0480 f446 0200 f1ae 0180 caf8 0080
00000030: 2869 0000 847c 0180 2f8e 0080 d0b4 0680
00000040: 1d92 0200 6733 0200 9afd 0480 ae7e 0200
00000050: 5836 0200 e251 0000 87e2 0080 df85 0000
00000060: 46f6 0280 2989 0400 f81d 0480 8b37 0680
00000070: b3c8 0200 85f2 0100 b483 0780 b32e 0100
00000080: e542 0180 cf4f 0280 30ed 0080 9c45 0080
00000090: f8af 0000 6ac9 0400 4cb2 0000 b0a9 0100
000000a0: ec8f 0000 60c2 0480 310b 0100 2c80 0180
000000b0: a681 0280 b63a 0200 380d 0000 1651 0080
000000c0: 03af 0000 2050 0080 ce33 0480 7472 0480
000000d0: bc78 0100 469f 0000 9895 0180 fd6b 0480
000000e0: faab 0780 81cb 0200 bec2 0100 a51c 0480
000000f0: 15c0 0380 2789 0280 8ec4 0380 967b 0100
00000100: bd82 0300 3c73 0280 bc5e 0080 ecac 0200
00000110: e189 0380 3f17 0080 958e 0100 e82f 0500
00000120: a0ef 0200 93f9 0080 7ba9 0680 5367 0200
00000130: cadb 0100 a792 0380 1189 0200 4ce2 0180
00000140: bddf 0300 c2bc 0080 2a48 0000 be90 0400
00000150: 10f0 0480 f822 0280 2c90 0400 ff98 0180
00000160: 7074 0300 8788 0100 500e 0680 86ec 0380
00000170: fd6d 0000 bd05 0480 3b8c 0300 7391 0100
00000180: 0565 0180 c684 0000 2282 0080 4345 0280
00000190: cc07 24bd fd67 d4bc e595 ab3c d57f d4bc
000001a0: f0a1 0abc bfe4 b8bc c764 64bd a7e6 29bd
000001b0: ccf9 193d 82bd 8ebb f3e0 20bc 3399 cd3b
000001c0: d5f0 43bd b951 ebbd 9266 a63e 96f8 93bc
000001d0: 72bc 283d 9330 29bd 71d5 38bd 1495 22bd
000001e0: bc42 ce3c 2b12 b63c 0b1f 8c3b 2936 50be
000001f0: 12f0 853a d910 bbbc 9ff5 a23c c584 203c
00000200: b797 77bc 8907 fabc 6e91 03bc 14a2 8abc
00000210: 4f5d 0dbc 8584 a8bb 3f6a 88bc e10f a1bc
00000220: 36ff 81b9 fb7a 4b3d 9aa6 ec3b c082 49bc
00000230: 3b3f b1bc aa62 7e3c 1aa6 763c cb82 483c
00000240: be70 593d 1107 f03b 02f9 d83b 3fed eb39
00000250: da45 59bc 8ef6 86bc 5d42 09bc b97d 143c
00000260: eedf 6ebd 924c 933d 3a48 cd3a dae3 d7bc
00000270: 1190 f13c cbd5 e4bc c2ae 9f3d a821 26bc
00000280: ee58 f93b a853 1bbd 4f35 e53d b242 0cbb
00000290: 53f7 debd d7ea c3bd 18f5 25bc e570 1d3c
000002a0: 18b2 203d 6aa2 f2bb 2d7e d83b ca19 913d
000002b0: ffac 2dbd f0da 90bc 07ff 66bd 2669 58bd
000002c0: fc47 b43e 2648 74bd 54c4 893c fc50 99bb
000002d0: 9ff1 563e 0c01 53bd 8d03 23bd dedd 14bb
000002e0: 7480 0d3d 4bc6 963d cfcc a53c 31f4 29bd
000002f0: 0f88 51bd e9b5 163d ba51 40bc b2b4 44bc
00000300: 8f79 6f3c 7a9a 3b3d 6c07 85bc f933 fc3d
00000310: e413 3abc 108d 4bbd 158d dbbb add7 ab3c
00000320: 65cb 3ebc 1b70 253b 2724 e639 150a 65bd
00000330: 637d bb3c bf02 b23c fc79 253d 0e2e 533d
00000340: f869 cc3c 5ec6 b63c 653f adbb 74b4 be3c
00000350: 8833 c23c 38da 97bd 59d7 ae3e 0cc0 8c3b
00000360: f7fb 13bc df82 6b3d 8f68 3e3c 9871 f43c
00000370: c712 34bd dc6a a03b de7b e13b 8294 9c3e
00000380: f121 8ebd 6df2 39bd cfac 553c 22f5 a33c
00000390: 8077 5f3b fe85 1c3d 6d1e f63c 3534 503d
000003a0: a0ec 403d 1828 efbc 2796 cbbc 6c0a 963c
000003b0: b431 5cbd 9695 93bd 4172 fcbc 7fd7 01bd
000003c0: 73a4 793d 2ac5 abbd 13d4 8fbb 851c 9abd
000003d0: 62db fcbc 280b ccbd 4801 37bd 85a4 1cbc
000003e0: 8794 e9bd e7ec b4bc ec05 473d 7d0b 0f3d
000003f0: fe08 38bc c850 79bd b49c ffbc e2af b3bc
1.43615e-40 5.87629e-40 -6.49884e-40 5.06998e-40 8.038e-42 1.64846e-40 -2.28019e-40 5.4218e-41
-4.375e-40 2.09124e-40 -1.54593e-40 -8.9249e-41 3.7723e-41 -1.36503e-40 -5.1006e-41 -6.15876e-40
2.36087e-40 2.0211e-40 -4.58317e-40 2.29115e-40 2.03166e-40 2.9374e-41 -8.1263e-41 4.8024e-41
-2.72017e-40 4.16546e-40 -3.78093e-40 -5.70938e-40 2.55668e-40 1.78835e-40 -6.90095e-40 1.08588e-40
-1.15833e-40 -2.12301e-40 -8.5087e-41 -2.4971e-41 6.3126e-41 4.39596e-40 6.3961e-41 1.52708e-40
5.163e-41 -4.3707e-40 9.585e-41 -1.37815e-40 -2.3018e-40 2.04733e-40 4.742e-42 -2.9088e-41
6.2782e-41 -2.8743e-41 -3.85926e-40 -4.084e-40 1.35147e-40 5.7137e-41 -1.455e-40 -4.06081e-40
-7.04542e-40 2.56674e-40 1.61696e-40 -3.77618e-40 -3.44413e-40 -2.32872e-40 -3.46017e-40 1.3617e-40
3.22407e-40 -2.25009e-40 -3.3984e-41 2.45704e-40 -3.24968e-40 -8.339e-42 1.42984e-40 4.76363e-40
2.69632e-40 -8.953e-41 -6.11811e-40 2.20737e-40 1.70681e-40 -3.28115e-40 2.32841e-40 -1.73016e-40
3.55769e-40 -6.7714e-41 2.5888e-41 4.19266e-40 -4.5346e-40 -1.96215e-40 4.19061e-40 -1.4672e-40
3.17276e-40 1.40812e-40 -5.56147e-40 -3.60355e-40 3.9456e-41 -3.694e-40 3.25812e-40 1.44013e-40
-1.28074e-40 4.763e-41 -4.6683e-41 -2.08517e-40 -0.0400465 -0.025928492 0.020945499 -0.025939861
-0.0084614605 -0.022570012 -0.05576017 -0.041479733 0.03759174 -0.004356087 -0.009819257 0.0062743663
-0.047837097 -0.11490197 0.3250013 -0.018062871 0.04119534 -0.04130609 -0.04512543 -0.039692953
0.025178306 0.02222546 0.0042761615 -0.2033316 0.0010218641 -0.022835182 0.019892512 0.00979728
-0.015111855 -0.030521171 -0.008030279 -0.016922988 -0.0086282035 -0.0051427507 -0.016652225 -0.019660892
-0.00024794944 0.04967783 0.007222009 -0.01229924 -0.021636596 0.015526453 0.01505425 0.012238215
0.053086035 0.007325061 0.006621481 0.00044999455 -0.013261283 -0.016474988 -0.008377639 0.009063178
-0.058319025 0.07192339 0.0015661784 -0.026353765 0.029487642 -0.027933976 0.07797004 -0.01013986
0.007609478 -0.037921578 0.111918084 -0.0021402058 -0.10887017 -0.095662765 -0.010129236 0.009609436
0.039232343 -0.007404615 0.006606838 0.07084997 -0.04240131 -0.017682523 -0.056395557 -0.052834652
0.3521117 -0.05963912 0.01681725 -0.0046788435 0.20990609 -0.05151467 -0.03979831 -0.002271525
0.03454633 0.0736204 0.020239262 -0.041492645 -0.051155146 0.036794577 -0.011738235 -0.012005972
0.014616384 0.045801617 -0.01623889 0.123146005 -0.011357281 -0.049695075 -0.006700168 0.020976866
-0.011645173 0.0025243822 0.00043895954 -0.055917818 0.022886937 0.021729825 0.040399536 0.051557593
0.024952874 0.022311386 -0.005287098 0.023279406 0.023706213 -0.07414669 0.34148672 0.0042953547
-0.009032241 0.057497855 0.011621608 0.029839322 -0.04396322 0.004895551 0.006881221 0.30582052
-0.069400676 -0.04539721 0.013041689 0.02001435 0.0034098327 0.038213722 0.030043805 0.05083104
0.047100663 -0.029193923 -0.024851872 0.018315516 -0.053758338 -0.07206266 -0.0308162 -0.031699654
0.060947847 -0.083872154 -0.004389295 -0.07524971 -0.030866329 -0.099630654 -0.044678956 -0.009560709
-0.114052825 -0.02208562 0.048589632 0.034923065 -0.011232613 -0.060868055 -0.031202652 -0.021934453

fc1.bias f4 [100]
00000000: 3d63 a09f e766 2bbd d782 efbc b37e c2bc
00000010: c286 e0bb 158f 5cbd 197c 55bc 46e3 9cba
00000020: c874 c09d e79a 12bc 9987 28b2 3386 033d
00000030: 6a6c 7abd aaec 59b8 4534 bbbc 0085 aa98
00000040: fa0e a0bd 7821 4abd 1b81 0ab8 5a29 8cbd
00000050: f5bb 0ebd a02e aab3 df7d 16a4 8660 02bd
00000060: d720 7db8 b318 82bd af6e 41bc 25cc cfb1
00000070: 5721 003c 7f3a 47bc c339 12bd ab13 30bd
00000080: b22e cbbc 175d 1ebd 02e6 ebbc 743d 7ebd
00000090: 6eec 6fbd f632 21b6 c36c 9fb6 76f8 ddb2
000000a0: 12e2 ccb4 5e83 79bd 331f 83b1 20c8 87af
000000b0: 6ed1 fdb5 0a42 033c bdbf b5b9 f628 a1bc
000000c0: 51fe 9bb4 f27c 2ebc 37a6 ccb7 6121 c6bd
000000d0: 270d 1eb8 5f99 02bc fb6f 44b2 b5cb 1b9c
000000e0: b2f0 40bc 6f46 98a3 5f7d 0fad 87ea bf3c
000000f0: cd7e 57bc f06b cdbc 543d 8dbd dd54 373d
00000100: 02b2 f2bb 832a 4cbc 2542 adbd e4ea 47bd
00000110: 4224 1abd 4ba3 cabd 3860 0ba4 fea3 5cbc
00000120: 6ce9 d3bc 5370 f5bc a635 0abd d8f9 81bd
00000130: 1642 a79e 8f28 a2ae f070 d2b7 3adb 2cbd
00000140: aa7d a5bb 6537 14b1 adc8 ffbc de39 1ebc
00000150: a267 013d db8a 2abd 9380 59bc f716 57bd
00000160: 4170 8bbd 0c8e 93bc 5b09 f0bb c142 9abc
00000170: 1c70 91bb 1c30 b33c 60d2 abbc a33a c2bb
00000180: e7fd 0aad da4f 57b7 c645 48a5 5e91 80bc
-6.792681e-20 -0.041846182 -0.029237194 -0.023742056 -0.006852002 -0.05384739 -0.0130300755 -0.0011969588
-5.0942726e-21 -0.008948064 -9.809718e-09 0.032110404 -0.061138548 -5.1957242e-05 -0.022852072 -4.4078266e-24
-0.078153566 -0.049348325 -3.3022003e-05 -0.06843825 -0.03484722 -7.924723e-08 -3.2632682e-17 -0.031830333
-6.0350485e-05 -0.06352367 -0.011806174 -6.0477015e-09 0.007820449 -0.012159943 -0.035699617 -0.042987507
-0.02480254 -0.038662996 -0.0287962 -0.062070325 -0.058575086 -2.4020533e-06 -4.751231e-06 -2.5840773e-08
-3.816245e-07 -0.060916297 -3.8161487e-09 -2.4698554e-10 -1.8910921e-06 0.00801135 -0.00034665866 -0.019672852
-2.905604e-07 -0.0106499065 -2.4396095e-05 -0.09674335 -3.7682385e-05 -0.007971137 -1.1434163e-08 -5.1548483e-22
-0.011776136 -1.6509703e-17 -8.156447e-12 0.023427261 -0.01315279 -0.025075883 -0.06896463 0.044758666
-0.007406474 -0.012461307 -0.08459882 -0.048807994 -0.037632234 -0.09894427 -3.022232e-17 -0.013466833
-0.02586814 -0.029960787 -0.03374257 -0.06346482 -1.7709145e-20 -7.374112e-11 -2.5086541e-05 -0.04220126
-0.0050503807 -2.1568323e-09 -0.03122362 -0.009657351 0.031592973 -0.04163633 -0.013275283 -0.052512135
-0.0680852 -0.01801207 -0.007325334 -0.018830659 -0.0044384133 0.021873526 -0.020974338 -0.0059274
-7.9007694e-12 -1.28335905e-05 -1.7370875e-16 -0.015694316

fc2.weight f4 [50, 100]
00000000: 7260 0300 6639 f1bc 700d f73d a62e 47bd
00000010: c897 0600 4630 92bd c6de a83d c189 4cbc
00000020: 1fed 0100 0343 ffa2 c943 0380 de98 82bc
00000030: 06d6 383b 0999 0180 f253 a2bc 7a1c 0180
00000040: b53c 7dbd 9280 a5bb dd57 0180 d633 2bbc
00000050: e978 423d 3e76 0280 a343 0280 2de3 a93d
00000060: e0ad 0080 dd8a 903b a6bd 01b2 aafe 0180
00000070: 87f7 2ebd 8415 292b 3b54 92b9 5b0c d9bc
00000080: 31a4 90b5 ffcb 14bd ffd2 16b8 7516 bb3d
00000090: da11 85bd 283a 0889 1998 0600 b8c6 0680
000000a0: a074 0000 8a3e 893d 304b 0200 bf34 0600
000000b0: 2606 dc0c 0f36 373d c0e8 0e3a 6cd4 0b35
000000c0: d19d 1280 b945 4e2a ad77 0080 5cd9 4fbc
000000d0: 1a98 0280 389c a73d 8e9b 0080 cec7 0080
000000e0: 64cc 99bd 33a2 0380 ed68 0200 5b3c 7e3d
000000f0: fccf f92d c50f 56bd be0d 8abc 262b 913d
00000100: b14b 033e cf74 f23d 2ecb 41bd f974 a4bb
00000110: e6af ee3d 0596 d23d 1081 0300 f446 e930
00000120: 678a b2bb 3de3 25bd bd31 43b8 f77f d4bc
00000130: fff9 0000 2cf9 0c80 8755 0300 b475 0d3b
00000140: 38d7 5520 5e63 0200 9841 d9bb 921b f8a8
00000150: be46 513d e677 4fbc fc69 90b0 5767 06bc
00000160: f05c b23d 92f8 0c3e 11dd 183d f53a df3d
00000170: c821 0200 1f2f 7e3d 68c0 033e 8d5c 4bbd
00000180: 7fa1 0200 659d 0480 ca08 0780 d0d7 eebc
00000190: fab2 0480 7cbf 953d a2f5 94bd 16dc 9d3d
000001a0: 59fb 3714 d726 e63d 60d3 d337 f236 b13c
000001b0: bc11 0080 f39e 261d 795c 0400 4c20 15bd
000001c0: f266 8f3d e761 0580 ac87 823d ffef 0480
000001d0: 3101 ca3d f204 203d f55f 0180 f622 9c3d
000001e0: bf8b 4ebc 9722 0280 7be6 0080 122f 57bd
000001f0: 4066 0200 f31a bd3d e644 b1b0 0922 0380
00000200: d4c5 9a3d 92ae 7c27 1668 593b 5a9e 3e3d
00000210: cdfe e7b4 504f 6e3d eaa8 c0b6 2475 22bd
00000220: caff c83d 49f6 ec09 917c 0400 28a7 0180
00000230: fb76 0200 438f b0bd 92d1 0280 e244 0500
00000240: 2b8a ee0c 31a3 2fbc 49ca 4e3d ab06 bb3b
00000250: aa93 0100 7aac c523 f37e 0500 0a33 8f3d
00000260: 4822 0200 6713 e0bc aa7e 0080 fb50 0680
00000270: ba9d 453d 1db1 0100 8ef6 0080 1954 f8bc
00000280: 5726 9031 bab4 9c3d d21f 843d ef03 1ebd
00000290: f283 9cbd 6628 87bd 0a28 8b3d 19d9 243d
000002a0: ef59 95bd bd25 08bd c909 0500 baab f830
000002b0: 3358 653d a151 dd3c 1876 2237 f547 7d3d
000002c0: a879 0000 bca4 0280 3c33 0100 929b a7ba
000002d0: f2e8 ce03 dd94 0000 0066 7dbc 80ce 6c90
000002e0: 4ff7 86bc 5927 983d 57f6 51b0 9e66 773d
000002f0: b1fb 1cbd 0b34 febd a338 c7bc d3ca bfbd
00000300: 7440 0100 15ab 58bd ae61 5dbd 77e8 923d
00000310: 1e40 0100 bab3 0000 5b6d 0480 2bf2 b53c
00000320: 37a3 322b 2d72 393d 1efd b8bc 8971 6b3d
00000330: 0f38 0080 5f6b 483d 97e5 cb3c 8e33 923c
00000340: 6b46 0600 c777 2eb6 5ffa 8caa 8c0a bc3c
00000350: 6580 023d 47c1 0280 abe6 923d 0ecc 1934
00000360: 572f 883c 6f69 b13c 975e 0100 94e9 443d
00000370: 3522 3fbd 0e59 0500 3576 0280 73d9 013c
00000380: 83e5 0200 e12b 763d 99d3 0080 c065 0700
00000390: a6de 873d cd59 0400 9c13 1a37 0f27 2d3d
000003a0: dc75 0700 59a5 4c3d b6cd 0280 6264 68bb
000003b0: c546 953d da4c 0532 2c2b 0100 7411 0480
000003c0: e249 97ae 8f95 bfbb e064 0600 96c4 0300
000003d0: 000a a1b4 65e2 28bc 8034 ce3c bbe2 2bbb
000003e0: 918a 0000 526b 382b f3f3 0600 ee4d 353d
000003f0: fbe1 0100 d05f 91bc 37be c7a9 fc20 0680
3.10105e-40 -0.029446315 0.1206311 -0.04862847 6.05462e-40 -0.07138114 0.08245616 -0.012484015
1.76899e-40 -6.918884e-18 -2.99823e-40 -0.015942033 0.002820374 -1.46734e-40 -0.019815419 -1.02051e-40
-0.061825473 -0.005050727 -1.23355e-40 -0.01044937 0.04747859 -2.26088e-40 -2.07934e-40 0.082952835
-6.2375e-41 0.004411085 -7.551909e-09 -1.83192e-40 -0.04271653 6.007072e-13 -0.00027910047 -0.02649515
-1.0776622e-06 -0.03632736 -3.5959292e-05 0.09135143 -0.064975455 -1.639775e-33 6.05575e-40 -6.223e-40
4.1837e-41 0.067013815 2.10643e-40 5.69935e-40 3.3900067e-31 0.04472929 0.00054515526 5.209065e-07
-1.709653e-39 1.8320665e-13 -4.2932e-41 -0.0126861 -2.38235e-40 0.08184093 -5.5803e-41 -7.1676e-41
-0.075096875 -3.33693e-40 2.21311e-40 0.06206928 2.8400386e-11 -0.052261133 -0.016852256 0.07088308
0.12821843 0.11838686 -0.047312908 -0.005018827 0.11654644 0.1028252 3.21805e-40 1.6973147e-09
-0.0054486278 -0.040499914 -4.6537945e-05 -0.025939925 8.9682e-41 -1.191412e-39 3.06188e-40 0.002158505
1.8113012e-19 2.19317e-40 -0.006630134 -2.7545488e-14 0.051092856 -0.012662863 -1.0507502e-09 -0.008203349
0.08709133 0.13766697 0.0373202 0.10899917 1.9579e-40 0.062056657 0.12866366 -0.04964881
2.41605e-40 -4.23805e-40 -6.46001e-40 -0.029155642 -4.31547e-40 0.07311913 -0.07273413 0.07707994
9.2887085e-27 0.11237877 2.525159e-05 0.021632645 -6.362e-42 2.2052092e-21 4.00515e-40 -0.036407754
0.07002057 -4.94298e-40 0.063735336 -4.53436e-40 0.098635085 0.039067216 -1.26258e-40 0.07623856
-0.01260656 -1.9608e-40 -8.2681e-41 -0.052535124 2.20351e-40 0.09233656 -1.2898027e-09 -2.87716e-40
0.07557264 3.506666e-15 0.0033173612 0.046537735 -4.3212495e-07 0.058181107 -5.74171e-06 -0.039662495
0.09814413 5.704654e-33 4.12028e-40 -1.518e-40 2.26353e-40 -0.08621075 -2.5885e-40 4.83888e-40
3.6752863e-31 -0.01072006 0.050485883 0.005707582 1.44807e-40 2.143183e-17 5.04718e-40 0.06992157
1.95969e-40 -0.027353002 -4.5439e-41 -5.80063e-40 0.048246123 1.55372e-40 -8.8447e-41 -0.030313538
4.1953103e-09 0.07651658 0.06451382 -0.03857797 -0.07642354 -0.06599502 0.06794746 0.040246103
-0.07292544 -0.033239115 4.62688e-40 1.8093183e-09 0.055992316 0.027016463 9.683448e-06 0.0618362
4.3642e-41 -2.42767e-40 1.10215e-40 -0.0012787452 1.2161073e-36 5.3402e-41 -0.015466213 -4.6701875e-29
-0.016475348 0.0742938 -7.6383827e-10 0.060400598 -0.03832597 -0.1241227 -0.024318999 -0.093648575
1.14957e-40 -0.05289753 -0.054048233 0.071732454 1.14836e-40 6.4474e-41 -4.06571e-40 0.022210201
6.346481e-13 0.045274902 -0.022581633 0.057481322 -2.011e-41 0.048930522 0.02488975 0.017846849
5.76274e-40 -2.599774e-06 -2.5042726e-13 0.022954248 0.031860728 -2.53006e-40 0.07172903 1.432347e-07
0.016624136 0.02165672 1.25768e-40 0.04807432 -0.04666348 4.91124e-40 -2.26076e-40 0.007925379
2.66004e-40 0.06010044 -7.5907e-41 6.7935e-40 0.06634264 3.99556e-40 9.183681e-06 0.042273577
6.85128e-40 0.049962375 -2.57466e-40 -0.0035460223 0.07288889 7.759093e-09 1.07323e-40 -3.73603e-40
-6.879809e-11 -0.005846686 5.872e-40 3.46028e-40 -2.9995863e-07 -0.010307883 0.025171518 -0.0026227671
4.9708e-41 6.551887e-13 6.38525e-40 0.044263773 1.72902e-40 -0.017745882 -8.870372e-14 -5.62846e-40

fc2.bias f4 [50]
00000000: ec5c 343d 43fc 4b3d 9748 c93d 6aaa 863d
00000010: 470e 783d 6009 923c 6b02 863b 9801 e6bb
00000020: affd 013d 4111 263d 6d37 233d ed8e 423d
00000030: 6122 6c3b 6ad0 2d3d a8d6 183d fac8 513d
00000040: 7c01 023d 6de9 1b3d 6266 e03b ddd8 4d3d
00000050: 34dd 5b3b 0336 cd3c e63a c33c a911 fbba
00000060: c600 72b6 cfe6 ecbb fe6e 3bb6 2e5a 853d
00000070: 6885 b13c 9148 8e3c 39e4 07bc 36b8 a4bb
00000080: 1cbe 633c 69a6 1e3d 6424 4f3d 7c34 e73c
00000090: 3172 eab0 ede1 aa3c eb11 893c b693 95b9
000000a0: 326f 6b3d 8900 5b3d 1868 ba3c 8ef4 4b3c
000000b0: 6ce2 2b3d 3ef9 7e3d 0049 103c 3077 033d
000000c0: 3802 763c c664 883d
0.04403393 0.049801122 0.098282985 0.06575473 0.06056049 0.017826736 0.0040896437 -0.007019233
0.031736072 0.0405438 0.03984778 0.047499586 0.0036031234 0.042435087 0.037314087 0.051217057
0.031739697 0.03806441 0.0068481425 0.050255645 0.0033548595 0.025050169 0.023831796 -0.0019155043
-3.606126e-06 -0.007229663 -2.7929777e-06 0.06511341 0.021670058 0.017368587 -0.008294159 -0.0050268425
0.013900306 0.03873292 0.050571814 0.028223269 -1.7058196e-09 0.020859683 0.016732177 -0.00028529548
0.05747909 0.053467307 0.022754714 0.012448443 0.04196398 0.062249415 0.008806467 0.032096088
0.015015177 0.06659846

layer_x.weight f4 [1, 50]
00000000: ea04 83be 2a77 543e e0ec b63d 57b4 953e
00000010: 4da6 8f3e de86 833e b172 90be 5e89 90be
00000020: 8b6f 93be ba66 a6be 4a3f 9bbe 532b 4d3e
00000030: 3a9f b03b dfe1 78be 9d29 af3e 62a3 8c3e
00000040: 9360 60be e1bc 97be 577d 91be a9d4 93be
00000050: be81 4f3d 1ce4 ab3e d4d7 813e bf07 913e
00000060: 04ce d4b6 339f 6e3e d1cb 0636 aca8 4b3e
00000070: 73c9 59be 0330 733e cfa9 32be 4a04 55bb
00000080: 971b a73e d39f 953e 3e28 97be 4dd1 8e3e
00000090: c1f8 a3b6 6fee 7e3e 4983 8a3e e753 d6b7
000000a0: 2810 813e 002d 34be 6673 8ebe a514 833e
000000b0: 5a60 5cbe a43e ef3d 0416 923e 7e5a a3be
000000c0: 7147 8fbe 1e4e 9a3e
-0.25589687 0.20748582 0.08931899 0.2923915 0.28056565 0.25688833 -0.28212503 -0.28229803
-0.28796038 -0.3250025 -0.30321723 0.20036058 0.005390075 -0.24304913 0.34211436 0.274684
-0.2191184 -0.2963629 -0.2841594 -0.28873184 0.05066084 0.3357247 0.25359976 0.28326222
-6.3420757e-06 0.23302917 2.0086193e-06 0.19888562 -0.21268253 0.23748784 -0.1744759 -0.0032503777
0.32638237 0.292235 -0.2952289 0.2789406 -4.8867373e-06 0.24895643 0.27053288 -2.5549858e-05
0.2520764 -0.17595291 -0.27822417 0.25601688 -0.2152113 0.116818696 0.28532422 -0.31904978
-0.27984193 0.30137724
