cnn/1_lenet5.pth (torch, 180551 bytes, 10 tensors)

conv1.weight f4 [6, 1, 5, 5]
00000000: e9ab c53b 7334 8f3e 377a 3b3e a5da 56be
00000010: 049c 7bbe f866 cb3e 55ce 3ebe 52f9 5e3e
00000020: 6140 74bd 2721 5ebe b19f 7a3e 1677 0f3d
00000030: 30ee 023e 437c b53c 54c1 ba3d 0009 dcbd
00000040: 9c68 f5bd d4e5 5a3e e2f0 3dbd 8bb2 c23d
00000050: 6852 543e 15da cebe 979b 793e a563 65be
00000060: 03db 1e3e 42e4 e33d 86e7 fd3e ac8e e83e
00000070: 00b1 e53e 1230 50bd f134 ffbc e7a6 8e3b
00000080: 6344 1f3e e771 3a3e a67a e3bd 5341 4d3e
00000090: a65e f7bd 78b5 103d 1a26 cbbd ecb1 7b3c
000000a0: c373 8bbc 5bd2 c2be a706 0fbf 3701 17bf
000000b0: d464 18be 9d50 bbbe f0eb edbe 4316 e7be
000000c0: 7825 1abf d939 c7be 85de 3f3e 12b7 d03e
000000d0: f328 313e 25b2 eb3e 3a6d 763d 2a28 7c3e
000000e0: 7bc1 333e 00b2 0a3d 1d61 973e 9689 10bf
000000f0: 0fd0 79bd 2183 d5bd 3559 00bb 6a67 83be
00000100: 4c99 33bf 3cf0 dd3c d125 3ebe 54c3 38be
00000110: bc5d 973d 0fbb 1dbf a359 75bc 8818 e33c
00000120: 2d0b 4b3e 13c8 8e3d a7a4 8cbe 4e2b c43d
00000130: ad43 693d e5bf b2be 85e3 48bf ec61 00bf
00000140: b491 7d3e dd2d 993e 7097 0dbe 64a3 12bf
00000150: a1f7 66bf 9581 d73e e911 243e 502e 8a3e
00000160: 2b3a a1be 4994 0bbf 0220 a13e 7a83 be3e
00000170: b9e4 983e 286e 8ebe 6fc8 ecbe 8841 ae3d
00000180: c93d c93e a4ad 8e3e aa4a e0bc 0f8b 85be
00000190: fa47 b3be dda9 033e bfb0 823e 473b c53b
000001a0: 2883 833d 7ea9 2cbe 415f 4fbe 6952 783e
000001b0: c5f5 113d ce63 003e bfb5 743e 463b 643e
000001c0: 9ab1 83be 052a 20be 3d9b 9b3d 27ba 933e
000001d0: 7468 633e 95d4 cd3d 526c 3a3e 835b 073c
000001e0: 4db9 373e fa01 8c3e e83c 973e f024 263e
000001f0: cb38 ccbd c2d1 a73e 8591 d3be 8fad 0e3e
00000200: 0a6a 503e dc4c 70be 1bb6 053e 39d3 3ebe
00000210: 65de 2abd bfa2 4d3c 18e7 7a3e 6c74 a43e
00000220: d738 a7be 5bbf c1bc 41e8 073e 18de 40be
00000230: 78a2 753e b53c edbe e98a 173e 1902 383d
00000240: 4577 013d 5715 3dba fecf e7bc aedc 9c3d
00000250: 0a32 c83d eb96 3bbe
0.006032456 0.27969703 0.1830834 -0.20981844 -0.24571234 0.39726996 -0.18633397 0.21774796
-0.05963171 -0.21692334 0.2447498 0.03502568 0.12786174 0.02215398 0.09118906 -0.10743904
-0.11982843 0.21376735 -0.046372302 0.095067106 0.2073456 -0.40400758 0.24375759 -0.22401293
0.15513234 0.11127521 0.495907 0.4542135 0.44861603 -0.050827093 -0.031153174 0.0043533924
0.15553431 0.18207513 -0.11107378 0.2004445 -0.120786 0.035329312 -0.09919377 0.015362244
-0.017022973 -0.38051113 -0.55869526 -0.5898623 -0.14882213 -0.3658494 -0.4646907 -0.45134172
-0.6021342 -0.38911322 0.18737228 0.40764672 0.17300777 0.4603435 0.06016276 0.24624696
0.17554276 0.03386116 0.2956628 -0.5645994 -0.060989436 -0.104254015 -0.0019584422 -0.25664836
-0.7015579 0.027092092 -0.18569113 -0.18043262 0.07390925 -0.61613554 -0.014974984 0.027721658
0.19828482 0.06971755 -0.2746937 0.09578572 0.056949306 -0.3491203 -0.7847217 -0.50149417
0.24762613 0.29917803 -0.138273 -0.57280564 -0.902216 0.4209105 0.16022457 0.2698846
-0.3148969 -0.5452314 0.31469733 0.37209684 0.29862002 -0.27818418 -0.4624667 0.08508593
0.3930495 0.27866852 -0.027379353 -0.26082656 -0.3501585 0.12857766 0.25525472 0.0060190293
0.064215004 -0.16861531 -0.2025118 0.24250187 0.035634775 0.12538072 0.23897456 0.22288236
-0.25721437 -0.15641029 0.07597969 0.2885296 0.22207814 0.100503124 0.18205383 0.008261564
0.1794178 0.27345258 0.29538655 0.16225028 -0.0997177 0.3277722 -0.4132196 0.13933395
0.2035295 -0.2346682 0.13057749 -0.18635263 -0.041716 0.012551009 0.24502218 0.32120073
-0.32660553 -0.023650816 0.13272192 -0.18834722 0.23987758 -0.46335378 0.14799084 0.044923875
0.031607885 -0.0007212958 -0.02829742 0.07659279 0.09775169 -0.1831929

conv1.bias f4 [6]
00000000: f148 343f d4d9 56be 9225 d03e 2104 ef3d
00000010: 6eb7 0c3f ff44 6f3d
0.704238 -0.20981532 0.40653664 0.116707094 0.5496739 0.05841541

conv2.weight f4 [16, 6, 5, 5]
00000000: 745b 73bc 98ac 1cbe 0a49 ccba 10cd c73d
00000010: d621 023e c8f4 92bd c227 f93c 6cb0 c43d
00000020: d442 5b3d 0877 1f3e 8387 00bd 7de2 333e
00000030: 3d06 523d f1ea f13d fc43 b83d c8ea 653d
00000040: 3f8f e13c 8e90 abbc 4ab3 fe3c 776d ab3d
00000050: 5f2f 88bd 4edd a53d 2041 743d dcda bbbc
00000060: 8556 833b d4ea e53d 6659 853d 4519 30bd
00000070: 6800 4d3d 1e3a 11bd b79c 8d3c 747e 1dbd
00000080: e14a f43d 6181 ab3d 916d ab3c 8271 983c
00000090: 221b 7f3d 292c 2dbd c3ec a6bb d348 e73c
000000a0: 4208 8cbd 0a76 d0bd 537a 12bd 2de5 8fbd
000000b0: 6cbb ff3c 0311 dabd 2e87 88bc 5473 893d
000000c0: 4fcd 543d ad5f 123d fad0 9a3d 7811 1fbd
000000d0: d88a 403d 658a 143c 7d41 273e 1ec5 d6bd
000000e0: 3a3e 9bbc c0e2 633d 0ff3 1f3d 6b84 71bd
000000f0: b366 68bb 01c5 c9bb 1f6a 123e 9b7a afbb
00000100: 6114 64bd e592 0e3d 9932 c0bc 2d79 ba3d
00000110: e7d3 533d 4a81 113e b2fb 14be db1c 8bbd
00000120: 0a72 753d ba14 92ba 4b2d cc3c 9930 923e
00000130: aae4 c3bd 823f c13d 8d6b 72be 7cb9 f53c
00000140: ab86 d7bb 72da afbc a155 273e c766 09bc
00000150: 8b37 15bd 20dc 45be f0d1 d4bc 620f b73d
00000160: e4df f43c 12e3 34be 868e e3bd 0a7c fdba
00000170: da4b 95bd c782 b5bd 95d7 ddbd 8e05 32be
00000180: c89a d3bd ddc0 89bd c4f1 d8bd 36a7 afbd
00000190: 61fa afbe c8f5 2dbc 55e0 62bb a947 253e
000001a0: 14d1 4d3e 8efd 3abe 64bf c13d 3ebd ee3d
000001b0: 6dda 99bc 846b c43d 0310 80bd 6a7f 0a3e
000001c0: 3649 4f3d b0a6 d03d 1610 2c3e 118f dd3d
000001d0: db55 e03d 9e1b c7bd 3ba0 5d3d afa7 703d
000001e0: eaad e83d 8795 27bc a92a 40bd 2406 9fbd
000001f0: c67a 9f3d e414 a43c 8aa5 163d 871e cabc
00000200: 755c b93d 357d b03d 6b74 33bd 8197 55bd
00000210: a69b ee3c b70e a9bb dcd0 62bc 6443 9c3d
00000220: 33df c33d e6e8 df3c e183 a13c a476 c43d
00000230: ffd1 71bd 69ab cf3d e339 3fbd 8bc0 0cbc
00000240: 974f 5e3c e571 033d 2371 9abc ac05 d6bd
00000250: 04ac 25bd 932f 103d f976 b5bd 9ddb 093d
00000260: 33b7 4ebc 0c12 b53d a743 043e 9ccf 10bd
00000270: 52eb 633c ff4d a7bd f678 bd3d a199 473c
00000280: 53b9 e7bd 8719 8ebd 5cda 9abc b6f5 80bd
00000290: 1d5b f63d 17a5 00be e748 09be e5d8 dabd
000002a0: d34d 9bbd c251 e7bb 31e9 e6bd ff00 bebd
000002b0: 2e59 07be fe93 f73c 614b 8f3d 4da8 a53d
000002c0: d23e 923d 76d2 9e3d 37c2 003d 8899 633c
000002d0: 0cc0 94bb 937f f73c c0dc 433d 08e4 86bc
000002e0: a347 dabd 7665 1b3e c029 4c3e 8d27 da3d
000002f0: 88cb 98bc c84a fbbb c943 5e3e 43d0 573e
00000300: e1b8 99bd 576a 753d a1c8 bc3d c4ea ac3d
00000310: 6dbf bcbc 8c5d 473d 4f65 a03d 239c b23d
00000320: 3de2 b7ba 3e27 fb3d ecc2 d53c bae3 923d
00000330: a2f8 cfbd 3714 fc3b fe3a af3d 2ca3 4fbd
00000340: 0646 6b3d 9248 883d 7a04 643c 20e8 143e
00000350: 34eb 0fbd cc8a cf3c f1a5 0fbe a72a 103e
00000360: 4c9d 5fbc 5536 9dbd c272 b4bd d3c2 15bd
00000370: 0379 793c 8777 75ba 6b27 d23c c345 42ba
00000380: cc9d 45bd 1c28 08be 0e8f 2bbc 03da 97bd
00000390: ca35 58bd 03da aa3d 4c54 0e3c 74f9 24bb
000003a0: 9e1f e33c e2fc 83bd 72a1 b93c 9a01 c8bd
000003b0: 7ffb 5c3d f014 163e 81f8 03be e313 993d
000003c0: c03c 41bb b6e8 7f3c c099 2a3e d282 05bd
000003d0: a57d 743c 9193 203e 67ca 12ba 4e48 993e
000003e0: b1cf 72bd bb28 93bd 5977 ee3b 5d6f 893c
000003f0: c45d 693d 2ac6 953d 55ab 3e3d b28d 4e3c
-0.014853347 -0.15300214 -0.0015585732 0.097559094 0.1270822 -0.071755946 0.030414466 0.09603962
0.05353053 0.1557275 -0.031379234 0.17566867 0.05127548 0.1181239 0.08997342 0.056132108
0.027534125 -0.020942952 0.031091351 0.08370488 -0.0664966 0.08098851 0.05963242 -0.022931509
0.0040081167 0.112264305 0.06511192 -0.04299285 0.050049216 -0.035455815 0.017286642 -0.038450673
0.119283445 0.083742864 0.020926269 0.018608812 0.062281735 -0.042278443 -0.005094142 0.028232967
-0.068375126 -0.10178764 -0.03576119 -0.07026134 0.0312173 -0.10647776 -0.016666021 0.0671145
0.05195361 0.035735775 0.0755939 -0.03883502 0.04700741 0.009066199 0.16333576 -0.10486816
-0.01895057 0.055636168 0.039050158 -0.058964174 -0.0035461604 -0.006157518 0.14298294 -0.005355192
-0.055683497 0.03480806 -0.023461627 0.09105144 0.051715758 0.14209476 -0.14549139 -0.06792613
0.05992321 -0.0011145093 0.024923941 0.28552702 -0.095650986 0.09435941 -0.2367384 0.029995672
-0.006577333 -0.021466468 0.16341259 -0.00838632 -0.036429923 -0.19322252 -0.025979012 0.08938481
0.029891916 -0.17664745 -0.111111686 -0.0019339335 -0.07289858 -0.088628344 -0.10832135 -0.17384931
-0.103322566 -0.06726239 -0.10592988 -0.08576815 -0.3437071 -0.010617681 -0.0034618576 0.16140617
0.20099288 -0.18260786 0.09460333 0.11657189 -0.018780911 0.095908195 -0.06253054 0.13525167
0.05060693 0.10188043 0.16803011 0.108183034 0.10953876 -0.097220644 0.054107886 0.058753666
0.113612965 -0.010228521 -0.046915684 -0.07764843 0.07787089 0.020029493 0.036778964 -0.02467276
0.09050838 0.08617631 -0.043812197 -0.05214644 0.029126953 -0.005159225 -0.013843741 0.07630041
0.09564056 0.027332734 0.019716205 0.095929414 -0.05903816 0.10140116 -0.046686064 -0.008590828
0.01356878 0.03209104 -0.018852776 -0.104503006 -0.04044725 0.03520162 -0.08860583 0.033656705
-0.01261692 0.08841333 0.12916432 -0.03535424 0.013911085 -0.081691734 0.09251587 0.012182624
-0.11314645 -0.06938463 -0.01890295 -0.06296866 0.12029097 -0.12562977 -0.13406716 -0.106859006
-0.07583203 -0.007059307 -0.112749465 -0.09277534 -0.13217613 0.030221935 0.06996799 0.080887415
0.07140888 0.07754986 0.031435218 0.013891585 -0.0045394953 0.0302122 0.047817945 -0.016466156
-0.10658195 0.15175423 0.19937801 0.10652075 -0.018651739 -0.0076688267 0.21705545 0.2107554
-0.07505966 0.059915867 0.092179544 0.084432155 -0.023040498 0.048673198 0.07831823 0.08721187
-0.0014029216 0.12263344 0.026093923 0.07172342 -0.10154845 0.0076928395 0.08556174 -0.050692722
0.057439826 0.06654467 0.013917083 0.14541674 -0.035136417 0.025334738 -0.14028145 0.1407877
-0.013648342 -0.07676379 -0.08810951 -0.036562752 0.015226605 -0.0009363819 0.025653562 -0.0007410908
-0.04824619 -0.1329655 -0.010471119 -0.07414629 -0.052785672 0.08342364 0.00868709 -0.00251731
0.027725037 -0.06444718 0.022659991 -0.097659305 0.053950783 0.14656425 -0.12887765 0.07474496
-0.0029485673 0.015619447 0.16660213 -0.032595463 0.014922534 0.15681292 -0.00055996183 0.29937977
-0.0592801 -0.07185503 0.007277411 0.016776735 0.056974187 0.073131874 0.046550114 0.012607025

conv2.bias f4 [16]
00000000: a939 ef3d 937b 40bd 9dd5 a4bd d2d3 83bb
00000010: 6a35 4e3d 9dbc c3bd 3c1b 80bd 40db 46bd
00000020: 39ea f93c 6800 1b3e 517a 973d 6f00 e33d
00000030: 85e9 3b3d 0536 f13d ad1f 2d3e 46d0 60bd
0.1168092 -0.04699285 -0.08048556 -0.0040230537 0.05034391 -0.095574595 -0.062551945 -0.048548937
0.030507194 0.15136874 0.07396377 0.11084067 0.045877 0.117778815 0.16906615 -0.054886125

fc1.weight f4 [120, 256]
00000000: cc2e 60bd 4c1a b03c a3c8 c73d d1c4 ca3c
00000010: 4f0e fabc bcdd 273d 5a65 22bd 5423 8f3d
00000020: 0fc9 463d ca28 88bd d8ed 263d 1246 b43d
00000030: 549c 223d a404 ecbb 1d79 cd3d 87a9 043d
00000040: a82e 1cbd 0e33 c9bb 77c1 acbc fd77 39bd
00000050: c83d 383d 436f 0cbd 8ad3 28bd fd56 453d
00000060: ff0a 0c3c b730 113d b4de 23bc d625 e33d
00000070: 453e 8a3d a832 463d e988 33bd 5984 af3d
00000080: a921 983d b248 323d c510 2f3d ce8b 973c
00000090: c389 903c 662e 47bd daff efbc dc46 1bbd
000000a0: c9d6 693d 78a7 383d 3a6f 283d 225f 9cbc
000000b0: 56e0 04bd 3909 8d3d 54c8 31bd 8fa7 3a3d
000000c0: 395f b2bb 8dad bbbd b2eb 243c 0021 583d
000000d0: 6a5a 92bb 02ba 9ebc 7f92 7a3d 764d 5a3d
000000e0: 7746 a6bc a769 c33c 3a76 533c f62a a63b
000000f0: 7f61 19bc dc6d 9fbb 7d4c 16bd ef96 88bd
00000100: 7fc5 2f3d c120 1dbd 4dd2 35bd 5a10 6a3d
00000110: 5683 fcbc ca20 243c 4e59 0d3d 0a26 103b
00000120: 2360 ef3c 5d24 7bbd 9704 21bc cd55 9fbc
00000130: 502e 993d a2f5 83bd 20ae 97bd c8fc 46bd
00000140: 2c41 913d c8e4 f33c b657 c03d de0a f2bd
00000150: 3c9a 3c3a 3cf7 5ebd 4421 493c dbdf b2bd
00000160: f416 2bbc 7bbb 803d 2738 2e3d d7df 21bc
00000170: 49e2 52bc 5b7b 99bc 6033 ebbc 080c d53d
00000180: bf28 9f3d 7c1a 923c 1a83 5bbc 56c1 053d
00000190: 73da a43d 27bc b3bd b6b6 f5bc 0a8f 45bd
000001a0: ceed 673d 0a12 a2bd bf74 7abd 960b 81bc
000001b0: 7db6 e6bc 68f3 67bd 2a0d 88bd 7284 e63c
000001c0: ee71 b1bd 0316 01bd b5cc 6b3c 4d86 66bd
000001d0: 316e ce3c 61ed 133c eee6 b93c 0bf4 a2bd
000001e0: aae5 92bd c23e f03c 52c7 073c 8a29 33bd
000001f0: b705 5f3d 519e 82bd 1bbb acbd ad08 783d
00000200: 0740 5bbd 1d5a 51bd a0f3 f4bc de09 453d
00000210: 31f2 653c c8f8 643d e334 cc3c 033e 1bbd
00000220: 99e1 533d 4d70 e3bc 95a2 193d 8f19 52bd
00000230: ddd7 f7bc 1efd d13c dd97 313d 9e34 fbb8
00000240: d6a9 0e3d 3cea 98bd 7421 453d c7b2 953d
00000250: c8a0 a93d cb2a 46bd 8202 e13c 85cc 87bc
00000260: 3237 063d 2bdb 02bc 9211 ab3b eb36 3bbd
00000270: 4606 0f3d 41c5 21bd 4413 d43d 9cbc e4bc
00000280: 61d2 09bd 8554 673d 89e8 893d 4394 583c
00000290: 7db2 9cbc d6cd 79bd 1674 93bc bd68 a83c
000002a0: 4507 52bd 2010 0a3d 999c 053d ec3d f2bc
000002b0: 5afe 4a3d 6d24 6e39 0dec 273c f4a6 0bbd
000002c0: c5ed a13d 3696 88bd 41f4 ffbc 5986 4c3d
000002d0: bc9d 293d 6f4b 9a3c 3ce6 acbc 8f8f 53bb
000002e0: 0520 cb3d bad2 11bd 7d34 4a3d f1fc a23c
000002f0: 70f2 f73c 29ed 0dbd b9da 3e3c 52db 203d
00000300: aacb f7bc c84b c6bb 87fd e53c d060 4abd
00000310: e7a3 50bc 0608 4cbc ebd5 c0bd e478 cfbc
00000320: 7078 82bd 9589 91bc a276 1f3d 7bb4 2b3d
00000330: 3e3c 03bd 72af f7bb c782 ddbc c918 c036
00000340: ef42 253d 6ea4 58bc 4e47 013e de8a 823d
00000350: 7617 603c 45b1 2cbd 7d26 67bd f852 053b
00000360: 7837 d6bd 0b45 adbd f4a9 103d 63c6 94bd
00000370: 3f03 5abd 8b7b 2dbd 6637 5bbd b745 21bd
00000380: a9a4 f7bc 9857 7f3d 696e 8f3c 7d5d 88bc
00000390: 814f ba3d 46be 123c f678 92bd 1281 cd3d
000003a0: 089a 03bd 89ee 153d bfeb dabc 7906 8bbb
000003b0: 2008 253c a06d 4dbd 889a e0bc 985b 143e
000003c0: 756a 813a 697a 763d acbd 70bd 5289 833d
000003d0: cd59 b83c 0660 9dbd 4a27 08bc 0baf ec3c
000003e0: 9087 4fbd b5e8 91bd 6211 2dbd d239 5ebd
000003f0: 569e 363d 800c b63d ff1f e6bd 69ff 593d
-0.05473213 0.021496914 0.09755065 0.024752053 -0.030524401 0.040982947 -0.039647438 0.0698916
0.04853159 -0.06648405 0.04075417 0.08802427 0.039699867 -0.0072027016 0.10032866 0.032388236
-0.038130432 -0.0061401194 -0.021088345 -0.045280445 0.044980794 -0.034285795 -0.041217364 0.04817866
0.008547544 0.03544685 -0.010001827 0.11091201 0.06750158 0.048388153 -0.04383174 0.08570165
0.07428295 0.04352636 0.042740602 0.018499281 0.017643815 -0.048628233 -0.029296804 -0.037909374
0.0570896 0.045081586 0.0411217 -0.019088332 -0.032440506 0.06886525 -0.04340394 0.045569953
-0.0054434803 -0.091639616 0.01006596 0.052765846 -0.0044663446 -0.019375805 0.061174866 0.05329653
-0.020297272 0.02385409 0.012906605 0.0050710393 -0.009361624 -0.004865391 -0.03669404 -0.06669413
0.042912956 -0.038361315 -0.04439001 0.0571445 -0.030824345 0.010017583 0.034508996 0.002199533
0.029220646 -0.061313976 -0.009827754 -0.019450093 0.074795365 -0.06443335 -0.074062586 -0.048580915
0.07092509 0.029772177 0.093917295 -0.11818479 0.00071946136 -0.054435 0.012275998 -0.08734103
-0.010442484 0.06285759 0.04253402 -0.009880028 -0.012871333 -0.018735578 -0.028711021 0.104026854
0.077714436 0.017834894 -0.013397956 0.032655083 0.080494784 -0.087761216 -0.02999435 -0.048232116
0.056623273 -0.07913597 -0.061146494 -0.015752595 -0.028163189 -0.056628615 -0.06643136 0.028139327
-0.086643085 -0.031515133 0.014392068 -0.056280423 0.025199028 0.0090287635 0.022693124 -0.07956704
-0.07172711 0.0293268 0.008287268 -0.043740787 0.05444881 -0.06377853 -0.08434125 0.06055515
-0.053527858 -0.05111133 -0.029901326 0.048105113 0.014034794 0.05590132 0.024927562 -0.037900936
0.05172882 -0.02776351 0.037508566 -0.051293906 -0.030254299 0.025633391 0.04335772 -0.000119784134
0.034829937 -0.07466552 0.048127607 0.0730949 0.0828262 -0.048380654 0.027467016 -0.016577015
0.032767482 -0.007986824 0.0052206004 -0.04570667 0.034918092 -0.039494757 0.10355237 -0.027921967
-0.0336479 0.05647709 0.06733806 0.013218942 -0.019128079 -0.060987316 -0.01799969 0.020557756
-0.051276464 0.033706784 0.032620046 -0.029570542 0.049558975 0.00022711018 0.01024915 -0.034094766
0.07906679 -0.066692755 -0.031244399 0.04993281 0.041410193 0.018834798 -0.021105878 -0.0032281613
0.099182166 -0.035601355 0.049366463 0.019896002 0.03026697 -0.03465 0.011648827 0.03927166
-0.030248482 -0.0060515143 0.028074993 -0.049408734 -0.01273439 -0.012453085 -0.094158016 -0.0253262
-0.06370628 -0.0177658 0.038931496 0.041920166 -0.032039873 -0.0075587565 -0.027039899 5.7249313e-06
0.040347036 -0.013222797 0.12624857 0.06374143 0.0136774685 -0.042161245 -0.05643319 0.0020343643
-0.104597986 -0.084604345 0.03531833 -0.07264402 -0.053225752 -0.042354148 -0.05351963 -0.039373126
-0.030229883 0.062339395 0.017508702 -0.016646141 0.090971954 0.008956498 -0.07151978 0.10034384
-0.032129318 0.036604438 -0.02672374 -0.004242715 0.010072738 -0.050153375 -0.027417436 0.14488065
0.0009873646 0.060175333 -0.058774635 0.06422676 0.022503758 -0.07684331 -0.0083101485 0.02889206
-0.05066639 -0.071244635 -0.042252906 -0.05425436 0.044584595 0.08889103 -0.112365715 0.053222094

fc1.bias f4 [120]
00000000: 12ea 423d 6dee 933d 53ed 483d 00ca 42bd
00000010: 10aa 813d 59a8 f3b9 ce77 38bb 9b5b fe3c
00000020: 973a adbb 9829 9c3c 5fc0 04bd 31b3 4fbd
00000030: 30f5 593d 2177 493d 4645 0bbd 9877 fd3b
00000040: aa63 27bd c716 633d 7757 713c e5c6 7b3c
00000050: eb41 443b 3a3d 0ebd 6812 90bc abd1 9fbc
00000060: 3e69 e53c ce8c ebbc b4e0 293c 3975 acbc
00000070: 820c 0c3d 70b6 4bbd 5529 793d 715a ee3a
00000080: 911b 863d 36dc 4a3c b4c1 d93a d784 3cbd
00000090: 3a89 403d 230b 64bc 943d 503d 4619 223d
000000a0: 6dd9 48bc 67f7 153d 672f 183d 3f5b b13c
000000b0: cfe2 3e3d fca4 85bc bc36 14bc 5c7c 843d
000000c0: 4e9f a9ba 2dd2 223d fbf2 8ebc b101 413d
000000d0: 9407 1ebd 48e7 cbbc d774 03bd 0a31 a33d
000000e0: d2e3 703d a928 323d d1c6 bbbc 1d03 6dbd
000000f0: 5aeb 10bb 90ef 8cbc da0e b2bc 6bf9 463d
00000100: 3e10 ac3c 0b40 2abd 9096 523d b8f3 afbc
00000110: 8da5 0d3d 07fd 603d 4c74 69bc c5c8 e9bb
00000120: 2404 4b3d 27e9 d1bc b715 573d 82cc 4a3d
00000130: 67ae 17bd a887 a73d 3b52 593d c473 8e3b
00000140: 049a 82ba b84b b1bb 0bb4 963b 2037 0abb
00000150: bb1e 693d 9832 58bb 5f57 303b fa95 093d
00000160: 2dbc 20bd c8c7 e6bb 8e6e 473d cde8 23bd
00000170: 508d 2cbd 759e 8f3b c9f4 7f3c 6aac b4bc
00000180: f53a 11bd 08dc 73bd 9408 4f3d 6930 56ba
00000190: ac07 7ebc cb8f 033c ea3c ae3b cdac 92bc
000001a0: a3f6 6dbd 92f1 73bd ad98 523b 9c92 19bd
000001b0: 1fb9 363d 8857 aebc 2959 abbc c70e 33bd
000001c0: 205e 8bbc 0514 483d 663b 1e3d 1a99 463d
000001d0: ccc3 163c 91f9 a5bb 7383 543d a5b9 82bd
0.047586508 0.072232105 0.049054455 -0.047555923 0.06331265 -0.00046474 -0.002814758 0.03104954
-0.0052865255 0.019062802 -0.032410022 -0.050708 0.053212345 0.049185876 -0.03400161 0.007735204
-0.04086653 0.055441644 0.014730326 0.015367244 0.0029946517 -0.03472636 -0.017586902 -0.019509157
0.028004285 -0.028753664 0.010368515 -0.02105199 0.034191616 -0.049734533 0.060830433 0.0018184913
0.065482266 0.012381604 0.0016613514 -0.046025123 0.04700587 -0.013918671 0.050839975 0.039574884
-0.01225887 0.036612894 0.03715458 0.021649955 0.04660302 -0.016314022 -0.009046253 0.06469032
-0.0012941153 0.03975122 -0.017449846 0.047120754 -0.038581446 -0.024890557 -0.03209385 0.07968338
0.058811016 0.043495808 -0.022921951 -0.057864297 -0.0022112937 -0.017204076 -0.021735597 0.048577707
0.021003839 -0.041564982 0.05141312 -0.021478519 0.03458171 0.054928806 -0.014248919 -0.0071345293
0.049564496 -0.025623871 0.052510943 0.04951144 -0.037031557 0.08180171 0.053056937 0.0043472964
-0.0009964113 -0.0054106377 0.0045990995 -0.0021089986 0.056914072 -0.003298914 0.0026907546 0.033590294
-0.03924196 -0.0070428587 0.048689418 -0.040016938 -0.042126954 0.004382903 0.015622326 -0.02205487
-0.035456616 -0.05953601 0.05054529 -0.0008170666 -0.015504759 0.008029888 0.00531732 -0.017904663
-0.05809654 -0.05955655 0.003213446 -0.037493333 0.04461014 -0.021281973 -0.020916538 -0.043715265
-0.017012656 0.048847217 0.038630866 0.048485853 0.009201955 -0.005065151 0.051883172 -0.06383065

fc2.weight f4 [84, 120]
00000000: 2ad7 cd3d 93a1 ba3a 437d f93d 0614 67bd
00000010: 17f4 8bbc 838f 87bd ba88 033e 17f5 fa3c
00000020: b00a 56bd cc2a 4f3b 7e55 d6bb 7cd7 78bb
00000030: 80cc e7bd be14 b63c fe44 2dbd 5473 2f3a
00000040: e310 993d 084d c43d 6447 e53c 5bb8 4ebd
00000050: f2ae c8bd 8043 2e3b 0e6a 3d3e 0634 183e
00000060: 60e9 bfbd d4e7 9cbd 06d5 9a3c 1332 073c
00000070: 4ebb 8d3c f9f1 9d3d 60ff e1bd 684c 4f3d
00000080: 51d0 8bbd 4fee 76bc 6dfc a6bc 3a9f 2cbd
00000090: ac42 dbbc 3635 18bb 5a8f 603d 2075 313d
000000a0: 530f b83c fe47 8e3c 164e adbb dcdb d3bc
000000b0: c473 803d a04d 3fbd 938d 8d3d afdf 30bd
000000c0: 5433 b0bd 8ea4 a53c 3634 a83d bd95 4dbd
000000d0: 29f0 5c3d 63b9 a93d 4386 323d ac5b 8c3d
000000e0: 21d3 bb3c 0e80 76bd bf93 0bbd 8191 b7bd
000000f0: 50dc a33d 1def a23c 6860 5bbd cc1b b03d
00000100: 6daa a1bd a773 043e ae42 163d 40f2 05bd
00000110: 6abb 7f3d 60f4 933c c19e c03d 3cec d4bd
00000120: 1e5d 3b3d e956 48bd e564 03bd 5e3d d63d
00000130: cab0 9f3c 5cbf b73d 972f 193d 10f0 34bc
00000140: 0a42 493d 9824 7cbd 7667 fc3d 89b9 3d3d
00000150: 0b7e 75bd e6ca f93d 0145 833c 035e ef3b
00000160: 2a9e 6cbd b0c2 5ebd 7f0c 463c 1727 413d
00000170: a0ab 4cbd 4928 94bd 5c78 033e af35 16bd
00000180: f9dc 8a3c 6fec 0d3c e46a a3bd f0e0 d73d
00000190: 6cf2 b4bc 795c bfbd bae3 4abc 4f7c 4cbc
000001a0: 15f5 59bd ea7b 2e3d 7174 263c a2b5 c3bb
000001b0: bb0f c8bc 6c12 1eba b681 b5bd 7477 863d
000001c0: db3a d8bc 35ab 68bd 895d b6bd b059 b93d
000001d0: a760 9f3d 091b ac3b 4026 a23d 262d 70bd
000001e0: 148c ce3c 7614 b83d 285e a7bc f97d b0bd
000001f0: 9953 903b 37c9 a73d 252c da3b 3403 913d
00000200: f638 5bbd 10ef 573c b0a1 ac3d 63dc 87bc
00000210: a8ea 5e3c 167e a2bd 8bb7 b8bc f975 523d
00000220: 6870 bc3c 85ab 22bd b970 31bd 0917 4ebd
00000230: b209 813d d08f c03c 4e5a de3d bd03 d73b
00000240: 3e9a 993c 7053 a6bd 9959 c6bd a13c 933d
00000250: 4249 8c3b dd3c 353c 4ab6 403d cd93 c33d
00000260: ffa4 28bc 4b77 363c e14e 90bd 812c c63d
00000270: a490 97bc 1424 243c f94c 67bd fc87 98bd
00000280: 5b6f 74bd da83 b73b cdd6 94bd 731f a2bc
00000290: 7901 44bd aff2 84bd 4662 023d 202a 9fbd
000002a0: 336f e93c 5e81 bebd c368 b43d dc1a f5bc
000002b0: cab8 5fbd 5243 4cbc 0b23 0bbd 17d1 debd
000002c0: ffc8 3f3d ae89 a73b 0e53 b1bd 2b97 79bd
000002d0: 33fb f93c 455c 65ba 188a a2bd de24 5dbd
000002e0: c264 493d fcd8 5f3c aacf f33d 2fb2 ae3d
000002f0: 48e3 13bd db47 bbbd e650 a73d 516c b5bc
00000300: fd7f c3bd f4b9 f2bc 08ee 473d f55a ef3c
00000310: 8284 62bd ab30 08bd 3454 52bd 9109 373d
00000320: 6b40 75bd a0ed 263d ae8c 25bc 67eb c0bd
00000330: 7606 c53c 86c6 a33c 1f60 cc3d fc40 9aba
00000340: dd72 aebd 0294 5abc e213 8a3b 7e6b 6a3d
00000350: 1599 68bd 228c 5a3d 7659 a13c 30a2 863d
00000360: df3c c7bc ff8c 48bc fbb0 6b3d ee8d b1bc
00000370: e380 5dbd 38e8 e33c 11fb f9bc 47f5 0e3d
00000380: a2da 123d 1c6d c1bc 6445 1e3d 3cff c13c
00000390: 5d4b f5bd 7bc8 f73c adac 5c3d 8512 9f3d
000003a0: 2f79 93bd ba07 443d 0682 3c3c 44c8 cfbc
000003b0: ad9f 533c c457 13bd 8aee 4abc b7d2 f1bc
000003c0: 5688 16bd 025a cabc bdd2 0a3d 421f 34bc
000003d0: 923d b3bd a262 a6bd 07d0 8cba 8718 82bd
000003e0: c41b 4dbd 23ac 9fbd 2650 8dbd ad6f b0bd
000003f0: 1dda 2e3d 4ae5 8fbd e29b cc3c d65c 8d3d
0.10050805 0.0014238827 0.12182095 -0.05641558 -0.017084165 -0.066191696 0.12845126 0.030634446
-0.052256286 0.0031611202 -0.006540953 -0.0037970236 -0.11318302 0.022226688 -0.042302124 0.00066929054
0.07473924 0.09585005 0.027988143 -0.050468784 -0.09798993 0.0026590526 0.18497488 0.14863595
-0.093706846 -0.07661405 0.018900406 0.008251685 0.017301228 0.07712168 -0.11035037 0.050609976
-0.068268426 -0.015071466 -0.020384038 -0.042144038 -0.02676519 -0.0023225076 0.05482421 0.04332459
0.022468245 0.017368313 -0.0052888496 -0.025861673 0.062720805 -0.04670489 0.06911769 -0.04318207
-0.0860354 0.020220067 0.082130834 -0.05019163 0.053939972 0.08287313 0.043585073 0.068534225
0.022927823 -0.060180716 -0.03407645 -0.089632995 0.08001006 0.019889409 -0.053558737 0.08599052
-0.07893834 0.12934743 0.036684684 -0.03270173 0.06243459 0.018060863 0.0940528 -0.10396621
0.0457431 -0.04891101 -0.032078642 0.104609236 0.01949348 0.08972046 0.0373989 -0.0110435635
0.049135245 -0.061558336 0.12324421 0.04631952 -0.059934657 0.12196903 0.016024115 0.0073049082
-0.057768025 -0.054384887 0.01208794 0.04715642 -0.04996836 -0.07234246 0.12838882 -0.03667229
0.016951071 0.008662327 -0.07979372 0.1054095 -0.022088252 -0.0934381 -0.012383396 -0.012480809
-0.053212244 0.042598642 0.010159598 -0.00597258 -0.024421563 -0.0006029967 -0.08862631 0.065657526
-0.026395252 -0.0568039 -0.08904559 0.0905031 0.07782107 0.0052522463 0.07917452 -0.058636807
0.025213279 0.089882776 -0.02043064 -0.086177774 0.004404497 0.081926756 0.0066580945 0.07080689
-0.05352112 0.013179556 0.08429277 -0.01658458 0.013605751 -0.07934205 -0.022548458 0.05138204
0.023002818 -0.039714355 -0.04332039 -0.050314937 0.06300677 0.023506075 0.10857068 0.006561725
0.018750306 -0.08121383 -0.09685058 0.071892984 0.004281194 0.011061874 0.047048844 0.09549675
-0.010293244 0.01113684 -0.07046295 0.09676457 -0.018501587 0.010018367 -0.05646989 -0.07447812
-0.05967651 0.0056004347 -0.072675325 -0.019790387 -0.047852967 -0.06491601 0.031832002 -0.077717066
0.028495407 -0.093020186 0.08809044 -0.029920034 -0.054619588 -0.012467222 -0.033968966 -0.108797245
0.046822544 0.0051128482 -0.086584195 -0.06093518 0.030515289 -0.0008749406 -0.079364955 -0.053990237
0.049168356 0.013662573 0.11904843 0.085300796 -0.036105424 -0.09144565 0.08169727 -0.022146376
-0.09545896 -0.029629685 0.04881099 0.029218176 -0.05530215 -0.03324954 -0.051349834 0.044686858
-0.059875887 0.04075396 -0.010104341 -0.094198994 0.024050932 0.019992124 0.09979271 -0.0011768634
-0.08518002 -0.013340952 0.004213796 0.05723142 -0.056786615 0.053356297 0.019695979 0.065739036
-0.024321018 -0.012240647 0.05754183 -0.021674123 -0.054077994 0.027820691 -0.030515226 0.034901883
0.035853036 -0.023611598 0.038640395 0.023681276 -0.11977265 0.030246964 0.053875614 0.07767204
-0.07200848 0.04785893 0.011505609 -0.025364049 0.012916488 -0.03597237 -0.012385974 -0.029519422
-0.036751114 -0.024701122 0.033892382 -0.010993781 -0.08751978 -0.081242815 -0.0010743149 -0.063523345
-0.050075307 -0.07796504 -0.06900053 -0.086150505 0.042688478 -0.07026155 0.024976674 0.06902473

fc2.bias f4 [84]
00000000: 7e0d 83bd 14e2 30bd abd5 e53b b3d0 953d
00000010: cdc3 96bd 65c7 0a3e fda4 da3c f136 4c3c
00000020: f981 b63c 83d8 1c3d 84df f33c b8e4 97bb
00000030: c299 913d 8d94 56bd 57b5 083a 25e2 91bc
00000040: 196c 88bc 7e2d 583d bf5d 46bd 8086 ae3c
00000050: 87fd 283c ebc9 483d 00b7 7f3c c8a5 48bd
00000060: d5ad 5a3d 77cd bbbd 8ffd c53d 1ed4 a23d
00000070: 09b5 fb3c 1349 8c3d 6e16 003d 561b ecbc
00000080: 4f2c c33d 449f aa3d 2d08 4fbc c0b0 9a3d
00000090: 25ca 5e3b 640d 07bd 7153 69bd cbb7 5e3c
000000a0: ff14 2c3c 22d9 893d b5c4 353d d8e1 883d
000000b0: 005b 9c3b afa6 adbd a6c4 edbc b97a a83d
000000c0: 2c45 0f3c f94b 7cbd dddd bb3c 1292 b83d
000000d0: 5871 ce3c 5313 67bc 5c92 d13d 26f0 6ebc
000000e0: 4047 db3d a40a ba3b d914 e3bc 2984 08bd
000000f0: b928 613d 238a d1bc 8fc2 ec3c 6594 41bc
00000100: f569 2b3d 2f06 53bc 35ad dd3b 4447 513c
00000110: 3bd8 32bd 3a48 4ebd 7255 6a3d d259 10bd
00000120: fa75 ac3d 38c3 e53b 90e5 89bd 537c f83c
00000130: ee0e cb3d 5f1a 043d a08a 33bd 6381 783d
00000140: 8179 24bd 1826 b5bd 1ee5 a13d 9225 e73d
-0.06399058 -0.043184355 0.0070139966 0.07315197 -0.07361565 0.13552625 0.02669 0.012464271
0.022278773 0.03829242 0.029769666 -0.0046354197 0.07109405 -0.052387763 0.000521501 -0.01780803
-0.016653107 0.05277776 -0.048429247 0.021304369 0.010314352 0.04902069 0.015607595 -0.048986226
0.053388435 -0.09170049 0.09667503 0.079506144 0.030725973 0.06849875 0.03127139 -0.028821629
0.095299356 0.08331159 -0.012636227 0.07553244 0.0033995 -0.032971755 -0.05696434 0.013593624
0.010503053 0.06730868 0.044377048 0.06683701 0.0047715902 -0.08479058 -0.029024433 0.082265325
0.008744519 -0.06159589 0.022932941 0.09012236 0.02520053 -0.014103728 0.10232994 -0.014583623
0.10706949 0.005677538 -0.027719902 -0.033329163 0.054970477 -0.025578564 0.028901367 -0.011815165
0.041849095 -0.012879892 0.0067650327 0.012773339 -0.043663245 -0.05036185 0.057210393 -0.03524191
0.0842094 0.0070117973 -0.06733239 0.03033272 0.09914957 0.032251712 -0.043833375 0.060670268
-0.040154938 -0.088451564 0.07905029 0.11286463

fc3.weight f4 [10, 84]
00000000: 6b4f fa3d 03cf bb3d ac85 be3c 16da 493d
00000010: 927e ecbd 7db0 d73d f438 d03d b691 9fbd
00000020: 0dc6 55be 607c d03d 89ef 033e d1a8 b6bd
00000030: bf0b 40be c395 ccbd 082e a7bd 0fd3 28bd
00000040: 4edd 75be 17ed e63d b6ed a73e bc3f 41be
00000050: d0e8 93be 80db f13d 80b0 69be 48af a83d
00000060: 9951 3a3d 259c 813d 2554 933e 5776 c03b
00000070: 55bd 2c3d 9905 5d3d 1cb7 7d3e 86ac b93d
00000080: 6c77 2cbc b2e2 263e ac2f e83d 9314 19bc
00000090: 776b cd3d 4f17 093d 4656 70bd 9530 3d3d
000000a0: 514e bf3d c41e 00be 2d68 443d 64a1 8b3d
000000b0: 92d9 f9bd e33f d63c 98e5 f6bc 61b0 09be
000000c0: c02b 44bd 2db0 9a3d 4d0a 863d 8cd2 353e
000000d0: 46fa 03bd 4e6c 923d 7aea 4d3d 98d7 45bd
000000e0: 0161 253e ee4a a4bc 3845 68bc 5911 993c
000000f0: f8f4 863d cde7 d4bd beac bc3c 5cf8 6e3e
00000100: 7213 cebd ae47 a1bd 11f8 bdbc 43f0 6d3d
00000110: ebab 953c 3e62 a83d 9a45 4e3e f995 273d
00000120: fa43 3e3e 608d 3f3d 8c42 cabd 48ce 4cbe
00000130: e53e 5f3d d356 273e b12b ac3d 1e08 5d3e
00000140: 46a5 32bd 9777 1cbe e2f3 3cbd 5681 edbd
00000150: a850 aabd 3c82 8a3d ffbd 0c3d 03ef 1fbe
00000160: 3321 f7bb e374 ec3a ca5d 803d 8868 90be
00000170: 8b7b 75b9 3d18 443e 25b3 1c3e 99fc dc3d
00000180: 39a6 e3bb bbc3 8b3b 9e1b a1bd bf58 463e
00000190: 8196 723e bfce 983e d385 8abd acb6 2cbe
000001a0: c619 9f3e 14a2 27bd 8583 203e d05b bcbd
000001b0: e182 9fbd c809 963d 8248 21bd 89f4 a2bd
000001c0: 9420 21bd 4914 0e3e 1355 16bc ced1 3bbe
000001d0: a742 f4bd 2506 abbc bdd6 48be db23 c03b
000001e0: 80d8 553d 2621 2b3e 6f13 bb3d 4a8a e2bd
000001f0: f839 603e 56c8 293e f3ea 2dbd 43a6 00be
00000200: 28e2 7dbd afd2 1dbd dd21 a7be 9a84 2ebe
00000210: 25d1 163e eb1b 7abd ba8c 43be 83f6 28be
00000220: c71c 25bd 9dd1 0b3c 4139 243e edd6 b23d
00000230: d331 023e 2856 a8bc 5394 1b3e 86a3 213e
00000240: 7bcf cc3d 0f94 fabd fb5f 1cbb a4bf 503e
00000250: 527a 71bd b474 bcbd d269 1d3d e343 873e
00000260: 9821 363c cd44 8d3c 00e8 abbd 24e3 8abd
00000270: b64b c6bd a5bb 933d ac13 363e fc15 e6bd
00000280: dfea a4be af55 28bd c54d a73d 12cb e3bc
00000290: f4cc c43a 94dd 023d 7952 74be 101f 32be
000002a0: 737e 683e da19 59bd 0e66 c33d 720f 27bd
000002b0: 3a4f fbbc ed3e b93d 7a7f 1a3d efee 6fbe
000002c0: fdf5 3abe 164d 15bd 5041 b53d a11a 36be
000002d0: 6373 12bd 6ae1 0dbd dd38 d63d cca9 8cbd
000002e0: c6ba 13be 25c4 0fbe 978b 07be b345 6b3e
000002f0: 21c0 203e ffd4 ce3d 9d90 0fbe 548b c53d
00000300: f8aa b0bc b450 0cbe 892e 1b3c be4f 2a3e
00000310: 04a7 84bd d094 283e b9bf 5bbe 4f7a 3b3e
00000320: 80e7 6e3e 03d4 203e 6c56 123e b6cc 0b3e
00000330: c135 ef3d 5289 e4bc 87e4 d2bd e823 07be
00000340: 07b1 f73d 142b 74bd 9260 a0be 23d9 1f3e
00000350: a62d 08bd 948a ba3c 37b9 4e3c e1db c5bd
00000360: 0f6f 57bd 5fcb 4ebe 97b7 523e 3b1b 8d3e
00000370: c28f 593d 0354 a0bc c5d9 ca3b 2f8f e1bd
00000380: 1a47 963d d8c6 2a3e eb14 223e a689 35be
00000390: 22c3 d1bd 3165 023d 546e 8e3b 208d 473e
000003a0: daaa d4bd 7f74 a23d c2f3 b33b 4022 80be
000003b0: 0a60 783d 3057 813c c6b8 10be 80f1 aabb
000003c0: 3795 69be 5b48 933c ca97 21bd d14c 983c
000003d0: 37b1 ad3c a2af 6f3d 7fb0 39be 2584 793e
000003e0: ee5f e7bc a49b 0cbe b5f4 e3bc 265d aa3c
000003f0: ae29 acbd a0df 7a3d bb25 df3d 5e57 d93d
0.12222179 0.09170344 0.0232571 0.04928025 -0.11547579 0.10531709 0.10167113 -0.07791464
-0.20876332 0.10179973 0.12884344 -0.08918918 -0.18754481 -0.09989502 -0.08163077 -0.041216906
-0.24010202 0.1127569 0.32798547 -0.18871969 -0.2888856 0.118094444 -0.22821236 0.08236557
0.045487974 0.0632861 0.28775135 0.005873482 0.04217275 0.053960416 0.24776882 0.09066109
-0.010526519 0.16297415 0.11337218 -0.009343284 0.10030263 0.033469494 -0.058676027 0.04618891
0.093411095 -0.12511736 0.047950912 0.06817892 -0.12199701 0.02615351 -0.030138776 -0.1344619
-0.047893286 0.07553134 0.065449335 0.17756099 -0.0322211 0.07149564 0.050272442 -0.04830131
0.16150285 -0.02005526 -0.014176659 0.01868503 0.06589693 -0.10395775 0.023031589 0.23336929
-0.10062303 -0.07875 -0.023189576 0.05809046 0.018270453 0.08221863 0.20143738 0.04091451
0.18580619 0.046765685 -0.09875974 -0.20000565 0.05450334 0.16341715 0.08406771 0.21585128
-0.04361465 -0.15279995 -0.046131022 -0.115969345 -0.08316165 0.067631215 0.034360882 -0.1561852
-0.0075417995 0.0018040206 0.06267889 -0.2820475 -0.00023411044 0.19149871 0.15302713 0.10790367
-0.0069473055 0.0042652762 -0.07866596 0.19369791 0.23690225 0.29845235 -0.06763806 -0.16866559
0.3107435 -0.040926054 0.1567517 -0.09197199 -0.07788635 0.073260844 -0.03937579 -0.07956798
-0.03933771 0.13874926 -0.009175557 -0.18341753 -0.119267754 -0.020876953 -0.19613166 0.0058636493
0.052208424 0.16711864 0.09134566 -0.11061533 0.21897113 0.16580328 -0.042460393 -0.12563424
-0.061983258 -0.038531 -0.32643023 -0.17042771 0.1472822 -0.06106178 -0.19096652 -0.16500287
-0.040310647 0.008533862 0.16037466 0.087324 0.12714319 -0.020548895 0.151933 0.15785035
0.10000511 -0.12235271 -0.002386092 0.20385605 -0.058954544 -0.09201947 0.038430996 0.2641898
0.011116408 0.01724472 -0.0839386 -0.06781605 -0.096824095 0.07213525 0.17780942 -0.11234662
-0.32210442 -0.04109734 0.0816913 -0.027806792 0.0015014694 0.031949595 -0.23859586 -0.17394662
0.22704487 -0.05300317 0.0954095 -0.040786214 -0.030677427 0.09045205 0.037719227 -0.2343099
-0.182579 -0.036450468 0.08850348 -0.17783596 -0.035754573 -0.0346388 0.104600646 -0.06868324
-0.14426717 -0.14039667 -0.13236843 0.22975807 0.15698291 0.100992195 -0.1402001 0.09645715
-0.0215659 -0.13702661 0.009471544 0.16631982 -0.06477168 0.16463017 -0.21459855 0.18308376
0.23330498 0.15705876 0.1429078 0.1365231 0.116801746 -0.02789751 -0.102974944 -0.13197291
0.12094312 -0.059611395 -0.31323677 0.15610175 -0.03324666 0.022771157 0.012617401 -0.09661079
-0.052596148 -0.20194767 0.20577846 0.27559838 0.053115614 -0.01957131 0.006190511 -0.11013638
0.0733778 0.16677415 0.15828292 -0.1772829 -0.10242297 0.031834785 0.004346648 0.19487429
-0.1038415 0.07932376 0.0054917047 -0.2502613 0.060638465 0.015788645 -0.14132985 -0.0052167773
-0.22810827 0.017978838 -0.039451398 0.018591316 0.021202667 0.058517106 -0.18133734 0.24366815
-0.028243985 -0.13731247 -0.027826646 0.02079637 -0.08406387 0.06124842 0.108958684 0.10612367

fc3.bias f4 [10]
00000000: 82e4 39bc 5fa1 91bd 2ad0 133e bb38 72bd
00000010: 7d60 e9bd 512e 573c 1ed5 1e3e 2597 a73b
00000020: 81bb 963c 3cc7 f2bd
-0.011345984 -0.07110857 0.14434877 -0.059136134 -0.11395357 0.013133601 0.15510985 0.0051144534
0.018399956 -0.11854407
