cnn/2_vgg_net.pth (torch, 297122 bytes, 56 tensors)

conv1.weight f4 [20, 1, 3, 3]
0	0xbfd4e33a	-1.6631844
1	0xc093b86d	-4.616263
2	0xbf22c53f	-0.63582224
3	0x3f28e987	0.65981334
4	0xc031afd6	-2.7763572
5	0xbe371493	-0.17878942
6	0x3f545e8d	0.82956773
7	0x3e742260	0.23841238
8	0x3ee8a0ec	0.45435274
9	0xbeda5799	-0.42644957
10	0xbf1125a6	-0.5669807
11	0x3fe0f56e	1.7574899
12	0xc016d5fd	-2.3568108
13	0xbfd4de3d	-1.6630322
14	0x3fe56532	1.7921507
15	0x3dcff0ed	0.10153375
16	0xbd1710d0	-0.036881268
17	0xbf88d7af	-1.0690821
18	0x3f4b71aa	0.7947031
19	0x3fcdaec2	1.6068957
20	0x3efdba6a	0.49556285
21	0x3faf3561	1.3688165
22	0x403da2ef	2.9630697
23	0xbf6e59fc	-0.93106055
24	0x3e82c1b3	0.25538406
25	0xbd236c9f	-0.03989851
26	0xbfe9b3f9	-1.8258048
27	0x3e14d054	0.14532596
28	0x3eb7f642	0.35930067
29	0xbd2f06ce	-0.0427311
30	0x3ca7a1e6	0.020462941
31	0x3f2168f8	0.63050795
32	0x3e52d80a	0.20590225
33	0xbda81e6a	-0.08208926
34	0x3f043ae1	0.5165234
35	0xbad63f43	-0.0016345758
36	0xbf19122c	-0.59793353
37	0x3e506929	0.20352615
38	0xbd6e0a28	-0.058115155
39	0xbf47180e	-0.7777108
40	0x40a132e1	5.037461
41	0x3c018b2a	0.007906714
42	0xbf9ec9c9	-1.240533
43	0x3f49b176	0.7878641
44	0xbe530cd2	-0.2061036
45	0x3ee9e9de	0.4568624
46	0xbee1e65b	-0.4412106
47	0xbf2ffab6	-0.6874193
48	0x3d2f496e	0.042794637
49	0xbdf52741	-0.11970378
50	0xbfa6e967	-1.3039979
51	0xbda55750	-0.08073294
52	0x3ec623cf	0.38699195
53	0x3dc364df	0.09540724
54	0x3e9f86c8	0.31157517
55	0x3fbd4293	1.4785942
56	0x3f9e9b3b	1.2391123
57	0x3f6b347a	0.9187695
58	0xbe179691	-0.1480353
59	0xbde7280e	-0.11286937
60	0x3f3aac8b	0.7291953
61	0xc0340b10	-2.8131752
62	0xbfe08820	-1.7541542
63	0x3dc97e7e	0.098385796
64	0xbf4d2c74	-0.80145955
65	0x3f4a0417	0.7891249
66	0xbf16b37c	-0.5886762
67	0xc0e09b3e	-7.0189505
68	0xbf7ef0fa	-0.9958645
69	0x3f742e3a	0.95383036
70	0xbed0831d	-0.40725031
71	0x3ed613f1	0.4181209
72	0x3ece1186	0.40247744
73	0x3dd88294	0.10571781
74	0x3f036b3e	0.51335514
75	0xbfa1c03e	-1.2636793
76	0xc106b1da	-8.418421
77	0xbf7940bd	-0.9736441
78	0x3f1d49f3	0.6144096
79	0xbf29cb18	-0.6632552
80	0x3ba0faed	0.004912725
81	0xbe3219ea	-0.17392698
82	0x3efe4cb1	0.49667886
83	0x3e9516c0	0.2911892
84	0xc02027db	-2.5024326
85	0x3f8428c8	1.0324945
86	0x3fb2b4f6	1.3961475
87	0xbfc8c309	-1.568452
88	0xbe6b8d9f	-0.23003243
89	0x3dfa6a1f	0.12227272
90	0x3c265036	0.01015096
91	0x3efc94a0	0.49332142
92	0xbfcb6ed6	-1.58932
93	0x3ee02988	0.43781686
94	0xbf82fcfd	-1.0233456
95	0xc0920873	-4.5635314
96	0x3f4b058c	0.7930534
97	0x3e308ed4	0.17241985
98	0xc0065bdb	-2.0993564
99	0x3f9e3bee	1.2362039
100	0xbe97bbd5	-0.29635492
101	0x3ece4d33	0.40293273
102	0x3fcc386f	1.5954722
103	0xc05bd037	-3.4345834
104	0x3d8a24ef	0.06745326
105	0x3ee92bff	0.4554138
106	0xbe6d6fa5	-0.2318712
107	0x3e869e75	0.26292768
108	0x3e11b877	0.14230524
109	0xbeeefa34	-0.46675265
110	0x3e90d57d	0.2828788
111	0x3d8dedd7	0.0693013
112	0xbf92660a	-1.143739
113	0xbe6bae0e	-0.23015615
114	0xbf18ffc4	-0.5976527
115	0xbf8a0ef7	-1.0785817
116	0xbf57abd0	-0.8424654
117	0x3f010833	0.50403136
118	0x3f4d9711	0.80308634
119	0xbff73a67	-1.9314698
120	0x3eb32f05	0.3499681
121	0xc02c50e4	-2.6924372
122	0xc09caa0d	-4.895758
123	0xbd88ae98	-0.06673926
124	0x3f6ca205	0.9243472
125	0xbedcf47b	-0.43155274
126	0xbd471e10	-0.048612654
127	0xbeb672da	-0.356345
128	0x3e9b79f6	0.30366486
129	0xbf9928d3	-1.1965584
130	0xbf65b7ed	-0.89733773
131	0x3e1e4be6	0.1545864
132	0xbf9c7442	-1.2222979
133	0xbfce7124	-1.6128278
134	0xbe53515a	-0.20636502
135	0xbfb4b606	-1.4118049
136	0xbfc74578	-1.5568075
137	0xbee330d2	-0.44373184
138	0xbe7c82a1	-0.24659206
139	0xbf258574	-0.6465676
140	0xbc3adb97	-0.011404893
141	0x3effa5cc	0.4993118
142	0xbd20609a	-0.039154626
143	0xbe846e79	-0.25865534
144	0xc0167df1	-2.3514369
145	0xc005540e	-2.0832553
146	0xbff371a9	-1.9019061
147	0x3f1fc9bb	0.6241719
148	0xbf3a5b94	-0.7279599
149	0x3c1b2f7e	0.009471772
150	0x3fc203db	1.5157427
151	0xbdea1cce	-0.11431275
152	0x3f4c5200	0.7981262
153	0xbf2f734d	-0.6853531
154	0xbe2c1224	-0.16803795
155	0xbdfd644a	-0.12372644
156	0xbfdbaca6	-1.7162063
157	0x400b61ea	2.1778512
158	0x3fb004b5	1.3751436
159	0xc00fb911	-2.2456706
160	0x3fa26a95	1.2688776
161	0x3ea1f25d	0.3163022
162	0xbedb83c6	-0.42873973
163	0x3f21bbff	0.63177484
164	0x3e6391c9	0.22223581
165	0xbecc8481	-0.39944842
166	0x3f57b96b	0.842673
167	0x3eeab582	0.45841604
168	0xbf7c4e43	-0.9855692
169	0x3dd97640	0.106182575
170	0x3f2fb372	0.68633187
171	0x3f3a7441	0.7283364
172	0xbfefc74f	-1.8732699
173	0x3e5d73a3	0.21626143
174	0x3fd93581	1.6969453
175	0x3e7bff31	0.24609067
176	0xbfe95898	-1.8230162
177	0x3de71aed	0.112844326
178	0x3ffd6407	1.9796151
179	0xbf1d2759	-0.61388165

conv1.bias f4 [20]
0	0xbfd65f60	-1.6747856
1	0xc00a82e9	-2.1642401
2	0xbf1676b5	-0.5877488
3	0x3d27ad54	0.040936783
4	0xbf1d401c	-0.6142595
5	0xbe2c343c	-0.16816801
6	0xbfbcac12	-1.4740012
7	0xbd7749c3	-0.06037308
8	0x3f44375d	0.7664698
9	0xbfcb48e4	-1.588162
10	0xbf42b272	-0.76053536
11	0x3e355ead	0.17711897
12	0x3e92e580	0.2869072
13	0xbba53d95	-0.0050427415
14	0xbe040be3	-0.1289516
15	0xbd92f941	-0.07176448
16	0xc0067d13	-2.101384
17	0x3d3762b0	0.04477185
18	0xbf31551e	-0.69270504
19	0x3f06a4a4	0.5259497

batch1.weight f4 [20]
0	0x400c7377	2.1945474
1	0x3fac1c04	1.344605
2	0x3fbe2345	1.4854513
3	0x3e2cb751	0.16866805
4	0x3fbb4ace	1.4632204
5	0x3db31e0b	0.087459646
6	0x3fe6e4af	1.8038539
7	0x401f8a66	2.4928222
8	0x40686cd9	3.6316435
9	0x3f3fb9bf	0.748928
10	0x400c8fea	2.1962838
11	0x40016369	2.0216925
12	0x3f326b3f	0.69694895
13	0x3fe93731	1.8219968
14	0x3f470145	0.7773631
15	0x3f3cd866	0.737677
16	0x3fbe82ad	1.4883629
17	0x3fa1aa99	1.2630187
18	0x3dfc0d12	0.123071805
19	0x3f8d32fd	1.1031185

batch1.bias f4 [20]
0	0xbfb630c1	-1.4233629
1	0x3e00b198	0.12567747
2	0xbfcd923c	-1.6060252
3	0xbef5d206	-0.48011798
4	0xbfac1cb7	-1.3446263
5	0xbe749267	-0.23883973
6	0x3f391914	0.7230389
7	0xbfb01eb9	-1.3759376
8	0xbfe016bb	-1.7506937
9	0xbf57f926	-0.84364545
10	0xbf973262	-1.1812251
11	0x3fb1f225	1.3902022
12	0xbf76c2a9	-0.9639078
13	0xbfa75832	-1.307379
14	0xbf9caebd	-1.2240826
15	0xbf8c8cec	-1.0980506
16	0xbf745fd0	-0.954587
17	0x3e8dfc75	0.27731672
18	0xbf2e3165	-0.6804412
19	0xbf85a4d1	-1.0440923

batch1.running_mean f4 [20]
0	0x3fc0396f	1.5017527
1	0xbf91e68e	-1.1398485
2	0xc026b4d6	-2.6047873
3	0xbf2c2079	-0.6723705
4	0xc009de86	-2.1542068
5	0x3ef52615	0.47880617
6	0xbfb0e7bb	-1.3820719
7	0x40515fb0	3.2714653
8	0x409e9684	4.9558735
9	0xbf92a6bc	-1.1457133
10	0x40050f5a	2.079062
11	0x3eabb1f1	0.33534196
12	0x3fe8eb35	1.819678
13	0x403edcb0	2.9822197
14	0x3fef99e4	1.8718839
15	0x3fc41749	1.5319606
16	0xbeda2ba6	-0.42611426
17	0xbe6ee441	-0.2332926
18	0xbf979822	-1.1843302
19	0x3e807d93	0.25095806

batch1.running_var f4 [20]
0	0x41eead2d	29.834558
1	0x40a5e7c5	5.184542
2	0x41521606	13.130377
3	0x3fa77ada	1.3084366
4	0x41054c2c	8.331097
5	0x3fc81473	1.5631241
6	0x4055030d	3.3283112
7	0x41f667cf	30.800688
8	0x423d03d6	47.253746
9	0x4076ae76	3.8543983
10	0x41de003a	27.75011
11	0x4006d738	2.106886
12	0x40c8b1ca	6.271703
13	0x41e1b0ea	28.211384
14	0x412fa754	10.978352
15	0x40e3cd94	7.118845
16	0x41299c22	10.600618
17	0x40849ea2	4.1443644
18	0x3fbc1d5d	1.4696461
19	0x401c160a	2.4388452

conv2.weight f4 [20, 20, 3, 3]
0	0x3f818c9b	1.0121034
1	0xc08b6728	-4.3563423
2	0xc01bb722	-2.4330525
3	0xbe50c651	-0.20388152
4	0xc0496904	-3.1470346
5	0xc00e0053	-2.2187698
6	0xbf3aefc5	-0.7302211
7	0xbf667e26	-0.9003624
8	0x3fa7ce03	1.3109745
9	0x3ee469fb	0.44612107
10	0xbe049322	-0.12946752
11	0xbf538c57	-0.82636017
12	0xbe941e85	-0.28929535
13	0xbe7b4788	-0.24539006
14	0x3ec06510	0.37577105
15	0xc01e950e	-2.4778476
16	0x3f68a619	0.90878445
17	0x3edf71c7	0.43641493
18	0xbf1cc108	-0.6123204
19	0xbfaf96e1	-1.371792
20	0xc00b50f8	-2.176817
21	0xbf0f4be9	-0.55975205
22	0xbf8aaeeb	-1.0834631
23	0x39b7bb46	0.0003504401
24	0xbf278074	-0.6543038
25	0xbee6b320	-0.45058537
26	0x3fab70e3	1.3393825
27	0xbc8ce984	-0.017201193
28	0x3cc3071a	0.023807097
29	0xbd8ce2ea	-0.06879218
30	0xbd3a545a	-0.0454906
31	0xbd9e124c	-0.077183336
32	0xbe0f3d39	-0.13988198
33	0xbd2435cf	-0.04009038
34	0xbe26b946	-0.16281614
35	0xbe10388d	-0.14084072
36	0xbf647a3b	-0.8924901
37	0xbf5181fa	-0.81838953
38	0xbf46c369	-0.7764192
39	0xbf410ab8	-0.7540698
40	0xbf9cc778	-1.2248373
41	0x3ecd662c	0.40117013
42	0xbe7e8d5f	-0.24858616
43	0xbf942f38	-1.157691
44	0x3f479ce9	0.779738
45	0xbee3ed47	-0.44516966
46	0xb9869062	-0.00025666045
47	0x3f214f42	0.6301156
48	0x3e0958fe	0.13412854
49	0x3e128bbb	0.14311115
50	0x3f18413e	0.5947455
51	0x3f03d17c	0.5149152
52	0x3eb6d2b8	0.3570764
53	0x3e4cbe58	0.19994485
54	0xbc84e37b	-0.016221752
55	0xbd842953	-0.064531945
56	0xbf4a2edf	-0.7897777
57	0xbd7d4676	-0.061834775
58	0x3fca723c	1.5816112
59	0xbf0dcff3	-0.5539543
60	0xbf191538	-0.59798
61	0x3f751119	0.95729214
62	0xbfa86925	-1.3157088
63	0x3e6c375a	0.2306799
64	0xc087c836	-4.24319
65	0xbfbe87ab	-1.4885153
66	0xbf2087a7	-0.6270699
67	0xc01674a7	-2.35087
68	0x3f82bcdd	1.0213886
69	0xbfe20aee	-1.7659585
70	0x3fb64ad9	1.4241592
71	0x402e2486	2.7209792
72	0x3efdcb73	0.49569282
73	0xbff16b5e	-1.8860891
74	0x3e977e62	0.2958861
75	0xbeddbe43	-0.4330922
76	0xbf32098b	-0.6954581
77	0x401446ef	2.3168294
78	0xbf9d425b	-1.2285875
79	0x3ee1eaf9	0.44124582
80	0x401dd016	2.4658256
81	0xc01402d6	-2.312673
82	0xbe831b13	-0.25606593
83	0xbed5ad4f	-0.41733786
84	0xbfceb97a	-1.6150353
85	0x3f2ad3db	0.66729516
86	0x3f53b4bc	0.82697654
87	0x3f30450c	0.6885536
88	0x3f3e9e7b	0.7446057
89	0x3ecf6a02	0.40510565
90	0xc03225f0	-2.7835655
91	0x3f743242	0.9538919
92	0x3faab2bc	1.3335795
93	0x3de1be30	0.110226035
94	0x403e9ecb	2.978442
95	0x3f855ddf	1.0419272
96	0x3ffe03db	1.9844927
97	0x4026cf82	2.6064153
98	0xbe24b9e1	-0.16086532
99	0x3ee64475	0.44974104
100	0xbfad04f8	-1.3517141
101	0x400c42ac	2.1915693
102	0xbf873738	-1.0563726
103	0x3e1d2c0a	0.15348831
104	0x3f773ec2	0.96580136
105	0xbfc95862	-1.5730097
106	0x3fc5693e	1.5422742
107	0xbf76c5f4	-0.963958
108	0x3eb8649c	0.3601426
109	0x3eb1ccc7	0.34726545
110	0x3f85aac3	1.0442737
111	0xbe09a0f6	-0.13440308
112	0xbe0eb0b4	-0.13934594
113	0x3f172279	0.59036976
114	0xbee9e28f	-0.45680663
115	0xbf204ead	-0.6262005
116	0xbdeb1a47	-0.114796214
117	0xc00d9e7a	-2.2127976
118	0x3ea31999	0.31855467
119	0x3fc309b2	1.5237334
120	0xbe1975ae	-0.14986297
121	0x4039719a	2.8975587
122	0x40312832	2.7680783
123	0x3fb67c05	1.4256598
124	0x406a2e82	3.6590886
125	0x3f8a97e8	1.0827608
126	0xbe70c3c3	-0.23512177
127	0xbdf75398	-0.12076491
128	0x3eccfa15	0.40034547
129	0xbe62245d	-0.22084184
130	0xbe1a7ee2	-0.15087464
131	0x3f2538b4	0.6453965
132	0xbe3c3e69	-0.18383183
133	0xbc129283	-0.008946064
134	0x3f4b921d	0.79519826
135	0xbeb90005	-0.36132827
136	0xbfa5ae65	-1.2943846
137	0xbfa72787	-1.3058938
138	0xbf71c735	-0.9444459
139	0xbfa1f089	-1.265153
140	0xbfa794a8	-1.3092241
141	0xbf4107f2	-0.7540275
142	0xbf1f29b7	-0.62173027
143	0xbe7f168a	-0.24910942
144	0xbf6f6839	-0.93518406
145	0xc08cb145	-4.3966393
146	0xc0330d75	-2.7976964
147	0x3d889234	0.06668511
148	0xc040cb1c	-3.0123968
149	0xc03c8291	-2.9454691
150	0xbf2eaade	-0.6822947
151	0xbfa7c88e	-1.310808
152	0x3de81613	0.11332335
153	0xbf8c15dd	-1.0944172
154	0x3ee8f75d	0.45501223
155	0xbf7c5770	-0.9857092
156	0xbe96f59a	-0.29484254
157	0x3e70afe6	0.235046
158	0x3e94de01	0.29075626
159	0x3e8a1b50	0.26973963
160	0x3fdd2d2e	1.7279413
161	0x3e880a4b	0.26570353
162	0xbf4cc228	-0.7998376
163	0xbe2fb453	-0.17158632
164	0xbee1a9b0	-0.44074774
165	0xbf019af0	-0.5062704
166	0x3dfdf3a1	0.12399984
167	0xbd988579	-0.07447333
168	0x3ca74e6d	0.020423139
169	0x3cb1cbd7	0.021703644
170	0xbd0b4b21	-0.034007195
171	0xc0211185	-2.5166943
172	0xbeb2dc46	-0.3493368
173	0x3eb6d6d7	0.35710785
174	0xbff7261e	-1.9308507
175	0xbfa8f090	-1.3198414
176	0xbf8b2be6	-1.0872772
177	0x3deada35	0.11467401
178	0xbe924fd4	-0.2857653
179	0xbfb1a41b	-1.3878206
180	0xbee65e0e	-0.44993633
181	0xbe131ac2	-0.14365676
182	0xbf5b33c6	-0.85625875
183	0xbf102834	-0.56311345
184	0x4008f9f5	2.1402562
185	0x3fefac36	1.872443
186	0xbfaae248	-1.3350306
187	0x4022a4ae	2.5413013
188	0x406b2c36	3.6745734
189	0xbffe11c6	-1.9849174
190	0x3f84a3a2	1.0362437
191	0x3e1621cb	0.14661328
192	0xbf536fe5	-0.8259261
193	0x3f8022e8	1.0010653
194	0xbdf2f76f	-0.118636005
195	0xbececb6e	-0.4038958
196	0x3e5883b3	0.2114399
197	0xbf4f443d	-0.809635
198	0xbf8a4cd1	-1.0804693
199	0xbf12a8d9	-0.5728889
200	0xbf805935	-1.0027224
201	0xbfb7962e	-1.4342706
202	0xbeb72184	-0.35767758
203	0xbdda97f3	-0.10673513
204	0xbf9f099b	-1.2424806
205	0xbfd4554c	-1.658853
206	0x3e49afa0	0.19695902
207	0xbe2a8a7b	-0.16654389
208	0x3cb74f32	0.02237663
209	0xbe17ff6b	-0.14843528
210	0xbd21db26	-0.039515637
211	0x3d69941e	0.05702602
212	0xbdd5cdea	-0.104396656
213	0xbda83e2e	-0.08214985
214	0x3d44467c	0.04791878
215	0xbdc72673	-0.097241305
216	0xc034343d	-2.8156884
217	0xbfa3fb21	-1.2811013
218	0xbfbb24f6	-1.4620655
219	0xbf5533c7	-0.8328213
220	0xbf03e987	-0.5152821
221	0xbe6265fe	-0.2210922
222	0xbf923914	-1.1423669
223	0xbf002dc6	-0.50069845
224	0x3f357d15	0.70893985
225	0xbe26a846	-0.16275129
226	0xbe11ff92	-0.14257649
227	0xbe3e188d	-0.18564053
228	0x3e5b61c3	0.21424012
229	0x3e00dfaf	0.12585329
230	0xbe033c92	-0.12816074
231	0x3e8d28ac	0.27570093
232	0xbd3ffc8e	-0.046871714
233	0xbcddc2b2	-0.027070377
234	0x3e8d35d7	0.2758014
235	0xbe0c828c	-0.13721675
236	0xbee38be3	-0.44442663
237	0xbe840da8	-0.2579167
238	0xbf8bbdbd	-1.0917279
239	0xbe15a7b2	-0.14614752
240	0xbfa5fb33	-1.2967285
241	0xbf211ea8	-0.629374
242	0xbf5222ce	-0.8208436
243	0xbe8454c1	-0.25845912
244	0x3faacea2	1.3344309
245	0x3fd780c9	1.6836177
246	0x3b93a6b1	0.004505955
247	0x40365832	2.849133
248	0x403decdc	2.9675817
249	0xbf87a98f	-1.059862
250	0xbe074506	-0.13209924
251	0x3e4eed66	0.20207748
252	0xbe2bbf97	-0.16772304
253	0x4044340f	3.0656774
254	0x402a6e74	2.6629915
255	0xbf1c9b1e	-0.6117419

conv2.bias f4 [20]
0	0x3ec1ebb1	0.3787513
1	0x3e9223ae	0.28542846
2	0xbf26322b	-0.649203
3	0x3ddb2591	0.107005246
4	0xbeda746f	-0.42666957
5	0xbee30e5a	-0.44346887
6	0x4011868d	2.2738373
7	0x3e403c56	0.18773016
8	0x3f997ff7	1.1992177
9	0xbfb461e5	-1.4092375
10	0x3e3db647	0.18526565
11	0xbafff62d	-0.0019528322
12	0xbf94ba08	-1.1619272
13	0x3d4ada8f	0.04952484
14	0x3f40b1db	0.75271386
15	0x3f0b580a	0.5443121
16	0x3e3c3551	0.18379714
17	0xbf2aecb1	-0.6676741
18	0xbf5cbc15	-0.8622449
19	0x3d06ed67	0.03294125

batch2.weight f4 [20]
0	0x3fd5d165	1.6704527
1	0x3fc2550d	1.5182205
2	0x4089e7fe	4.3095694
3	0x3f84cdc9	1.0375301
4	0x3f8497d9	1.035884
5	0x3fe76ce8	1.808011
6	0x401d6f3d	2.4599144
7	0x4027e989	2.6236289
8	0x4015cf02	2.3407598
9	0x3fb09515	1.3795496
10	0x3fba7f08	1.4570017
11	0x3fa9de63	1.3270992
12	0x3fcf44bb	1.619285
13	0x404c3259	3.190573
14	0x3ff6aae9	1.9270908
15	0x3f94ea8a	1.1634076
16	0x3f65ae35	0.89718944
17	0x3ff3cde4	1.9047208
18	0x3fd2949e	1.6451604
19	0x3fdd1fce	1.7275331

batch2.bias f4 [20]
0	0xbfe86081	-1.8154451
1	0xbf235a47	-0.6380963
2	0x3f32dbc7	0.69866604
3	0xbf983291	-1.1890432
4	0xbf3c0480	-0.73444366
5	0xbf167379	-0.5876995
6	0xbe93cd9b	-0.28867802
7	0x3d8407b5	0.064467825
8	0xbe295354	-0.16535693
9	0xbf0be986	-0.54653203
10	0x3e27c16c	0.16382378
11	0xbf844c2d	-1.0335747
12	0xbe7d5de3	-0.24742846
13	0x3f651d0f	0.89497465
14	0xbf3fd707	-0.7493748
15	0xbfb01393	-1.3755974
16	0xbf3ce3f3	-0.7378532
17	0xbf26a45a	-0.6509453
18	0xbc8efe22	-0.017455164
19	0xbf91f5fe	-1.1403196

batch2.running_mean f4 [20]
0	0xc0949621	-4.6433263
1	0x40d67520	6.7017975
2	0xc131b044	-11.105534
3	0x40f318cd	7.5967774
4	0xc1a0d58e	-20.104275
5	0xc203bbb4	-32.933304
6	0xc18e23c0	-17.767456
7	0x40b56738	5.66885
8	0xc0b91bc8	-5.7846413
9	0xc19bce5f	-19.475767
10	0xc1730652	-15.189043
11	0xc1ae5c8c	-21.795189
12	0xc1e07045	-28.05482
13	0xc10917d9	-8.568322
14	0x4152e74f	13.181472
15	0xc1107de8	-9.030739
16	0x410a70ed	8.65257
17	0x407a558a	3.911471
18	0xc20d2eb8	-35.295624
19	0xc1997746	-19.183239

batch2.running_var f4 [20]
0	0x42e62c7a	115.08687
1	0x43de50e4	444.63196
2	0x43b071aa	352.888
3	0x4387e9f3	271.82773
4	0x439131e8	290.3899
5	0x43bbe66e	375.80023
6	0x43f8cb4f	497.58835
7	0x43b378bd	358.94327
8	0x435af900	218.97266
9	0x4356c496	214.76791
10	0x4371000e	241.00021
11	0x43a38758	327.05737
12	0x43c54806	394.56268
13	0x43ac0661	344.04984
14	0x43c432be	392.39642
15	0x42d5ec9b	106.96212
16	0x43a9e06c	339.7533
17	0x43bdaeec	379.36658
18	0x440d8846	566.1293
19	0x43314449	177.26674

conv3.weight f4 [20, 20, 3, 3]
0	0xbc8e23c0	-0.017351031
1	0xbf068d94	-0.5255978
2	0xc03c0d5c	-2.9383154
3	0xbf22d3ae	-0.6360425
4	0x3d1cc953	0.038277935
5	0xbff694a1	-1.9264108
6	0xbf5db769	-0.86607987
7	0x3fa53c0b	1.2908949
8	0xbdcb3732	-0.09922637
9	0x3f5d88d4	0.8653691
10	0x3f281eb5	0.65671855
11	0x3e98b09e	0.29822248
12	0x3f1b77be	0.6072959
13	0xbec98832	-0.3936172
14	0x3f4e0aa1	0.8048497
15	0x3f96fc54	1.1795754
16	0xbf1e639c	-0.6187074
17	0x3f1f3eb8	0.62205076
18	0xc007fe47	-2.1248949
19	0x400363ef	2.0529745
20	0xbeb0660d	-0.3445286
21	0xc05c5ab7	-3.4430368
22	0x405418ce	3.314014
23	0xbe34e259	-0.1766447
24	0xc0113ac1	-2.269211
25	0x400af493	2.1711776
26	0x3efbbb13	0.49166164
27	0x3f851f1b	1.0400118
28	0xbe856255	-0.26051584
29	0x3e27cdd1	0.16387106
30	0xbdf63939	-0.12022633
31	0xc00369ff	-2.0533445
32	0xbe172be4	-0.14762837
33	0x3eb390f4	0.35071528
34	0xbf383fe3	-0.71972483
35	0x3f8d68d2	1.1047614
36	0x3ec92c4c	0.39291608
37	0xbdbd7a23	-0.09251811
38	0x3f317510	0.6931925
39	0xbe91a131	-0.28443292
40	0xbec6df43	-0.3884221
41	0x3f223512	0.6336223
42	0xbefb2356	-0.49050397
43	0xbd2723cc	-0.040805623
44	0x3f88b1c5	1.0679251
45	0xc00d3350	-2.2062569
46	0x3fd33df6	1.6503284
47	0x3b7ac4d2	0.0038264287
48	0xc04ae48e	-3.1701999
49	0x3f0fa41b	0.5610978
50	0x3f015ff3	0.5053703
51	0xbfcf9edc	-1.6220355
52	0xbed648f8	-0.41852546
53	0x3fbda007	1.4814461
54	0xbf9f53d0	-1.2447453
55	0x3e22c61f	0.1589589
56	0xbf7ddde2	-0.9916669
57	0x3da41800	0.0801239
58	0x4012dc07	2.2946794
59	0xc01b1ead	-2.4237473
60	0xbe706d89	-0.23479284
61	0x40007ff6	2.00781
62	0xbfbbeb89	-1.4681255
63	0x3ed03f0b	0.40673098
64	0x3f06dcf8	0.5268092
65	0xbe49c261	-0.19703056
66	0xbe357e59	-0.17723979
67	0xbe1d4b44	-0.15360743
68	0x3f6c7a13	0.9237377
69	0x3f35ba28	0.70987177
70	0xbf8a0586	-1.0782936
71	0x3fac389e	1.3454778
72	0xbfcc689b	-1.5969423
73	0x3f082cdc	0.5319345
74	0xbf1c015b	-0.6093957
75	0xbf9bac42	-1.2161944
76	0xbe87a7aa	-0.26495105
77	0x3efa8e9b	0.48936924
78	0xbfc3e5fd	-1.5304562
79	0xbf2cfe14	-0.6757519
80	0x3ed659df	0.4186544
81	0xbed76119	-0.42066267
82	0x3f061560	0.52376366
83	0x3f1f67e2	0.6226789
84	0xc009208b	-2.1426113
85	0xbefeb107	-0.49744436
86	0x3e8fb257	0.2806575
87	0xbf7a2f65	-0.9772857
88	0x3ef993ac	0.48745477
89	0x3fa99f0a	1.325166
90	0xbf659d1f	-0.8969287
91	0x3f0cf76f	0.55065054
92	0x3e40f1ef	0.1884229
93	0xbf4df4ae	-0.80451477
94	0x3f9b425a	1.2129624
95	0x3f273a35	0.6532319
96	0x3f3e2157	0.7426962
97	0xbf0ce8bc	-0.55042624
98	0x3f89c9eb	1.0764745
99	0x3f929a5b	1.1453356
100	0x3f524108	0.8213048
101	0x3dde1293	0.108433865
102	0xbe5f7a36	-0.21823964
103	0xbfe514d2	-1.7896979
104	0xbf1a23e5	-0.6021102
105	0x3f8a6da0	1.0814705
106	0x3db56feb	0.08859237
107	0x3e84d1c4	0.25941288
108	0xbfa4c3a6	-1.2872207
109	0x3fab7803	1.3396
110	0x3f462140	0.77394485
111	0xbf9f06a7	-1.2423905
112	0xbf0b73bf	-0.5447349
113	0x3fb11dea	1.3837254
114	0xbf454d4c	-0.7707107
115	0xbf7733fe	-0.9656371
116	0x3f6165e8	0.8804612
117	0x3ee2ee43	0.44322404
118	0xbf0d782d	-0.552615
119	0xbf88b0eb	-1.0678991
120	0x40376da2	2.8660665
121	0xbf7b17f8	-0.9808345
122	0xbff71614	-1.9303613
123	0x40101e19	2.251837
124	0x3dfd3b21	0.123647936
125	0xc03c9001	-2.9462893
126	0x3fcabaf8	1.5838308
127	0x3f87b1dd	1.0601155
128	0x3ec3900d	0.3819584
129	0x3f2fe228	0.6870446
130	0xbf5368d9	-0.8258186
131	0xbd94f328	-0.07272941
132	0x3fb25fc7	1.3935479
133	0xbebf883b	-0.37408623
134	0x3f8dfdd0	1.1093082
135	0x3c7133ca	0.01472182
136	0xbcf751d2	-0.030190382
137	0xbe8cad4a	-0.2747596
138	0xbeae4648	-0.34037995
139	0x3cf53121	0.029930653
140	0x3e9444d1	0.28958753
141	0x3e3c7b5d	0.18406434
142	0xbf987b0c	-1.1912551
143	0xbe6a32f0	-0.22870994
144	0xbdbcf291	-0.09225953
145	0x3f5cf2b9	0.86307865
146	0xbece660f	-0.4031224
147	0x3d5b0aa2	0.053476937
148	0xbf0abe97	-0.5419707
149	0x3d72f9fe	0.059320442
150	0x3fbe5027	1.486821
151	0xbed80c40	-0.42196846
152	0x3f8d110b	1.1020826
153	0x3fb21fe3	1.3915981
154	0x3dced324	0.10098866
155	0xbe9c8173	-0.30567512
156	0x3fd3400a	1.6503918
157	0xbf4e80bf	-0.806652
158	0xbf253a9e	-0.6454257
159	0x40184e21	2.3797686
160	0xbe4b3a04	-0.1984635
161	0xbf3e806a	-0.74414694
162	0xbfb7a571	-1.4347364
163	0xbed204cc	-0.41019285
164	0xbf27e6f2	-0.6558677
165	0xbf11bfcd	-0.5693329
166	0x3fdff05d	1.7495228
167	0x3e3eeff9	0.1864623
168	0x3f089b2d	0.5336178
169	0x3f4c9fac	0.7993114
170	0x3e65ee31	0.22454144
171	0x3e9ed823	0.31024274
172	0xbdba0728	-0.09083396
173	0xbfe60341	-1.7969743
174	0xbf30e88e	-0.6910485
175	0x4001a4c8	2.0256824
176	0xc01f609c	-2.4902716
177	0xbf98d5f4	-1.1940293
178	0x3f5c70f0	0.8610983
179	0xbeeb4b2a	-0.45955783
180	0x3d2bce62	0.04194487
181	0xbfc625e4	-1.5480313
182	0x3f8d9b6b	1.1063055
183	0x3efc0665	0.4922363
184	0xbfd04906	-1.6272285
185	0x3f181736	0.5941042
186	0xbe79cc97	-0.24394451
187	0x3f7ac2fc	0.9795377
188	0xbf82c040	-1.021492
189	0xbe813b9a	-0.25240785
190	0x3eb75b41	0.3581181
191	0x3f679bac	0.9047191
192	0xbe4c268a	-0.19936576
193	0xbe9e5964	-0.30927575
194	0xbefeed92	-0.49790627
195	0xbf996b97	-1.1985959
196	0xbe9eb488	-0.3099711
197	0x3e259776	0.16171059
198	0x3f77e097	0.9682707
199	0xbf7d8e9b	-0.99045724
200	0x3dae42ed	0.08508859
201	0xbfc457d6	-1.5339305
202	0x401cf3a4	2.4523706
203	0xc031929d	-2.7745736
204	0x3f56b4e5	0.83869773
205	0x401254a7	2.2864168
206	0xbfc2b135	-1.5210329
207	0xbe82b3b8	-0.2552774
208	0x3d6b0f7f	0.057387825
209	0xbf59d588	-0.8509145
210	0xbf499325	-0.7874015
211	0x3cc227f8	0.0237007
212	0x3f237e8b	0.63864964
213	0xc01048ba	-2.2544389
214	0xbf58c4ae	-0.8467511
215	0xbf003db4	-0.5009415
216	0x3e8c4a5c	0.27400482
217	0x3f18f335	0.59746104
218	0x3f2e8045	0.68164474
219	0xbf5af3ab	-0.8552806
220	0xbe9fdf93	-0.3122526
221	0x3e23e934	0.16006929
222	0xbf61324a	-0.8796736
223	0x3f491bdb	0.7855813
224	0x3f0a36cf	0.5398988
225	0x3fa05aca	1.2527707
226	0x3f6c94f7	0.924148
227	0xbf083758	-0.5320945
228	0x3f6e9c6f	0.9320745
229	0x3ffe0466	1.9845092
230	0xbe9c9e35	-0.30589452
231	0x3f70935c	0.9397485
232	0x3f4c4c70	0.79804134
233	0xbc012b02	-0.007883789
234	0xbe9eda65	-0.31025997
235	0xbf297fe9	-0.662108
236	0xbfbcb9aa	-1.474416
237	0x3fed671a	1.8547089
238	0xbf03347d	-0.51251966
239	0xbfba95c8	-1.457696
240	0x3fcb5f7f	1.5888518
241	0xbecd79de	-0.4013204
242	0xbfca1f41	-1.5790788
243	0x3ee9051b	0.45511708
244	0xbf927ddb	-1.1444658
245	0xbe78f371	-0.24311616
246	0x3faee457	1.3663434
247	0xbf4e3941	-0.8055611
248	0xbf097a9f	-0.5370273
249	0xbdb94eb0	-0.090482116
250	0xbebb3070	-0.36560392
251	0x3fbebb8c	1.4900985
252	0xbddcdf9e	-0.10784839
253	0xbfcb5ba2	-1.5887339
254	0x3f82b971	1.0212842
255	0xbe5df5f1	-0.2167585

conv3.bias f4 [20]
0	0xbf99765c	-1.1989245
1	0xbe8c8b18	-0.2744987
2	0x3e20744c	0.15669364
3	0x3ecf8685	0.40532318
4	0x3ef9124e	0.48646778
5	0x3ee40a5d	0.44539157
6	0x3db1f4d5	0.08689276
7	0x3ebf806c	0.37402666
8	0xbf7eb2f8	-0.99491835
9	0xbf242928	-0.641253
10	0x3e1ce465	0.153215
11	0xbee59f3e	-0.44848055
12	0xbeb47d20	-0.35251713
13	0x3de8c185	0.11365036
14	0x3f06d25a	0.5266472
15	0xbeb60eba	-0.3555811
16	0xbcf67f3d	-0.030089969
17	0x3e939523	0.2882472
18	0x3fd6ecdd	1.6791035
19	0x3e349c58	0.17637765

batch3.weight f4 [20]
0	0x401055b8	2.2552319
1	0x3fda308d	1.7046067
2	0x3fe3ea88	1.7805948
3	0x40093b7c	2.1442556
4	0x3fdd8c9c	1.7308536
5	0x3feea296	1.8643367
6	0x3fe0ee2c	1.7572684
7	0x3fa52eb2	1.2904875
8	0x40231569	2.5481818
9	0x4017957b	2.3684986
10	0x400f6a92	2.2408795
11	0x4009efa0	2.1552505
12	0x3fbb2305	1.4620062
13	0x3fa6842c	1.3009086
14	0x3fd3db16	1.6551235
15	0x3fbda13f	1.4814833
16	0x3f9c7ff6	1.222655
17	0x3fc58892	1.5432303
18	0x402c4e7f	2.692291
19	0x400bbe36	2.1834846

batch3.bias f4 [20]
0	0x3ec07aff	0.3759384
1	0xbe201114	-0.15631515
2	0xbf73971e	-0.9515246
3	0xbb266cd0	-0.0025394447
4	0xbde1ecc0	-0.110314846
5	0xbdb51576	-0.08841984
6	0xbfa86746	-1.3156517
7	0xbd83fb6d	-0.0644444
8	0xbf14343e	-0.57892215
9	0xbf6a8146	-0.91603506
10	0xbf0b08b9	-0.54310185
11	0xbf681d84	-0.9067004
12	0xbf9489b1	-1.160452
13	0xbf2bc13b	-0.6709172
14	0x3f59cd9c	0.8507936
15	0xbf8377da	-1.0270951
16	0xbe83f629	-0.25773743
17	0xbf26e7d5	-0.651975
18	0xbdcab7cc	-0.09898338
19	0xbfbeae80	-1.4897003

batch3.running_mean f4 [20]
0	0xc03de80f	-2.9672887
1	0xc0dbbe05	-6.8669457
2	0xc0d03144	-6.506014
3	0x41354767	11.329932
4	0xc1c59f9d	-24.702936
5	0xc1d5d6a3	-26.729803
6	0xc107d7de	-8.490202
7	0xc182e57e	-16.362057
8	0xc130bc66	-11.045996
9	0xc0f911ae	-7.783408
10	0xc11c0a5b	-9.752528
11	0xc117c245	-9.484929
12	0x4184dd7c	16.608147
13	0xbe98372b	-0.2972959
14	0x419a9c05	19.326181
15	0xbf722938	-0.94594145
16	0xc1be2541	-23.76819
17	0x416526d6	14.321981
18	0xc138e838	-11.556694
19	0xc18ab7be	-17.339718

batch3.running_var f4 [20]
0	0x44c22b2f	1553.3495
1	0x4481ef01	1039.4689
2	0x441ac221	619.03326
3	0x44b76aff	1467.3436
4	0x448fe2c9	1151.087
5	0x4456b832	858.87805
6	0x43c153dc	386.65515
7	0x45014664	2068.3994
8	0x44387d4e	737.9579
9	0x44765eeb	985.4831
10	0x449dfaf4	1263.8423
11	0x4423b300	654.7969
12	0x4480b569	1029.6691
13	0x449b8a90	1244.3301
14	0x44b85db5	1474.9283
15	0x44175bb8	605.4331
16	0x449e8ea8	1268.458
17	0x44381064	736.2561
18	0x449236da	1169.7141
19	0x442c38ac	688.8855

conv4.weight f4 [40, 20, 3, 3]
0	0xbeeb1e0a	-0.45921355
1	0xbf85112d	-1.0395867
2	0xbf24e63a	-0.644138
3	0x3f31c92d	0.69447595
4	0xbef221bf	-0.4729137
5	0xbf5125f4	-0.81698537
6	0x401e1323	2.469918
7	0x3ff55eec	1.9169593
8	0x3f3e59ea	0.7435595
9	0x3eff4c82	0.49863058
10	0x3f0efe91	0.5585719
11	0xbf0387bc	-0.5137899
12	0x3e57bc56	0.21067938
13	0xbf32c90b	-0.6983802
14	0xbee087e6	-0.43853682
15	0x3f5f9bd3	0.87347144
16	0x3f020503	0.507889
17	0x3f2dca30	0.6788664
18	0xbf781f45	-0.96922714
19	0xc03f35f1	-2.9876673
20	0xc01e43b0	-2.4728813
21	0xbebf424b	-0.37355265
22	0xc001faa5	-2.0309231
23	0xbfd12183	-1.6338352
24	0x3f6f2aaf	0.93424505
25	0x3ff5ce76	1.9203632
26	0x3f967c91	1.1756765
27	0xbfad4b6b	-1.3538641
28	0xc0230009	-2.5468771
29	0xbf2e3d5d	-0.6806238
30	0x3db570af	0.08859383
31	0xc0160e66	-2.3446288
32	0xbf60e9cd	-0.8785675
33	0x3efdbed9	0.49559668
34	0xbf0d5e1d	-0.5522173
35	0xbf2b52c5	-0.6692317
36	0x3fab859a	1.3400147
37	0x3f6fe3a3	0.9370672
38	0xbf878bcc	-1.0589538
39	0x3eb6291e	0.35578245
40	0x3ed9cd72	0.42539555
41	0xbf88b950	-1.0681553
42	0xbd18b59a	-0.037282564
43	0x3e539973	0.20664005
44	0x3f8f0f07	1.1176461
45	0x40005161	2.004967
46	0xbe8d2ae2	-0.2757178
47	0xbf9f26a4	-1.2433667
48	0x3fdeea9f	1.7415351
49	0x3f9502e5	1.1641508
50	0xbf75b23d	-0.95975095
51	0xbfc4fc30	-1.5389462
52	0x3ed02cd9	0.40659216
53	0x3f66409f	0.89942354
54	0xbf8b7b03	-1.0896915
55	0xbdc9a2df	-0.09845518
56	0xbf924237	-1.1426457
57	0xc049fb80	-3.1559753
58	0xbea41ad5	-0.3205172
59	0xbf5f83a9	-0.8731027
60	0xc0299336	-2.64961
61	0xbfef060b	-1.8673719
62	0xc0229644	-2.5404215
63	0xbfd80a51	-1.6878148
64	0xbfe47070	-1.7846813
65	0xbce4747d	-0.027887577
66	0xbda989c3	-0.08278229
67	0xbffb9d9c	-1.9657474
68	0xbfb0e801	-1.3820802
69	0xbecc4f33	-0.39904174
70	0xbffeabc8	-1.9896173
71	0xbf4544e4	-0.77058244
72	0xbef02520	-0.46903324
73	0xc04953fa	-3.1457505
74	0xbfeae024	-1.8349652
75	0xbf4df503	-0.80451983
76	0xc03eb5e3	-2.9798515
77	0xbf9853db	-1.1900591
78	0x3fbbafe5	1.4663054
79	0x4019aff5	2.4013646
80	0x3f7cf27a	0.9880749
81	0xbf552c70	-0.8327093
82	0xbe15d1a3	-0.14630751
83	0x3d9b0df8	0.07571024
84	0x3fbb05d0	1.4611149
85	0x3f4b175a	0.79332507
86	0xbe1d7fc5	-0.15380771
87	0x3f5d9700	0.8655853
88	0x3f89f480	1.077774
89	0x3ef8f55f	0.48624703
90	0xbf43a0d1	-0.7641726
91	0xbd4aaefc	-0.049483284
92	0x3f7459ce	0.9544953
93	0xbc97676c	-0.018481933
94	0x3f8a6194	1.0811028
95	0x3e4f197b	0.20224564
96	0xbe4e7121	-0.20160343
97	0x3f92893e	1.1448133
98	0xbf853a4e	-1.0408418
99	0xbf6fde61	-0.936987
100	0xc0352673	-2.8304718
101	0xbfcc6947	-1.5969628
102	0xbf7f03d6	-0.9961523
103	0xbf484a5a	-0.7823845
104	0xbe9bf37f	-0.3045921
105	0x3fa61d69	1.2977725
106	0x3f8505d3	1.0392402
107	0x3ffe2b2d	1.9856926
108	0x3da55ead	0.080746986
109	0xc03c12b4	-2.9386415
110	0xbe24f23d	-0.16108032
111	0x3f519b06	0.8187717
112	0xbf0d4246	-0.5517925
113	0x3f14be30	0.58102703
114	0x3ff451f5	1.9087511
115	0x3f7b2cf8	0.9811549
116	0x3fa6089a	1.2971375
117	0xbfb1686d	-1.3859993
118	0xbefa893d	-0.4893283
119	0x3f8b4b6a	1.088239
120	0x3de7eea5	0.11324815
121	0xbfc64f2b	-1.549291
122	0xbde16052	-0.110047
123	0xbe187d7b	-0.14891617
124	0xc00d12c4	-2.2042704
125	0xbf202e13	-0.62570304
126	0xbf61b21b	-0.8816239
127	0xbf747019	-0.9548355
128	0xbef1a14e	-0.47193378
129	0xbf808470	-1.0040417
130	0xbe898c2e	-0.2686476
131	0xbf5cc7cc	-0.86242366
132	0x3fb33c1b	1.4002718
133	0x4014616b	2.318446
134	0xbf0fc8a5	-0.56165534
135	0x3f54a933	0.8307068
136	0xbe38cb0e	-0.18046209
137	0xbfc217dd	-1.5163532
138	0x40149496	2.321569
139	0x40030d7c	2.047698
140	0x3f003cde	0.50092876
141	0x3f63730f	0.8884744
142	0x3db14fc3	0.086577915
143	0x3f6ba23d	0.9204443
144	0xc01c971c	-2.446723
145	0xc02118d5	-2.5171406
146	0xbcabda48	-0.020978108
147	0xbfae77c4	-1.36303
148	0xc03db8c6	-2.9644027
149	0xbfd80581	-1.687668
150	0xbe8aed71	-0.27134278
151	0xbfa4217d	-1.282272
152	0xbfa61f2a	-1.297826
153	0xbf8f9c3a	-1.1219552
154	0xbfd903b8	-1.695426
155	0xbf99f287	-1.2027138
156	0xbfbc57d0	-1.4714298
157	0xc029c721	-2.6527789
158	0xc0059e27	-2.0877779
159	0xbe58dc3b	-0.21177761
160	0xbecbbcaa	-0.39792377
161	0xbef392b2	-0.47572857
162	0xbf3c43d5	-0.73541003
163	0xc003d2d1	-2.0597422
164	0x3f52ecdc	0.8239267
165	0x3f1ec198	0.6201415
166	0x3ee63d1c	0.44968498
167	0xbf6f1b03	-0.9340059
168	0x40055884	2.0835276
169	0x402c02aa	2.6876626
170	0x3ed148c2	0.40875822
171	0xbfb5faee	-1.4217203
172	0xbfcbe02f	-1.592779
173	0xbe2e128f	-0.16999267
174	0xc00c369d	-2.1908333
175	0xbfdf366c	-1.7438483
176	0x3e0c27bd	0.13687034
177	0xbfc04e5a	-1.5023911
178	0xbefdaa10	-0.4954381
179	0x3fbe9888	1.4890299
180	0xbfbead70	-1.4896679
181	0xbfa5f97b	-1.296676
182	0xbfce4ece	-1.6117799
183	0xbf587a63	-0.8456175
184	0xbecb435a	-0.39699823
185	0xbf7b69cd	-0.98208314
186	0x3ffb29cb	1.9622129
187	0x3e97a3ab	0.29617056
188	0x3f49d88e	0.7884606
189	0xbe233cc2	-0.15941146
190	0xbf16ade1	-0.5885907
191	0x3e57fc1e	0.21092269
192	0xbf3a49da	-0.7276894
193	0x3d9b5c80	0.07586002
194	0x3ec07bd3	0.3759447
195	0x400d738a	2.210177
196	0x3ddb4408	0.10706335
197	0x3f452524	0.770098
198	0xbf8b49b8	-1.0881872
199	0xc006e8a3	-2.107949
200	0x3b921587	0.0044581327
201	0xc0716ad1	-3.7721446
202	0xbfd0e9fb	-1.6321405
203	0x3f4bc68a	0.7959982
204	0x3eec8a59	0.461993
205	0x40040d09	2.0632956
206	0xbdc76301	-0.0973568
207	0xc04c85bc	-3.1956625
208	0xbf193deb	-0.59860104
209	0xbf1c675a	-0.610952
210	0xbfa8cbb2	-1.3187163
211	0xbf15c1d5	-0.5849889
212	0x3f45c213	0.7724926
213	0x3fac6bc9	1.3470393
214	0x3ef79ac3	0.4836026
215	0x3e18ca0a	0.14920822
216	0x403331bf	2.7999113
217	0xbd6939f4	-0.056940034
218	0xbe26b9eb	-0.1628186
219	0x3f2e7752	0.6815082
220	0xbfd8f1ea	-1.6948826
221	0xbc35e121	-0.011101038
222	0xbefca5c2	-0.49345213
223	0xbfb6f173	-1.4292434
224	0xbf811cab	-1.0086874
225	0x402b96e8	2.6810856
226	0x3d3da3fb	0.046298962
227	0x4013c6c6	2.3090072
228	0x3fc6c101	1.552765
229	0xbf1099f1	-0.56484896
230	0xbf0459ef	-0.5169973
231	0xbef84713	-0.48491725
232	0x3f01b777	0.5067057
233	0xbf0ea87e	-0.5572585
234	0xbf58f0a1	-0.8474217
235	0x3f885b39	1.0652839
236	0xbf59d7c1	-0.8509484
237	0xc01182de	-2.2736125
238	0xbef16363	-0.4714614
239	0x3fa53169	1.2905704
240	0xbf93dfe8	-1.1552706
241	0xbf50c801	-0.8155518
242	0x3fa0b538	1.2555304
243	0xc03aa068	-2.9160404
244	0xbfd6acf5	-1.6771532
245	0xbe32985e	-0.17440936
246	0xbeff679b	-0.49883732
247	0xbfb2b2f9	-1.3960868
248	0x3edbd34b	0.4293464
249	0x3ea5dc83	0.323948
250	0xbf3d74af	-0.7400617
251	0xbf47a786	-0.77989995
252	0xbc700c2b	-0.014651339
253	0xbf10b00c	-0.56518626
254	0x3ff45d76	1.9091022
255	0xc039ad10	-2.901188

conv4.bias f4 [40]
0	0xbd037f4c	-0.03210382
1	0x3d94610b	0.07245072
2	0xbd9f7efd	-0.07787893
3	0x3cfd062a	0.030886728
4	0x3e59cf66	0.21270522
5	0xbe25d3ee	-0.16194126
6	0x3dba7e5d	0.09106133
7	0xbe04f97b	-0.12985794
8	0xbd286038	-0.041107386
9	0xbbcb50f4	-0.0062047187
10	0x3d6de4cc	0.058079526
11	0xbce3bc4d	-0.02779975
12	0x3dd06d08	0.10177046
13	0x3d829c07	0.06377416
14	0x3e69cffb	0.22833245
15	0xbd93b99e	-0.07213138
16	0xbdec23ce	-0.11530267
17	0xbc980717	-0.018558068
18	0xbdf75599	-0.12076873
19	0xbc8d644d	-0.017259741
20	0xbd848f71	-0.06472672
21	0x3d60a1da	0.054841854
22	0x3c667d01	0.014067889
23	0x3c63d484	0.013905648
24	0x3d15cae5	0.03657045
25	0xbd2ee7ac	-0.04270141
26	0x3d1e6094	0.038666323
27	0xbe0451eb	-0.12921874
28	0x3cac76c4	0.021052726
29	0xbe1591a6	-0.14606342
30	0xbd028616	-0.031866156
31	0x3d8532d3	0.065038346
32	0xbdf0c15a	-0.11755629
33	0x3cf22ef7	0.02956341
34	0x3e021e7a	0.12706938
35	0xb8e68506	-0.00010992032
36	0x3d6ea2ef	0.058260854
37	0x3db55a2b	0.08855089
38	0xbe80c861	-0.25152877
39	0xbe368747	-0.17825042

batch4.weight f4 [40]
0	0x3fc1b8ac	1.5134482
1	0x3f9ca591	1.2238027
2	0x3ffad702	1.9596865
3	0x3f81d84d	1.0144135
4	0x3ff4ece0	1.9134789
5	0x3fa7622d	1.3076836
6	0x40022b2e	2.0338855
7	0x3fea9b2a	1.8328602
8	0x40018aca	2.024096
9	0x400ae53f	2.170242
10	0x3fc198d4	1.5124764
11	0x3fc054bc	1.5025859
12	0x401a96a2	2.415444
13	0x401a1ca4	2.407998
14	0x40294629	2.6449072
15	0x3fc133dc	1.5093951
16	0x3fe45945	1.7839743
17	0x40045d1a	2.0681825
18	0x4035b98f	2.8394506
19	0x3ff02817	1.8762234
20	0x4009b509	2.1516745
21	0x3fd162c1	1.6358262
22	0x3fe5ae14	1.794375
23	0x40025f26	2.0370574
24	0x40246f37	2.569288
25	0x400176d9	2.022879
26	0x3fff761b	1.9957918
27	0x3ff66829	1.9250537
28	0x401118e3	2.267144
29	0x3fcd5c64	1.604382
30	0x3f92b69a	1.1461976
31	0x40146226	2.3184905
32	0x3fca8394	1.5821404
33	0x3fd04c6d	1.6273323
34	0x3fea0e0f	1.828554
35	0x3fbbfdce	1.468683
36	0x40166e36	2.3504767
37	0x400f0386	2.23459
38	0x4053c760	3.309044
39	0x400feb1d	2.2487252

batch4.bias f4 [40]
0	0xbe8706d5	-0.263724
1	0xbdb2f15b	-0.08737441
2	0xbf3838a3	-0.7196142
3	0xbfaf7bd5	-1.3709666
4	0xbf99b9b8	-1.2009802
5	0xbe94b622	-0.29045206
6	0xbef04ec2	-0.46935087
7	0xbf29ac1b	-0.6627824
8	0xbf607f97	-0.87694687
9	0xbf1acafe	-0.6046599
10	0xbd413c04	-0.047176376
11	0xbf16bd1c	-0.5888231
12	0xbfa7e28b	-1.311601
13	0xbf461636	-0.7737764
14	0xbf135f2a	-0.57567084
15	0xbecebed6	-0.4037997
16	0xbf194b10	-0.5988016
17	0xbf274cd3	-0.653516
18	0xbf8d0d97	-1.1019772
19	0xbf14d53a	-0.5813786
20	0xbf29a212	-0.66262925
21	0xbccf44fe	-0.025301453
22	0xbee96f05	-0.45592514
23	0xbf9a42f5	-1.2051684
24	0xbf89fe90	-1.0780811
25	0xbf55550f	-0.83332914
26	0xbf1101c9	-0.5664335
27	0x3d1ce183	0.038301002
28	0xbf86de3e	-1.0536573
29	0xbf810474	-1.0079484
30	0xbe8c209b	-0.27368626
31	0xbf1e1b58	-0.61760473
32	0xbf23d6c7	-0.639996
33	0xbf906984	-1.1282201
34	0xbfd8e401	-1.6944581
35	0xbedcd04d	-0.4312767
36	0xbf9ff3c7	-1.249627
37	0xbf47813f	-0.7793159
38	0x3f1730f5	0.5905908
39	0xbf2e6cd6	-0.6813482

batch4.running_mean f4 [40]
0	0xc21d61de	-39.345573
1	0xc1fd9d55	-31.701822
2	0xc214aabc	-37.166733
3	0xc0a0b344	-5.021883
4	0x419e2992	19.770298
5	0xc2648a97	-57.13534
6	0xc2170225	-37.752094
7	0xc1c07de4	-24.06147
8	0xc23b9aff	-46.901363
9	0x4198d5e7	19.104445
10	0xc2204978	-40.071747
11	0xc25d7d46	-55.372337
12	0xc29d90bf	-78.78271
13	0xc27ebf55	-63.686848
14	0xc221786e	-40.367607
15	0xc227dfa5	-41.968403
16	0x41a5ceea	20.726032
17	0xc20fed25	-35.981586
18	0xc28a0ba4	-69.022736
19	0xc1e8ee95	-29.116495
20	0xc28539e8	-66.6131
21	0xc16ec888	-14.923958
22	0xbf808378	-1.0040121
23	0xc1011aae	-8.069014
24	0xc233cf53	-44.952465
25	0xc2043357	-33.050137
26	0xc23291ae	-44.642265
27	0xc2283b24	-42.057755
28	0xc2084e72	-34.076607
29	0xc210e008	-36.21878
30	0xc1bf36fd	-23.90185
31	0xc21f0e02	-39.76368
32	0x410ee1a1	8.930085
33	0xc1f14bbe	-30.161983
34	0x42117145	36.360615
35	0xc11f70e2	-9.965059
36	0xc2a3f47a	-81.97749
37	0xc2471db0	-49.77899
38	0xc28c46fe	-70.13866
39	0xc1a39027	-20.445387

batch4.running_var f4 [40]
0	0x4523eba4	2622.7275
1	0x44e32c76	1817.3894
2	0x4527de79	2685.9045
3	0x44804270	1026.0762
4	0x44a49457	1316.6356
5	0x44ae91db	1396.558
6	0x44a2b963	1301.7933
7	0x44952882	1193.2659
8	0x44aeab29	1397.3488
9	0x44c7f19e	1599.5505
10	0x454cdd0a	3277.815
11	0x44a668ce	1331.2751
12	0x450bb4c5	2235.298
13	0x4501cdf6	2076.8726
14	0x451b8b2b	2488.698
15	0x4562fb5d	3631.7102
16	0x44f018c2	1920.7737
17	0x44e82168	1857.044
18	0x451aaca2	2474.7896
19	0x44fa5fa5	2002.9889
20	0x45897b2f	4399.398
21	0x450a8f16	2216.9429
22	0x44d2f59a	1687.675
23	0x44b5d853	1454.7601
24	0x4569cd50	3740.832
25	0x44c39caa	1564.8958
26	0x44b1c192	1422.0491
27	0x44e2f1b2	1815.553
28	0x450751d7	2165.115
29	0x450b17e9	2225.4944
30	0x4578986e	3977.5269
31	0x44ee6e29	1907.4425
32	0x44dcff15	1767.9713
33	0x448b040c	1112.1265
34	0x44c7d756	1598.7292
35	0x44bda18b	1517.0482
36	0x4515a41c	2394.2568
37	0x44f216c4	1936.7114
38	0x45824e75	4169.807
39	0x4535c506	2908.314

conv5.weight f4 [40, 40, 3, 3]
0	0xbfc9c6d9	-1.5763808
1	0xbf300cf9	-0.68769795
2	0x3ff608cc	1.9221435
3	0xbe8a9793	-0.27068767
4	0xbf3b1120	-0.73073006
5	0xbe041a15	-0.12900575
6	0xbf6bdbad	-0.92132074
7	0xbf965679	-1.1745139
8	0xbf81c514	-1.0138268
9	0xbfe313da	-1.7740433
10	0xbe283419	-0.16426124
11	0xbf841626	-1.0319259
12	0xbfee072e	-1.8595941
13	0xbf6869fc	-0.9078672
14	0xbfbc91d6	-1.4732006
15	0xbf2af720	-0.6678333
16	0x3fd85f0d	1.6904007
17	0x3f98a0f8	1.1924124
18	0xc0034efa	-2.0516953
19	0xbf4863ef	-0.78277487
20	0x3f459e9d	0.7719515
21	0xbf640a96	-0.8907865
22	0x3d9adf48	0.07562119
23	0x3fa0af08	1.2553415
24	0xbf454fe9	-0.7707506
25	0x3fbd7236	1.480048
26	0x3fa108d6	1.2580822
27	0xc029c2ec	-2.652522
28	0xc00dca16	-2.2154593
29	0x3f43e4ed	0.7652119
30	0xbf08e33b	-0.53471726
31	0xbfa17c88	-1.2616129
32	0xbe8e299c	-0.2776612
33	0xbcde7f69	-0.027160363
34	0xbf84bc32	-1.0369933
35	0x3f9b93f5	1.2154528
36	0x3ebb4ff8	0.3658445
37	0x3f1beb8b	0.60906285
38	0xbe2ac1e4	-0.16675526
39	0xbfdfcffe	-1.7485349
40	0xbf301d30	-0.68794537
41	0xbfd3e3e9	-1.6553928
42	0xbf205e9c	-0.6264436
43	0xbe3c1673	-0.18367939
44	0xc00bbd6d	-2.1834366
45	0x3f194bcc	0.5988128
46	0x3f77c4e9	0.96784836
47	0x3fa717ce	1.305414
48	0xbdfc8c56	-0.123314545
49	0xbfc217a0	-1.516346
50	0xbfa02c75	-1.2513567
51	0x3c8cf6f7	0.017207606
52	0xbfb7ffe9	-1.4374973
53	0xc0053b05	-2.0817273
54	0x3f2a0441	0.6641274
55	0xbf2f52ec	-0.68485904
56	0xbf821b81	-1.0164644
57	0xbe25e567	-0.16200791
58	0xbfef63d5	-1.8702341
59	0xbf27a866	-0.6549133
60	0x3f66a2ce	0.9009217
61	0x3eae7d47	0.34079954
62	0x3ff06349	1.87803
63	0x3f5ce24d	0.8628281
64	0xbe97f549	-0.29679325
65	0x3e7b6eae	0.2455394
66	0x3e6cd121	0.23126651
67	0xc0131efd	-2.2987664
68	0xbfb86dd3	-1.4408516
69	0x3fa65ac0	1.2996445
70	0xbe0e0217	-0.13867985
71	0x3f19295c	0.59828734
72	0xbe84bcd1	-0.25925305
73	0xbe3bc12e	-0.18335411
74	0x3fbf9982	1.4968722
75	0xbf2ade12	-0.667451
76	0x3d905891	0.07048143
77	0xbea76eba	-0.32701665
78	0xbf0ab752	-0.54185975
79	0xbf9aba11	-1.2088033
80	0xbee7c7ec	-0.45269716
81	0x3f001cad	0.50043756
82	0xbfced14d	-1.6157624
83	0xc04fd7c3	-3.247544
84	0xbf88ca7a	-1.0686791
85	0xbe6e9f99	-0.23303069
86	0xbfc99634	-1.5748963
87	0xbf85a222	-1.0440104
88	0x3f80d542	1.0065081
89	0xbf0222d3	-0.5083439
90	0xbf9f4ef6	-1.2445972
91	0xbe98bc11	-0.29830983
92	0x3fed3c6f	1.8534068
93	0xbea65872	-0.32489353
94	0x3f4e2b21	0.8053456
95	0x3fcce15c	1.6006274
96	0x3e5b6e4d	0.21428795
97	0x4032e312	2.7951093
98	0x3fc791c2	1.5591357
99	0xc00eb4de	-2.2297893
100	0xbb794acf	-0.0038038974
101	0x3fb24541	1.3927385
102	0x3f06cf54	0.5266011
103	0x406ee26b	3.7325695
104	0x4013f9a1	2.3121111
105	0x3ffd046e	1.9766977
106	0x40a0a854	5.020548
107	0x3fd98ab8	1.6995459
108	0x3f5adb44	0.8549082
109	0xbf27fa2b	-0.656161
110	0xbfd9c762	-1.7013972
111	0x3fe8815b	1.8164476
112	0x3f40a8c3	0.7525751
113	0xbf68dbaa	-0.9096018
114	0x3f1d3c44	0.61420083
115	0x3fb76ac4	1.4329457
116	0xbf29242f	-0.66070837
117	0x3e6eaabb	0.23307316
118	0x3e181e1d	0.14855237
119	0x3f2d16dc	0.67613006
120	0xbf7df207	-0.9919743
121	0xbf992025	-1.1962935
122	0xbf31887f	-0.693489
123	0x3f8fae26	1.1225021
124	0x3efaeba5	0.49007908
125	0x3b8ed54e	0.004358924
126	0x3f514c79	0.81757313
127	0xbd40ac42	-0.047039278
128	0xbfe735c1	-1.8063279
129	0x3fbe0040	1.4843826
130	0xbf250cdd	-0.6447275
131	0xc0024cdd	-2.0359414
132	0x40026e83	2.037995
133	0x3e36dc47	0.17857467
134	0xbea21756	-0.3165843
135	0xbe573908	-0.2101785
136	0x3ef5e5cc	0.48026884
137	0xbf5aa950	-0.854146
138	0x3e27ef7b	0.16399948
139	0xbebede93	-0.37279186
140	0xbff14f91	-1.8852407
141	0xbf2b54d7	-0.6692633
142	0xbf404254	-0.7510121
143	0xc020c2d2	-2.511891
144	0x3f037c29	0.5136133
145	0xbf8e594e	-1.1121004
146	0xc0250e0a	-2.5789819
147	0xbee3fc56	-0.44528455
148	0xbf94c94b	-1.162393
149	0xbf6ef08e	-0.9333581
150	0x3fa1384a	1.2595303
151	0xbed58120	-0.41700077
152	0xbf1687b6	-0.5880083
153	0xbfca0d62	-1.5785334
154	0x3e860193	0.26173076
155	0x3fcc0be1	1.5941125
156	0xbfe3111d	-1.7739598
157	0x3ea3c94d	0.31989518
158	0x3f61132e	0.8791989
159	0x402ffee9	2.7499335
160	0x4038d2cc	2.887866
161	0x3f916e1a	1.1361725
162	0x3f046bd8	0.51727057
163	0xbe97163e	-0.29509157
164	0xc020132f	-2.5011709
165	0x3f8dd4a4	1.1080518
166	0x3eeeb195	0.4661986
167	0xbfb02246	-1.376046
168	0x3f169f6b	0.58837
169	0x3fb4d681	1.4127961
170	0xbe1aa119	-0.15100516
171	0x3e9ce8e4	0.3064643
172	0x3f9b287a	1.2121727
173	0xbf6164e8	-0.88044596
174	0x3f843b2f	1.0330561
175	0x3e4dc9f5	0.20096572
176	0x3e9e54c3	0.30924043
177	0x3f8eaa2b	1.1145681
178	0xc034ef70	-2.827114
179	0xbe955bee	-0.291717
180	0x3fce299e	1.610645
181	0x3f58f0c3	0.84742373
182	0xbf0440d3	-0.51661414
183	0x3f578b5d	0.84197026
184	0x3f31bfd5	0.6943334
185	0xbff15054	-1.8852639
186	0xbdd2f836	-0.10301249
187	0xbba2f1c6	-0.0049726693
188	0xc037b056	-2.8701377
189	0xbe0990c8	-0.13434136
190	0xbff4bb40	-1.9119644
191	0xbfbed45a	-1.4908555
192	0x3f173c38	0.5907626
193	0xbfcbad51	-1.5912267
194	0x3f15c804	0.58508325
195	0xbdf65d27	-0.12029486
196	0xbfbb3aea	-1.4627354
197	0xbe80e70c	-0.25176275
198	0xbf89e1c1	-1.077202
199	0xbfea3b3d	-1.8299328
200	0xbfbeae5b	-1.4896959
201	0x4007277d	2.1117852
202	0xbf584f46	-0.8449596
203	0xbe70a344	-0.23499781
204	0x3fa5ed0b	1.2962965
205	0x3de98ac7	0.11403423
206	0xbfdffeff	-1.7499694
207	0x3f90dcd2	1.1317389
208	0xbfb17812	-1.3864768
209	0xbf936832	-1.1516173
210	0x3ff80712	1.9377158
211	0x3f5cc57b	0.8623883
212	0xbf3188ce	-0.6934937
213	0x3fa6c90d	1.3030106
214	0xbe538c0f	-0.20658897
215	0xbf9ba318	-1.2159147
216	0x3e8cfd3d	0.27536955
217	0x3fba391e	1.4548681
218	0x3fe45da7	1.784108
219	0x3f8f727c	1.1206813
220	0x3f86ec98	1.0540953
221	0x3ea40503	0.32035074
222	0xbf0e5676	-0.5560068
223	0x3e261f06	0.16222772
224	0xbf127e36	-0.5722383
225	0xbff67dad	-1.9257103
226	0x3f1c146a	0.6096865
227	0xbd5739ac	-0.052545235
228	0xbfcbb3e0	-1.5914268
229	0x3db7ddca	0.0897785
230	0xbf04910e	-0.51783836
231	0xbfa76988	-1.307908
232	0xbfb63554	-1.4235024
233	0xbfc0f4b8	-1.5074682
234	0xbf2ac586	-0.66707647
235	0xbfeb914a	-1.8403714
236	0xc0132041	-2.2988436
237	0x3fb1e159	1.3896896
238	0xbe897b8c	-0.2685207
239	0x3f3410d2	0.70338166
240	0x3ffad1da	1.9595292
241	0x3f024712	0.50889695
242	0x3f472ca5	0.778025
243	0xbd4c16e6	-0.049826525
244	0x3fcf53f4	1.6197495
245	0xbee1a1d6	-0.44068784
246	0x3d645c6b	0.0557522
247	0x40054d00	2.0828247
248	0xbea1c109	-0.31592587
249	0x3f506f3e	0.8141974
250	0x4025050a	2.5784326
251	0xbf94112e	-1.1567743
252	0xbf1777eb	-0.59167355
253	0x3ec4e025	0.3845226
254	0x3ea6d142	0.32581526
255	0xc03a00aa	-2.9062905

conv5.bias f4 [40]
0	0x3d5fb743	0.05461813
1	0x3cbcdaf9	0.023053633
2	0x3d86be28	0.06579238
3	0x3b03b476	0.0020096577
4	0xbcad7895	-0.021175662
5	0xbcd119f0	-0.025525063
6	0x3d571aad	0.052515674
7	0xbda5ea50	-0.08101332
8	0xbd2ef3bd	-0.042712916
9	0x3d3f04ff	0.046635624
10	0xbdb79349	-0.08963639
11	0x3cde0572	0.027102206
12	0x3db05cdc	0.086114615
13	0xbc3aeffd	-0.011409757
14	0x3de5abf5	0.11214439
15	0x3cb44b40	0.022008538
16	0xbd2a13f0	-0.04152292
17	0x3c691f88	0.014228709
18	0xbd8648aa	-0.06556828
19	0xbcb540bf	-0.0221256
20	0xbe20086a	-0.1562821
21	0xbb9c3835	-0.0047674426
22	0xbde68a34	-0.11256829
23	0xbc0fac0c	-0.0087690465
24	0x3db7b938	0.089708745
25	0x3d59f22b	0.053209465
26	0xbde4e3cd	-0.11176262
27	0x3d3682bd	0.044558275
28	0x3e54ccab	0.207812
29	0x3ca52553	0.0201594
30	0xbcbb3916	-0.02285437
31	0xbc92f74e	-0.01794019
32	0xbdb4e97b	-0.08833595
33	0x3da0c93c	0.078508824
34	0xbd83ed35	-0.06441728
35	0x3d9c19e2	0.07622124
36	0x3ce002f9	0.027345167
37	0xbdc904c0	-0.09815359
38	0x3d839626	0.06425123
39	0x3db8d6e0	0.09025359

batch5.weight f4 [40]
0	0x3ff47909	1.9099437
1	0x3fa95cb9	1.3231422
2	0x3f63e7b7	0.89025444
3	0x3f60ccb1	0.87812334
4	0x4033717f	2.8038023
5	0x3f95ec16	1.1712673
6	0x402fd8aa	2.7475991
7	0x4009e22a	2.154429
8	0x3fc194af	1.51235
9	0x40169ee0	2.353447
10	0x3fc17f08	1.5116892
11	0x3f8422c8	1.0323114
12	0x40180a91	2.375645
13	0x3feab067	1.8335084
14	0x3fa5c307	1.2950143
15	0x3fc4cfa6	1.5375869
16	0x3fe38e8b	1.7777876
17	0x3f843c3c	1.0330882
18	0x4039abbd	2.901107
19	0x401757f8	2.3647442
20	0x400d4c10	2.2077675
21	0x4001c9e6	2.027948
22	0x40307d52	2.757649
23	0x3fd4abb8	1.6614904
24	0x3fc06ae7	1.5032624
25	0x3fec7d0f	1.8475665
26	0x4025f409	2.5930197
27	0x3fb18138	1.386756
28	0x3fdd877d	1.7306973
29	0x401ab9e0	2.417595
30	0x3f9ef241	1.241768
31	0x40233011	2.5498087
32	0x3fffedd1	1.9994451
33	0x4004beba	2.074141
34	0x3fd52f41	1.6655046
35	0x3f9db04a	1.2319424
36	0x3fedfd12	1.8592856
37	0x3fecd5c6	1.8502738
38	0x3fdc71a5	1.7222182
39	0x3fbd3213	1.4780906

batch5.bias f4 [40]
0	0xbf33aaf4	-0.7018273
1	0xbfb87d2b	-1.4413198
2	0xbf332a42	-0.69986355
3	0xbf699e47	-0.9125714
4	0xbf7f6422	-0.99762166
5	0xbfa3828e	-1.2774217
6	0xbee225ee	-0.44169563
7	0xbfa8c4e7	-1.318509
8	0xbeb1bbb9	-0.34713534
9	0xbf0a5041	-0.5402871
10	0xbf6cd320	-0.9250965
11	0xbf5b08b9	-0.85560185
12	0xbf68050a	-0.9063269
13	0xbf39709f	-0.7243747
14	0xbf95329c	-1.165607
15	0xbfa972eb	-1.3238195
16	0xbf238269	-0.63870865
17	0xbf3e0d73	-0.7423927
18	0xbf8210be	-1.0161359
19	0x3daf603e	0.085632786
20	0xbf65c7c5	-0.8975795
21	0xbfa09cdb	-1.2547868
22	0xbfa66026	-1.2998092
23	0xbd88e2a9	-0.06683857
24	0xbf08be51	-0.534154
25	0xbf0a4fdc	-0.54028106
26	0x3eda7ea5	0.42674747
27	0xbf992b62	-1.1966364
28	0xbfe9ed0b	-1.8275465
29	0xbf67f22b	-0.90603894
30	0xbdd82a45	-0.10554937
31	0xbf871b33	-1.0555176
32	0xbf61b834	-0.88171697
33	0xbf9e9f2e	-1.2392328
34	0xbe5abdd0	-0.2136147
35	0xbf424d4e	-0.7589921
36	0xbda925b3	-0.08259144
37	0xbf6c8870	-0.9239569
38	0xbec9b6a4	-0.39397156
39	0xbfad884c	-1.355722

batch5.running_mean f4 [40]
0	0xc1b0fd02	-22.123539
1	0xc2209a65	-40.150776
2	0x414e4074	12.890736
3	0xc08a074f	-4.313392
4	0xc2324024	-44.562637
5	0xc21da0f8	-39.407196
6	0xc2406483	-48.098156
7	0xc13b3542	-11.700502
8	0xc28d89d9	-70.76923
9	0xc1a92b91	-21.146273
10	0xc209a103	-34.407238
11	0x414f27f0	12.94725
12	0xc280919b	-64.284386
13	0xc239eaa2	-46.479134
14	0x4216685c	37.601913
15	0xc1c0cb65	-24.099314
16	0xc2243b6f	-41.05804
17	0x41614e17	14.081565
18	0xc25e3bc8	-55.55838
19	0xc1da2061	-27.26581
20	0xc1fd700c	-31.67971
21	0xc1740180	-15.250366
22	0xc2373566	-45.802147
23	0xc27b314c	-62.79814
24	0xc24468a9	-49.102207
25	0xc22a26c2	-42.53785
26	0xc2a51f4b	-82.56112
27	0xc23feb1b	-47.979595
28	0x424a284e	50.53936
29	0xc2182b84	-38.042496
30	0xc1df12eb	-27.884237
31	0xc21edb32	-39.714058
32	0xc2150a75	-37.260212
33	0xbfdf0788	-1.7424173
34	0xc19833ae	-19.025234
35	0xc155f737	-13.372855
36	0xc0368f84	-2.8525095
37	0xc20f335d	-35.80016
38	0xc1b95da9	-23.170732
39	0xc1ff7473	-31.93186

batch5.running_var f4 [40]
0	0x44d29102	1684.5315
1	0x4484926e	1060.5759
2	0x450d243b	2258.2644
3	0x44b22dc6	1425.4304
4	0x44c0647b	1539.14
5	0x44dc140f	1760.6268
6	0x447e52fe	1017.29675
7	0x44b24e24	1426.4419
8	0x4508a05e	2186.023
9	0x44e67238	1843.5693
10	0x44e24bd4	1810.3696
11	0x45191f32	2449.9497
12	0x44dd033b	1768.101
13	0x4502c505	2092.3137
14	0x44e5f07c	1839.5151
15	0x4498b4af	1221.6464
16	0x44e0f3ab	1799.6146
17	0x44fa7658	2003.6982
18	0x44f17b7e	1931.8591
19	0x44eb9d91	1884.924
20	0x4489146b	1096.6381
21	0x44eb7e10	1883.9395
22	0x44ae4a59	1394.3234
23	0x44f59db6	1964.9285
24	0x44e7db5e	1854.8552
25	0x44ad6faa	1387.4895
26	0x44f47a44	1955.8208
27	0x44aecba4	1398.3638
28	0x446ee26d	955.5379
29	0x449e00bd	1264.0231
30	0x44d8e148	1735.04
31	0x45069248	2153.1426
32	0x44dc48b3	1762.2719
33	0x44c1ef3c	1551.4761
34	0x4522ffdf	2607.992
35	0x44dd16ac	1768.7085
36	0x450bce0d	2236.8782
37	0x44b4c4ef	1446.1542
38	0x44cbd192	1630.5491
39	0x44a01699	1280.7062
