cnn/3_resnet.pth (torch, 766425 bytes, 97 tensors)

conv1.weight f4 [16, 1, 5, 5]
00000000: bc88 be3d 352c d73e fc2c cfbe 4797 083f
00000010: 1d1e 9ebe 80bc c2be e334 3c3e 9cf8 ad3e
00000020: a303 1040 3062 753f d6ec 03bf 312e 383f
00000030: efe9 913e a060 9f40 6841 f13e ad75 7bbf
00000040: 2655 bb3d 41fd c23e 475a c540 863e debf
00000050: 1526 9abe cce3 0b3f d87a a73f c89f c7be
00000060: dab5 a2bf 084e 933f a162 bd3f 9e64 213d
00000070: 5ded 193e b1b4 5cbf 96e6 0b3f 5daf 0340
00000080: 6595 8e3d c62c b7bd 2098 1ebf c736 65c0
00000090: cf6d 0bc0 76db 333f dcd5 0c40 1dad 9a3e
000000a0: 236f 20be 768b 03c0 efc3 873e 6bd4 8e3f
000000b0: 2ff2 f33e f2e0 373f df85 7ebd ed29 1e3f
000000c0: c072 08bf 7a55 323e 2f22 113f 77fe 9d3f
000000d0: 6f45 c0be 645c 60bf e38c 36bf 8a82 6ebe
000000e0: 10ae 2bbf 8175 b0be 9701 b93e 4630 7f3f
000000f0: c761 b23e 2764 07c0 da4e a2c0 e478 fabf
00000100: 8e24 1c3f 2df1 803e 24a0 16c0 3c7b 01c1
00000110: 3768 83c0 adbf cebe 66f9 3bbf f016 963e
00000120: 0243 ba3e 9e76 e43e 06cd 08be 1829 d03b
00000130: a644 7bbe a9c2 be3f e7fc f9be c8e5 633d
00000140: b99d 97bf 96e9 3cbf 71a7 5740 d5ec bbbf
00000150: 7b3c 3b3e d474 8fbf 0a64 b0bc f20d 2a40
00000160: b48c 73bf 23d1 f7bd 4834 50bf 97b4 813b
00000170: 41b1 953f 3cca d7bf 63a4 ee3f 4829 073a
00000180: 9727 1fbd 9f0b b03f e843 d4bf 4733 5a3f
00000190: 7914 cabe 23ce 42bd 445c ab3d a567 aebb
000001a0: 9eb2 f03e 14aa 83bf 5626 92bd 7106 073f
000001b0: f6ab 473f fc7c c53f c357 ddbe e455 d53e
000001c0: b050 863f 213e 0b3f f4f8 5e3f a8be e2bd
000001d0: 078b 403e e001 623e d24a 6f3f e7d0 eb3e
000001e0: 1d02 1ebb 674b 333f 4451 c03e 09e5 903f
000001f0: 2741 e13e e17f 37bf 165e e43c 5a17 b33e
00000200: db91 0b40 8dbe 4abf 424c 19bf f9f8 bebe
00000210: 4bce 413f 6e55 fe3f b11e cabf b486 9c3f
00000220: 5c80 913f 34de 0f3f 4f09 b7be 7ce9 16c0
00000230: 22cc 26bf ca42 1abf d279 843f 9005 a4bf
00000240: 97ee d9bf ae90 103c 775b 8cbf 332c 623f
00000250: 7b87 8bbf 3fc4 25c0 b3a4 bcbf c86d b7be
00000260: a82d 08bf 9016 123f 7c10 2fbe 7a4d 033f
00000270: 3e18 833f 5199 023f 0c21 b73d ed66 20bd
00000280: cfe2 9e3f 0404 533f d37b 08bf b980 b7bf
00000290: 177a a13e fe19 593f a04b c83e f7ad c1bf
000002a0: 8069 6ec0 7605 ec3e 49ef 95bf 8954 73bf
000002b0: 1268 e6bf 5068 5ac0 4e08 82c0 07a2 05bf
000002c0: d377 9e3f f92d 843e f2aa 103f c784 ea3d
000002d0: 9380 853f 5815 6c3f d6a6 91be 6e0c 30bf
000002e0: ef32 d4be 64d8 acbe ccdf 3d3e a6f4 87bf
000002f0: ae2b febf b302 873c 8246 693f 3e9b dbbf
00000300: dbcf adc0 0221 afc0 7c94 0ebf 65e4 09bd
00000310: 62c6 cabf 80fe 72c0 85d2 4dc0 4fbf 4dbf
00000320: 46e8 f5bf 1603 e1bf 1a57 34bf c0cb f8bd
00000330: 4c1e 8dbe ec29 72bf 2318 4cbe 2a28 07bf
00000340: 6a01 353f 9199 b53d 1644 0c3f e7f4 8b3f
00000350: c3b4 423e af8a 06be a10a 113f 75f5 853e
00000360: 09d1 13bf d649 96bf 14d4 ab3f 8280 1e3f
00000370: b660 1540 cad8 4f40 a4e1 f53f 70bb 0a40
00000380: 094e cabe f787 03bf 5495 34be af06 0e3f
00000390: 5241 63bf 0cbb 543e a499 d5be 1059 5a3f
000003a0: 8812 d83e a422 28bf 04d5 153e 62f1 0c3f
000003b0: 80c0 c2bf d2a9 913f 1bf2 863e a2be c6be
000003c0: c59b d43e 891e 68c0 7c58 0a40 a250 d43f
000003d0: 2b86 04bf 3ba3 67be 207c 1ac0 a5b5 c43f
000003e0: a37c 113f 587f 413e 1279 ffbb 56ce 75be
000003f0: c6a9 5abe 5240 e3bf 66a3 c2bf 2764 88be
0.09303424 0.42025915 -0.40464008 0.5335583 -0.3088235 -0.3803444 0.1837955 0.33978736
2.250222 0.9585295 -0.5153326 0.7194548 0.2849879 4.980545 0.47120214 -0.98226434
0.091471 0.38083842 6.16727 -1.7362831 -0.3010718 0.54644465 1.3084364 -0.3898909
-1.2711747 1.1508188 1.4795724 0.039402597 0.15031953 -0.86213213 0.5464872 2.0575783
0.069620885 -0.08944087 -0.61950874 -3.5814683 -2.1785772 0.70256746 2.200553 0.302102
-0.15667395 -2.055387 0.26516673 1.1158575 0.4764571 0.71827614 -0.06213939 0.61782724
-0.53300095 0.17415419 0.56692785 1.2343282 -0.37552974 -0.87640977 -0.71308726 -0.23291984
-0.67062473 -0.34464648 0.36134025 0.99683034 0.34840223 -2.1154878 -5.0721254 -1.9568143
0.6099328 0.25184003 -2.3535242 -8.0925865 -4.1064715 -0.40380612 -0.73427427 0.29314375
0.36379248 0.44621748 -0.1335946 0.006352555 -0.24537906 1.4903156 -0.48825762 0.05563906
-1.1845008 -0.73793924 3.3695948 -1.468165 0.1828479 -1.1207528 -0.021532077 2.6571012
-0.9513657 -0.121004365 -0.81329775 0.0039582956 1.1694719 -1.6858592 1.8643917 0.00051559927
-0.038856115 1.3753546 -1.6583223 0.85234493 -0.39468744 -0.04755987 0.08367208 -0.005322414
0.47011274 -1.0286279 -0.07136218 0.52744204 0.77996767 1.5428767 -0.4323102 0.41667092
1.0493374 0.54391676 0.8709862 -0.11071521 0.18803035 0.22071028 0.9347354 0.46057817
-0.0024110146 0.7003693 0.37562 1.1319896 0.4399502 -0.716795 0.027876895 0.34978753
2.1807773 -0.7919701 -0.59881985 -0.37299326 0.75705403 1.9869821 -1.5790616 1.2228608
1.1367297 0.5619843 -0.3574929 -2.3580008 -0.6515523 -0.6025816 1.0349677 -1.2814198
-1.7025937 0.008823557 -1.0965413 0.8834869 -1.090072 -2.590103 -1.4737762 -0.35825944
-0.53194666 0.5706568 -0.17096132 0.51290095 1.0241773 0.5101519 0.0894185 -0.039160658
1.2412966 0.82428 -0.5331394 -1.4336158 0.3153846 0.84805286 0.39120197 -1.5131215
-3.7251892 0.46097916 -1.1713649 -0.95050865 -1.800051 -3.4126167 -4.0635138 -0.5220036
1.2380317 0.25816324 0.5651084 0.114511065 1.0429863 0.9222007 -0.28447598 -0.68768966
-0.4144511 -0.33758843 0.18542403 -1.0621536 -1.985708 0.01648078 0.9112321 -1.7156751
-5.431623 -5.4727793 -0.5569532 -0.03366508 -1.5841792 -3.7967834 -3.215974 -0.8037004
-1.9211509 -1.7579067 -0.70445406 -0.12148237 -0.27562177 -0.9459522 -0.19931082 -0.5279566
0.7070528 0.08867181 0.5479139 1.0934113 0.19014268 -0.13138841 0.56656843 0.2616383
-0.5774084 -1.1741283 1.3424096 0.6191484 2.3340278 3.2476068 1.9209485 2.1676903
-0.3951266 -0.5137934 -0.17635089 0.5547895 -0.88771546 0.20774478 -0.4171878 0.8529215
0.42201638 -0.6567786 0.1463204 0.5505582 -1.5214996 1.137995 0.26356587 -0.38817316
0.41525093 -3.6268637 2.1616507 1.6587107 -0.51767224 -0.22620861 -2.413826 1.5367934
0.56830806 0.18896234 -0.007796415 -0.24004492 -0.21353826 -1.7754004 -1.5206115 -0.2663891

bn1.weight f4 [16]
00000000: b08c da3f 7992 7a3f b246 1f40 70c9 803f
00000010: 1be6 cb3e b173 783f edd7 883f e15d 1440
00000020: 32f4 623f cdcc a13f 95be 123f 752b 9c3f
00000030: 7714 923f 721d 0c40 5467 1540 4bec 833f
1.7074184 0.9787975 2.48869 1.0061474 0.39823994 0.9705153 1.0690895 2.31823
0.8865386 1.2640625 0.57322055 1.2200762 1.1412495 2.1892972 2.3344316 1.0306486

bn1.bias f4 [16]
00000000: 406f e6bf 9abd ac3d 9ed0 a5bf 7efe 2f3f
00000010: 3d6a afbf dbac 8dbf ce99 10bf f0bc c0bf
00000020: ebea c03e aa7d 3e3f 12a4 f4bc 3037 bcbd
00000030: c151 113f 74e3 31bf 14ea cabf 40e6 8c3e
-1.8002701 0.08434601 -1.295429 0.687477 -1.3704296 -1.1068376 -0.5648469 -1.5057659
0.37679228 0.744105 -0.029863391 -0.09190214 0.5676537 -0.6948769 -1.5852685 0.27519417

bn1.running_mean f4 [16]
00000000: b78e a5c0 23f9 22bf 5a13 0d41 c30f 9dbf
00000010: ab38 46c0 fc30 b13f c8d8 9640 287d 0441
00000020: cc1c 09c0 2c7a 91bb aab1 7940 625e 1dbf
00000030: 8e1d 19bf b16f 7f40 c201 fd40 8497 123f
-5.1736712 -0.636614 8.8172245 -1.2270435 -3.0972087 1.3843074 4.7139626 8.280556
-2.1423826 -0.004439613 3.9014688 -0.6147214 -0.5981072 3.991192 7.9064646 0.57262444

bn1.running_var f4 [16]
00000000: 8ffc ac42 4237 d940 33d9 5643 3ba6 4341
00000010: 331b f241 f82c a941 a071 a342 410b 5843
00000020: ca17 e241 0b72 f540 595c 3042 032c 9841
00000030: aa14 2641 4103 7442 ffa3 3743 45eb 3941
86.49328 6.7879953 214.84843 12.228084 30.26328 21.146957 81.721924 216.04396
28.261616 7.6701713 44.090183 19.02149 10.380045 61.003178 183.64061 11.619939

group1.group.0.conv1.weight f4 [16, 16, 3, 3]
00000000: dbe8 2740 7027 1ebe f29a 1bbf 903c 6240
00000010: cab9 2bbe f696 b3bf f381 2740 a249 1fbf
00000020: ff26 80bf 5712 1640 f5da 10c0 4ad8 f2bf
00000030: 1132 06bf 6ce6 dbbf 95ec 11c0 21e7 17bf
00000040: 45a7 f83f 16d1 ea3f 161c b8bf 116d 48c0
00000050: 81eb 85bf 5077 4cbe 2d76 adbe 302a 243f
00000060: b88e 1a40 4541 d23f 2cc4 55be 5a8f 4f3f
00000070: a3ab 653f fb14 a73f 0d64 ad3f ad50 aebd
00000080: ae42 af3e 41f8 cf3e d032 dc3c 40d0 313e
00000090: 1d73 413e 2e7e a3be 5a3f a3be bc2e a6bd
000000a0: e5a9 5bbf 0dec fdbe 8fa3 753d 4756 a4bf
000000b0: f84a 22bf ec92 62be ad66 103f 07da 2740
000000c0: bd80 0d3e c844 38bf 7a83 72be 5d28 bc3f
000000d0: 78f0 e3bf c7bb 09c0 3da8 cdbf 8a29 0ebf
000000e0: 78fd 203f 7742 943f 6b70 4f3f 78a9 863e
000000f0: 05f8 2440 2f8f 893e bf38 b2bf 0a31 ddbf
00000100: b99f b9bf d9d0 b13e 0622 883e 8529 923f
00000110: d66b 9abe deb6 2440 f483 f83f 5d34 dfbf
00000120: f4aa 5940 d272 973e 8f62 c9bc 8e3a 1d40
00000130: fd3b 67bf 3b2b 4cbf 9d90 a8bf 8482 4dc0
00000140: aef7 17bf f88f 383e d664 a6bf 4847 dfbf
00000150: 29c7 69bf c1b1 033f 2fc2 b5be d21f a2bf
00000160: cc87 1e40 8718 953f 5d21 8ebf 50c8 8e3e
00000170: 4ba8 60bf f1e8 42bf 0adb a03f 9235 abbe
00000180: c3f9 9fbf 7062 363f 3411 6e3f a89f 17bf
00000190: 8941 bdbe 97cc be3f 0b63 f8bf 7498 1abf
000001a0: 12c4 b2be aed4 1d3f 1b03 413f 20ce 85bf
000001b0: 5054 15bf c8d4 a8bb af10 24bf 9069 08bf
000001c0: 3eef 733e 7631 e3bd f2b9 4dbf b47f 4a3c
000001d0: 97a8 db3f 45f3 0dbf b72b a9bf 6497 2abf
000001e0: c7cc fcbf 6096 abbf d17b cd3e 0f0e dc3f
000001f0: a2bf 063e d35f d1bf c89f e33f 7e62 63c0
00000200: 9fa6 35bf d1f6 87bf d804 5cc0 3317 8f3f
00000210: 1225 afbc cef4 cc3f 7ed3 1a40 8ac1 9abf
00000220: 494a 543e ba6a a1bd c3e7 82be 2b27 3d3f
00000230: 0fb5 39bf c024 c23f 71b2 e43f 2d42 5fbf
00000240: 89f0 80c0 8391 afbe f74c 39bf 8d17 46c0
00000250: 3f21 443e b198 7a3f c734 efbf f212 073e
00000260: 3dfe a73f 7ddb e5bf eac9 43be 36d1 6abe
00000270: 9001 80bf e102 2ac0 b0bf 0ebf d467 90bf
00000280: 6d63 f43e e5fe a33f 2470 cb3c cf4e c9bf
00000290: 41d1 abbf 87bf 84bf 750f 13c0 f42c 0cbf
000002a0: 01e3 bf3e d66f 59bf 82f4 a3bf d8dc 343f
000002b0: 6793 2c3c 1df2 853f 77df a03f 148d 04bf
000002c0: 5e90 513f 6d08 e33e 413a 43c0 ece7 b4bb
000002d0: ea1c 8fbf 390c 22be 0e50 2abf 97ee f4be
000002e0: 7bc9 743e cf74 02bc 0a0d 3dbf 7ec3 043f
000002f0: 166f b33e b772 233e 6479 67bf edab e8bf
00000300: c0f0 3c3f 8570 6e3e 85fe 0bbf 7383 7d3e
00000310: 56d0 34bf 750a b3be 2fe3 93bf fd76 b6bf
00000320: b4c5 1abf 973e 69bf 08a0 82bf ef52 163f
00000330: c84a 663d 949a c0bf 2cf4 3cbf a013 823e
00000340: fe92 c3bf 1574 adbe 321c 26bf be44 8bbf
00000350: 6eca 993f 0942 3e3f 0f42 8abe 5e01 dfbe
00000360: 1f5e b6bf 33d9 1bbe f8ef 183f 0f4f 6c3f
00000370: 6a6f 1d40 a830 9a3f 5105 63c0 4029 dcbf
00000380: 7b3d a8bf 1b44 7bbd dfb7 503f 2478 b43f
00000390: 54ff 383f 5ff5 45bf 0721 85be aed7 7b3f
000003a0: 7ea1 e8bd 9fac 15be 63ab babe 577a 82bf
000003b0: 75e2 2e3e 18af e7bd a3c1 8abf b57b dbbd
000003c0: 9563 db3e 966d 9c3e 0e64 133f 6ee8 05c0
000003d0: 349d bdbc 1326 f7bd 091a 32c0 aedc bfbf
000003e0: 5636 ce3e ab01 8dbf 8901 f33e 4564 933f
000003f0: 73c2 e8bc 418c ea3f 8b12 af3f e9df aa3e
2.6235874 -0.15444732 -0.607833 3.5349464 -0.16770092 -1.4030445 2.6173065 -0.6222173
-1.0011901 2.3448694 -2.263364 -1.8972256 -0.52420145 -1.7179694 -2.2800648 -0.5933705
1.9426047 1.8345058 -1.4383571 -3.131657 -1.0462495 -0.19967389 -0.33879223 0.64126873
2.4149609 1.6426169 -0.20875615 0.8107811 0.8971502 1.3053278 1.3546158 -0.085114814
0.3423056 0.4061909 0.026879698 0.17364597 0.18891568 -0.31932205 -0.3188427 -0.081143826
-0.85806113 -0.49594155 0.059970435 -1.283883 -0.63395643 -0.22126359 0.5640667 2.6226823
0.13818641 -0.7197995 -0.23682967 1.4699818 -1.780776 -2.152086 -1.6066967 -0.55532134
0.6288676 1.1582783 0.8103091 0.2630117 2.577638 0.26867053 -1.3923568 -1.728059
-1.4501868 0.3472965 0.26588458 1.1418921 -0.30160397 2.5736613 1.9415269 -1.7437855
3.4010592 0.29579788 -0.02458313 2.456699 -0.9032591 -0.79753464 -1.3169132 -3.211091
-0.59362304 0.1802367 -1.2999523 -1.7443628 -0.9131952 0.51443106 -0.35499713 -1.2665961
2.4770384 1.164811 -1.1103932 0.278872 -0.87756795 -0.7613669 1.2566845 -0.33439308
-1.2498096 0.71243954 0.92995 -0.5922799 -0.36964062 1.4906186 -1.9405226 -0.60388875
-0.34915215 0.6165265 0.75395364 -1.0453529 -0.58331776 -0.0051523186 -0.6408796 -0.53286076
0.23821732 -0.11093418 -0.80361855 0.012359548 1.7160825 -0.55449325 -1.3216466 -0.66637254
-1.9749993 -1.3405266 0.40133527 1.719179 0.1315904 -1.6357368 1.7783136 -3.5528865
-0.7095737 -1.0622197 -3.4377956 1.1178955 -0.021379981 1.6012208 2.4191585 -1.2090313
0.20731463 -0.078816846 -0.25567445 0.7388789 -0.725419 1.5167465 1.7866956 -0.8721035
-4.029362 -0.34290704 -0.72383064 -3.0951874 0.19153307 0.9788924 -1.8687981 0.13190821
1.3124462 -1.7957608 -0.19119993 -0.2293137 -1.0000477 -2.6564257 -0.5576124 -1.1281686
0.47732106 1.2812163 0.024833746 -1.5727175 -1.3423234 -1.037095 -2.2978184 -0.54756093
0.37477878 -0.84936273 -1.2808993 0.7064948 0.01053319 1.0464512 1.2568196 -0.5177777
0.8186091 0.44342366 -3.0504305 -0.0055208113 -1.1180699 -0.15824975 -0.66528404 -0.4783828
0.23904984 -0.00796242 -0.7384802 0.518608 0.3504569 0.15961729 -0.904196 -1.8177468
0.73804855 0.2328511 -0.5468524 0.24757175 -0.70630395 -0.34968916 -1.1553706 -1.4255062
-0.6045792 -0.9111113 -1.0205088 0.58720297 0.05622366 -1.5047174 -0.73810077 0.25405598
-1.5279233 -0.33877626 -0.6488677 -1.0880353 1.2014902 0.7431951 -0.27003524 -0.4355573
-1.4247473 -0.15219574 0.59741163 0.92308134 2.4599252 1.2046099 -3.5471995 -1.7200089
-1.3143762 -0.061344247 0.81530565 1.4099164 0.722646 -0.7732753 -0.2600176 0.98375976
-0.11358927 -0.14616631 -0.36458883 -1.0193585 0.17078574 -0.11312693 -1.0840343 -0.107169546
0.42849413 0.30552357 0.57574546 -2.0923114 -0.02314625 -0.12067809 -2.782839 -1.4989221
0.4027583 -1.1016134 0.4746211 1.1514975 -0.028413033 1.8324052 1.3677534 0.33373955

group1.group.0.batch1.weight f4 [16]
00000000: 422a fc3f 05b7 0a40 5f4c 4740 b7ea c13f
00000010: 88f2 ec3f 8032 2140 cd39 8f40 46d0 f53f
00000020: d368 893f aadc 0e40 92fd ce3f b17a a93f
00000030: 29a4 ba3f 65e4 0640 ddc9 aa3e 236d ac3f
1.9700396 2.1674206 3.1140363 1.5149754 1.8511515 2.5187073 4.4758058 1.9204185
1.0735115 2.2322183 1.6171134 1.3240567 1.4581348 2.10769 0.33357134 1.3470806

group1.group.0.batch1.bias f4 [16]
00000000: 7e88 fd3e bf2d 4bbf de6a 03bf 1309 21bf
00000010: 7707 b93d a079 b8bd 9374 a4bf b790 93be
00000020: 8873 97be 4263 b1be 9778 8bbf bd49 5dbf
00000030: 3946 b0bd 4d82 db3e cd1a 4fbe 9f41 6b3d
0.49518198 -0.7936668 -0.5133494 -0.6290447 0.09034627 -0.09007573 -1.2848076 -0.28821346
-0.2958033 -0.3464604 -1.0896176 -0.8644064 -0.08607144 0.4287285 -0.20225067 0.057435628

group1.group.0.batch1.running_mean f4 [16]
00000000: b04d 76c0 5c08 dcc1 7db2 9dc1 75c3 7941
00000010: 971a 4840 07f8 51c1 1841 2bc2 b9a3 1842
00000020: cc90 b441 8e2d cdc1 bdee e4c1 5e96 a241
00000030: 3ca8 1ac2 f9fb 63c1 f382 cac1 e607 87bf
-3.8484917 -27.504082 -19.712152 15.610219 3.126623 -13.123054 -42.81357 38.159885
22.570702 -25.647243 -28.616571 20.323421 -38.66429 -14.249017 -25.31394 -1.0549285

group1.group.0.batch1.running_var f4 [16]
00000000: de71 5943 d0fb b743 294f 1544 d6c3 4744
00000010: 3035 ff43 ca52 3144 ddd7 6344 db3a 3a44
00000020: 7780 8444 44dd 6d44 3f08 2d44 a2f8 ca43
00000030: de57 5544 7761 9143 6414 e643 2b1d ba43
217.4448 367.9673 597.2369 799.05994 510.41553 709.2936 911.37286 744.9196
1060.0145 951.4573 692.12885 405.94244 853.3729 290.76144 460.1593 372.22787

group1.group.0.conv2.weight f4 [16, 16, 3, 3]
00000000: f35b 003f 001d 2e3d 1506 f33e 2bab 13be
00000010: b0e2 9bbe fe3d 7fbe bf0b 4abf 4b24 48bf
00000020: e599 423f ee55 3b3f 5970 203f 6457 983e
00000030: 0bcb b9bf d261 b1bf 62d5 123f 9694 41bf
00000040: b178 47c0 5c1c fdbf 822f 95bf 3c2f 92be
00000050: 0b21 233f 5647 b2bf 4cc4 bd3e a560 3940
00000060: 44a7 dcbf 7824 c3bf 5be5 b93e efd8 4840
00000070: d745 783f 55fe 43bf 494a a13f 7f2f a83f
00000080: ec3c 8b3e 18c3 2dbe aca0 e6be 4a69 87bf
00000090: a1e3 813e 1df2 22be 861a 3ebf 585e 7a3f
000000a0: 2afd f43e 8a4a 2abf b676 89bf fdff 3ebf
000000b0: e972 42bf 6c8c 81bd 3f67 1540 b0e3 7dbd
000000c0: d312 aa3e fea1 0040 6bb7 903f a756 323f
000000d0: e865 f53f cedb 933f 4d26 8d3f 2a61 683e
000000e0: 9bb3 0dbf a8ec 37c0 ea81 d4bf cc9c c93f
000000f0: 52b2 f3bf 94fc 85bf a714 ce3f a51b 1440
00000100: 52c7 bf3f 7d64 66bf 8851 f03f ee2b 1640
00000110: 9331 f83e f9f5 cd3e 052e 2a3e fea7 f5be
00000120: b0e1 87bf 5844 3cbf 7d20 293e 94fb 87bf
00000130: 0d45 7dbf 5665 b93c 836f cebe 9c93 423e
00000140: fa4c bcbd 29e3 0ac0 cd7a 0bbf 614f 95bf
00000150: a592 dcbf 0116 863f f072 9e3f c576 603f
00000160: 0607 593f 3d87 fc3d 6d7c 303e 80d4 393e
00000170: 2e65 503e 6a6b abbf 11ae 82bf 7013 50be
00000180: c820 c6bf 4d84 b7be 9c7e d3be a9aa 1540
00000190: dcd3 4f3f edad 63bf 36ce 023f 8ce6 bf3f
000001a0: 6af6 393f 2aec 6fbf b933 40bf 0099 0bbf
000001b0: a055 2540 eaf5 973f cad5 d23e b7dd f23f
000001c0: 2aed 5dbf 80dc a2bf 13c6 063e 15ea 26c0
000001d0: 4164 bfbf 102a 95bf 82b7 a83e 6efa f0be
000001e0: 7344 dfbf d6c6 a13f 0d72 2140 93ce 893d
000001f0: ee28 2fbf bc79 563f 730c 3b3d e36a 2dbf
00000200: 09e3 233f f186 693e a072 01bd 3e44 6a3e
00000210: d2a2 ffbe afde 42bf 5c2b febd 9ef6 da3f
00000220: 1218 25bf 23d9 4dbf a8bc f13f dc36 c6bf
00000230: 89c0 4cbf 0449 cfbf dd2e 1bc0 dcd8 d7be
00000240: 13d1 b43f f4f5 70bf 1932 99bf 5ad2 eebe
00000250: fecf 93bf 5998 b43f 120b 1fc0 9449 e8bf
00000260: 5e11 183f 6960 f4be 5d9d aabf bec4 473f
00000270: 1f98 76bf 62cf f03e 2bdf dc3f 4d3c 963e
00000280: 70b4 e83f 7db6 553f f2c9 0abe f841 edbf
00000290: 4961 e63e c100 c8bf ca75 1abf 5d1e 0140
000002a0: 3882 f2bf 9015 cc3f bcdf 963f 9585 803f
000002b0: 97e5 3e3d b85a 0b3f 947d cebe ea8f 97bf
000002c0: 29a4 6c3e d656 11bf f906 13bf 0b38 883f
000002d0: 0b02 2f3e 105f c63e 87ae 423c eb40 e93e
000002e0: 1af4 05bf 3a4c be3f d232 a9bf c496 1bc0
000002f0: 447f d8be 1439 a93f 1a89 81be b1d7 93bd
00000300: 2d66 1640 d418 2c3f 7253 94bf 68e0 f23f
00000310: 7f72 c0be c5bd f0be c5d2 003f befc 0fc0
00000320: 12a7 edbd dbb0 223f bb43 bfbf f559 863e
00000330: c119 3abf 2582 c2bf f670 3e3f c451 57be
00000340: b0cf 723e 6c31 fbbe de36 333e b37b dabf
00000350: 8fdc 0bc0 bc5a 3ebf 38a8 a63e ddb6 783f
00000360: 6aba 0abf 9c51 09c0 562c d6bf 2460 42bf
00000370: a512 f0bf ee1d 23c0 cb90 5cbf a5dc b3bf
00000380: 4a02 9dbf 6237 acbf 63ab 343f 88b9 d2be
00000390: 5fcd 14c0 bb74 383f 9632 083f 62af 4bbf
000003a0: d797 c83f 5b4b 80be cf0f 01bf 2461 02c0
000003b0: 0863 f1bd 27d7 ccbf f243 31bf e706 c23f
000003c0: c282 4cbf a2cb f53f 5c15 1140 a2d6 ab3e
000003d0: cfed b1be 7d11 723f ea9f 41be ac8c a0bf
000003e0: 7e31 a93e 8bec d33d 40e3 e93d 7347 8b3f
000003f0: 8f86 8c3f 0700 b73e f94e 7dbf 1cce 4340
0.50140303 0.042508125 0.47465578 -0.14420764 -0.30446386 -0.24925992 -0.78924173 -0.7818038
0.76016074 0.73177993 0.6267143 0.29754174 -1.4515089 -1.3857977 0.57356846 -0.7561735
-3.1167414 -1.977428 -1.1655123 -0.28551662 0.63722295 -1.392802 0.37063825 2.8965237
-1.7238545 -1.5245504 0.36307797 3.1382406 0.9698157 -0.76559955 1.2600795 1.3139495
0.27194917 -0.16968954 -0.45044458 -1.0579007 0.2536898 -0.15912671 -0.7425922 0.9780021
0.478494 -0.6651999 -1.0739353 -0.7460936 -0.7595659 -0.063256115 2.3344266 -0.061984718
0.33217487 2.0098872 1.1305975 0.6966347 1.9171724 1.1551454 1.1027313 0.22693315
-0.5535218 -2.8738194 -1.6602147 1.5750976 -1.9038794 -1.0467706 1.6100053 2.3141873
1.4982703 -0.8999708 1.8774881 2.3464313 0.48475322 0.40226725 0.16619118 -0.4797973
-1.0615749 -0.73541784 0.165163 -1.062365 -0.9893349 0.022631329 -0.40319452 0.19001621
-0.091943696 -2.1701148 -0.54484254 -1.166485 -1.7232252 1.0475465 1.2378826 0.8768123
0.8477634 0.12330482 0.17234965 0.18147469 0.20351097 -1.3392155 -1.0209371 -0.20319915
-1.5478754 -0.35843125 -0.41307533 2.3385413 0.81182647 -0.88937265 0.510959 1.4992232
0.72641623 -0.9371973 -0.7507892 -0.54530334 2.5833511 1.1871922 0.41178733 1.8973912
-0.8669001 -1.2723541 0.13161497 -2.6080372 -1.495247 -1.1653461 0.32952505 -0.47066063
-1.7442764 1.2638805 2.522586 0.06728854 -0.6842183 0.837795 0.04566617 -0.6774122
0.64018303 0.22805382 -0.031603456 0.22877595 -0.4992891 -0.7612104 -0.12410614 1.7106512
-0.64489853 -0.8040945 1.8885698 -1.5485492 -0.79981285 -1.6194158 -2.4247353 -0.42157638
1.4126304 -0.94125295 -1.1968414 -0.4664486 -1.1547849 1.4108993 -2.4850507 -1.8147454
0.594015 -0.47729805 -1.3329273 0.7803458 -0.9632587 0.4703322 1.7255605 0.2934288
1.8180065 0.8348158 -0.13553599 -1.8535757 0.44996098 -1.562523 -0.6033598 2.0174782
-1.894599 1.594408 1.1787028 1.0040766 0.046605673 0.544353 -0.40330184 -1.1840794
0.23109497 -0.56773126 -0.57432514 1.0642103 0.17090623 0.38744402 0.011882431 0.4555734
-0.52325594 1.4867013 -1.3218634 -2.431077 -0.42284596 1.3220544 -0.25299913 -0.07218874
2.3499863 0.67225385 -1.1587965 1.8974733 -0.37587354 -0.47019783 0.5032161 -2.2498012
-0.11604132 0.6355111 -1.4942545 0.26240507 -0.7269555 -1.5195967 0.74391115 -0.21027285
0.23712039 -0.49061143 0.17501399 -1.7069 -2.1853368 -0.743572 0.32550216 0.9715403
-0.54190695 -2.145606 -1.673228 -0.7592795 -1.875569 -2.5487018 -0.86158437 -1.405171
-1.2266324 -1.3454401 0.70574015 -0.41157174 -2.3250349 0.72053117 0.5320219 -0.7956449
1.5671338 -0.25057492 -0.50414747 -2.037179 -0.11786467 -1.6003159 -0.692443 1.5158356
-0.7988702 1.9202769 2.2669287 0.3356219 -0.34751746 0.94557935 -0.18908659 -1.254293
0.33045572 0.10347851 0.114202976 1.088118 1.0978564 0.35742208 -0.9894863 3.059455

group1.group.0.batch2.weight f4 [16]
00000000: 6222 0940 e5b2 3a40 4d3e f03f 5392 f43f
00000010: be05 a73f 961e 1940 4bbb 4940 cb14 0b40
00000020: 552c 0740 46a4 b93f fda8 1840 4328 f53f
00000030: 1832 1640 51a9 1440 aea4 1440 15c5 0140
2.1427236 2.9171689 1.8769013 1.9107155 1.3048627 2.3924918 3.1520565 2.173144
2.1120808 1.4503257 2.3853142 1.9152912 2.3468075 2.3228343 2.3225513 2.027654

group1.group.0.batch2.bias f4 [16]
00000000: 58e1 0bbe eec9 1f3e 675c 39bf e05f 88bb
00000010: a43b 983e a2c0 173f 120e 5c3e 335d c33e
00000020: 83c5 29be eea9 3a3f 8687 86be 12cf 32bf
00000030: 211f 853f 2de3 89be 91ff 023f 30d0 643f
-0.1366018 0.15604374 -0.7240662 -0.00416182 0.29733002 0.5927831 0.21489742 0.38157043
-0.16579251 0.7291554 -0.2627527 -0.69847214 1.0400125 -0.26931134 0.51171213 0.8938017

group1.group.0.batch2.running_mean f4 [16]
00000000: 6e31 e03f 6840 62c1 eb06 0bc2 50b5 9cbe
00000010: 2fd5 0ac2 d4e2 5640 083e f53f 01d7 65c1
00000020: a7f1 0642 6218 853d d038 06c2 4dc5 3ac0
00000030: a38f adc1 3767 00c1 b2ba eec1 0aa7 8c40
1.7515085 -14.140724 -34.756756 -0.3060708 -34.708187 3.3575945 1.9159555 -14.364991
33.73599 0.06498791 -33.55548 -2.9182923 -21.695135 -8.025199 -29.84116 4.3953905

group1.group.0.batch2.running_var f4 [16]
00000000: 8fc5 a943 e636 b743 4bd5 c443 9c32 d943
00000010: b078 f343 bf52 6544 478f 0944 b19c 5443
00000020: 2609 6844 1aad ad43 b5e0 f043 1bc5 9243
00000030: 2255 af43 bc35 9c43 b7c1 fa43 3350 5043
339.54343 366.4289 393.66635 434.3954 486.94287 917.2929 550.2387 212.61208
928.14294 347.35236 481.75552 293.5399 350.6651 312.4198 501.5134 208.31328

group1.group.0.skip.weight f4 [16, 16, 1, 1]
00000000: 6b04 b4bf 5b87 35bf 2fda a2bf aea0 61bf
00000010: b06e 703e 2de6 94bf fc94 59bf 804c 2bbf
00000020: bc15 7e3e b8f4 15bf 32b3 74be d4d2 a23e
00000030: 3b38 0dbf a1d6 e7be f7fd 8dbe 5256 513d
00000040: 3b98 4040 8a41 213f 6cab 27bf 0c91 8a3f
00000050: e5e2 6b3f e3b2 73bf 1d77 a53e fdcd aebf
00000060: cafc 063e ae7a af3e 366f 843f eebc bfbf
00000070: cedf 303e e626 8ebf e25f f2be ae10 59bf
00000080: 6a46 e7be e582 5dbe 3e30 07bf fa46 3b3e
00000090: 6f59 96be d1e5 d4be c056 d9bc c37d 21be
000000a0: 78b9 81be 282b a0bd ead4 dbbf d230 62bf
000000b0: d14e efbe f16d a4bf f8f0 61bf eb4e 73be
000000c0: a34f fdbe 4645 523f d34d 8c3f 5e93 36bf
000000d0: 7118 4bbe b48b 713f c7b7 1c3f c809 3a40
000000e0: 2fba 8ebf d5b1 653f f7db ab3f ddf0 c43f
000000f0: b9dd fbbc 2299 26bf 1e78 96bf 2ace 0abf
00000100: 3efd 44be 6e7b 6fbf 9071 0ebe f01b d0be
00000110: fd77 5dbf 8860 283f bf55 6f3e 8997 373e
00000120: 668f 26bf a206 36bf c5d7 a2be 0b11 85bf
00000130: 6c67 8bbf 1830 29bf c0e5 943e abfa 0c3e
00000140: 121a 06c0 cd47 7f3f 1455 2140 d583 5ebf
00000150: 139c 1abc 9420 99bf eed2 a2be 392f fc3f
00000160: 75f3 653f ab74 063e 1963 adbe 6e1c 9e3e
00000170: 483a 2a3d 16ba db3f e6d7 3940 21fb 53be
00000180: 7ad8 5ebc d509 c1be 2530 53be 8279 86be
00000190: bc99 1fbe c367 213d 8d6c 0e3e 789c bcbe
000001a0: 614b 8ebe 1e6d 27bf 4f9b 02bf 6596 4dbe
000001b0: 95f0 d53a 1fc3 d6be 4be3 10bd 2f74 acbd
000001c0: 57c8 e33d 4dac f1be 75a4 53be cc03 743d
000001d0: 3306 2abf 6295 a8be 6cb7 ec3d a6c6 74be
000001e0: ec03 c5be 732b 8bbe 6928 f6bd f0e3 8239
000001f0: 9cbf c1be bd3c 683c 51e3 f7be c729 92be
00000200: facf 50be cbee 84bf ea41 c53d 019c 3d3f
00000210: 8990 9fbe cb88 d9bf eaa1 93bf 98d0 78bf
00000220: cc49 dcbe aa6d 613f 3853 49bf a3b6 e9be
00000230: eda0 293f 8b3f 2540 e459 e23e 4ee4 2c40
00000240: 53f5 ddbe bfbd 3f3f 603c 0ebf b068 8c3f
00000250: fc00 063d 7047 15c0 d4c3 45bf 5828 a5be
00000260: 2d55 c13f 2220 6f3f c0d0 45be e840 88c0
00000270: fb6a 9d3e 420c cbbe 8f9f ad3f 4407 d9bf
00000280: 97d4 db3d 10cc 0040 7dd9 4a3f b55b 973d
00000290: f159 8f3d 76bb 7fbc c0a7 1ebe fbc2 193f
000002a0: 7bda 123f e224 4f3f 7ce4 fcbf 891b 05bf
000002b0: 3b67 babf d476 953e 05e2 973c a6e8 163f
000002c0: f46f 90bf 9a7f c13d 56d1 5abe 9198 6bbe
000002d0: 1c40 84bf 1537 3fbe b175 29bf 03af 16be
000002e0: 139d 85bf a4a2 18be 3980 babf 146d aabe
000002f0: 670e 273d 792e 043f 830a bcbd daee 88be
00000300: 3baf 6c3f a6d9 0b3f 0f90 883e 9c4e 233f
00000310: 48ec a5be 5c04 febe f2ad 483f 0b5c d6bd
00000320: 0216 9ebf 74e3 f03f 15a6 b73f 914c aabe
00000330: 6e99 dd3f 7e9c 61bf 3ac7 5abf 91a4 573f
00000340: a763 9d3b cc0e ffbe d6b4 a9be 7330 46bf
00000350: 3459 afbd 4d41 313f 795a 64be 8671 8dbf
00000360: 6f19 48bf d9f0 923e 06ba 38bf 74ec abba
00000370: 06d1 62be 39a5 babe ea86 86bf 66bf 93bf
00000380: f6b7 47be 7d2a a6be f584 d5bd d7fd 1ebf
00000390: 56dc 023e e908 52be 739b fbbd a4bd 0b3f
000003a0: ca8a 2bbe 3f7a 18bf 7546 87bf 71b0 edbd
000003b0: f9f4 29be 236c e0be 9d42 643d fe82 0fbf
000003c0: 9462 a5bd 0a9e cfbe e42e bebd a78e 29bf
000003d0: 8be3 ad3c bdc4 f0be d5e0 f7be eef1 773c
000003e0: a7bb 86be 05e5 15be edaf 3ebe c672 563e
000003f0: 6548 27be dd12 76be 99db 6bbe 2bb8 a0bd
-1.4063848 -0.7090966 -1.2722834 -0.881358 0.23479724 -1.1632744 -0.8499296 -0.66913605
0.24812979 -0.58576536 -0.23896483 0.31801474 -0.55163926 -0.45280936 -0.27732822 0.051107712
3.0092914 0.6299063 -0.65495944 1.0825515 0.9214309 -0.95194834 0.3231744 -1.3656613
0.13182369 0.34273285 1.0346439 -1.4979532 0.17272875 -1.1105621 -0.47338778 -0.84791076
-0.4517091 -0.21631964 -0.52807987 0.18288794 -0.29365107 -0.41581586 -0.026530623 -0.1577063
-0.25336814 -0.078207314 -1.7174351 -0.88355744 -0.4673982 -1.2846051 -0.88258314 -0.23760574
-0.4947482 0.8213695 1.096125 -0.71318614 -0.19833542 0.94353795 0.6121792 2.906847
-1.1150569 0.89724475 1.3426503 1.5386006 -0.030745374 -0.6507741 -1.1755407 -0.5422083
-0.19237229 -0.93547714 -0.13910508 -0.40646315 -0.8651121 0.65772295 0.23372553 0.179289
-0.6506256 -0.7110387 -0.31805244 -1.0395826 -1.0890937 -0.6608901 0.29081535 0.13767497
-2.0953412 0.99718934 2.5208178 -0.8691991 -0.009436625 -1.1963067 -0.31801552 1.9701911
0.8982461 0.13130443 -0.33864668 0.30881065 0.041559488 1.7166164 2.9038024 -0.20701267
-0.013601417 -0.37702814 -0.20623834 -0.26264578 -0.15585989 0.039405596 0.13908596 -0.36838126
-0.27791885 -0.65400875 -0.5101823 -0.20076902 0.0016322309 -0.4194574 -0.035373013 -0.08420598
0.11122196 -0.47201768 -0.20668204 0.059573933 -0.6641571 -0.3292647 0.115584224 -0.23903903
-0.38479555 -0.27181587 -0.120194264 0.0002496536 -0.378415 0.014174637 -0.48415616 -0.285475
-0.20391837 -1.0385374 0.09631713 0.7406617 -0.3116496 -1.6994871 -1.1533787 -0.9719329
-0.43025053 0.8805796 -0.78642607 -0.45647153 0.6626118 2.5820034 0.44209206 2.7014346
-0.4335123 0.74898905 -0.55560875 1.0969448 0.032715783 -2.3324852 -0.77251935 -0.32257342
1.5104119 0.93408406 -0.19317913 -4.257923 0.30745682 -0.3965779 1.3564318 -1.6955342
0.10733908 2.012455 0.7923811 0.073905386 0.06999577 -0.015608659 -0.15493679 0.6006314
0.57364625 0.80915654 -1.9757228 -0.5199514 -1.4562753 0.2919222 0.018540392 0.58948743
-1.1284165 0.09448166 -0.21368918 -0.23007418 -1.0332065 -0.18673356 -0.6619521 -0.14715199
-1.043856 -0.14905792 -1.457038 -0.33286345 0.04078522 0.5163341 -0.091816925 -0.2674473
0.9245488 0.5462898 0.26672408 0.63791823 -0.3240683 -0.496127 0.7839042 -0.104667746
-1.2350466 1.8819413 1.4347559 -0.3326154 1.7312448 -0.88129413 -0.85460246 0.84235483
0.0048031393 -0.49815977 -0.3314578 -0.7741768 -0.08561936 0.69240266 -0.22300138 -1.105027
-0.7816381 0.28699377 -0.7215885 -0.0013116733 -0.22150049 -0.3645418 -1.0509923 -1.1542785
-0.1950377 -0.3245429 -0.1042575 -0.6210608 0.12779364 -0.20511211 -0.12285509 0.54586244
-0.16752163 -0.5956153 -1.0568377 -0.11605919 -0.16597356 -0.43832502 0.05572759 -0.56059253
-0.08075443 -0.40550262 -0.092862874 -0.66233295 0.021226665 -0.470251 -0.4841372 0.015133364
-0.26315042 -0.14638145 -0.18621798 0.2094222 -0.1633621 -0.24030633 -0.23032989 -0.07847627

group1.group.0.batch3.weight f4 [16]
00000000: 0000 803f 0000 803f 0000 803f 0000 803f
00000010: 0000 803f 0000 803f 0000 803f 0000 803f
00000020: 0000 803f 0000 803f 0000 803f 0000 803f
00000030: 0000 803f 0000 803f 0000 803f 0000 803f
1.0 1.0 1.0 1.0 1.0 1.0 1.0 1.0
1.0 1.0 1.0 1.0 1.0 1.0 1.0 1.0

group1.group.0.batch3.bias f4 [16]
00000000: 0000 0000 0000 0000 0000 0000 0000 0000
00000010: 0000 0000 0000 0000 0000 0000 0000 0000
00000020: 0000 0000 0000 0000 0000 0000 0000 0000
00000030: 0000 0000 0000 0000 0000 0000 0000 0000
0.0 0.0 0.0 0.0 0.0 0.0 0.0 0.0
0.0 0.0 0.0 0.0 0.0 0.0 0.0 0.0

group1.group.0.batch3.running_mean f4 [16]
00000000: 0000 0000 0000 0000 0000 0000 0000 0000
00000010: 0000 0000 0000 0000 0000 0000 0000 0000
00000020: 0000 0000 0000 0000 0000 0000 0000 0000
00000030: 0000 0000 0000 0000 0000 0000 0000 0000
0.0 0.0 0.0 0.0 0.0 0.0 0.0 0.0
0.0 0.0 0.0 0.0 0.0 0.0 0.0 0.0

group1.group.0.batch3.running_var f4 [16]
00000000: 0000 803f 0000 803f 0000 803f 0000 803f
00000010: 0000 803f 0000 803f 0000 803f 0000 803f
00000020: 0000 803f 0000 803f 0000 803f 0000 803f
00000030: 0000 803f 0000 803f 0000 803f 0000 803f
1.0 1.0 1.0 1.0 1.0 1.0 1.0 1.0
1.0 1.0 1.0 1.0 1.0 1.0 1.0 1.0

group1.group.1.conv1.weight f4 [16, 16, 3, 3]
00000000: 68d1 a7be 7582 ecbf 2ab8 7abe 9370 32be
00000010: fc97 303f 4deb fe3f c6f2 ab3f d1ad 073f
00000020: 256d b33f 47b2 be3f 33e4 083f d92a abbf
00000030: f02b 42bf d382 393f c203 aebf bee3 b7bf
00000040: 6195 9a3f b306 85be bb52 87bf ff43 59bf
00000050: 296e 0340 975f a63f 4ee7 70bd 5435 533e
00000060: aef2 dcbb d4fd 05c0 3fe0 aebf 07d2 c13c
00000070: 4f8c 40bf 633f 18bf 3328 0640 e97b 3d3f
00000080: 3bc4 fdbf 72fe 39be 08d5 f7bd 30a1 e6bf
00000090: db88 0040 02df 773f dab4 fa3f 59ca 8e3e
000000a0: 027d 9f3f 8bb8 e93f f3ca fabd fc86 8d3f
000000b0: a1d2 8e3f 1a85 8bbf b1bc 21bf 88cc 9d3f
000000c0: a9d0 633f b855 c4be 702a 2bbf 6c90 d53f
000000d0: 9b28 fb3e 8c2d d0bc f264 adbd 87ad aa3e
000000e0: a1fd 0c3f a91a fd3f 302d 843e deac c5bf
000000f0: 43a7 ee3f 597c d1be 5e80 bcbf a263 fdbf
00000100: eb14 fc3f 2a07 1140 6342 96bf cc3b b03e
00000110: e432 083f d280 4bbf 0469 d5bd 6a58 773f
00000120: 7306 10bf cb98 333f 12e7 7a3f 18d1 02bf
00000130: bce3 a33d cf7d f13f 7895 7c3f fa82 87be
00000140: 8378 883f 8c00 d83f c139 2cbf afc7 74be
00000150: 0c03 14c0 c9ff d5bf 36fa 00c0 4d0a fbbf
00000160: 6185 b3be 3597 52bf 4915 913f 8758 cfbe
00000170: ae21 0d40 f1cf 6840 8c64 ffbe 1838 c8bf
00000180: 54e0 a03e 397c a0bf 7e27 c2bf 60ff 4fc0
00000190: cae3 9dbe f0bd 2abf 9b84 ccbe dbf5 d23d
000001a0: 9c12 a33e a6ca 9a3f bb9f 1dbf 635e 2a3e
000001b0: 4994 e6bb e12b 25bf 4cbe f5bf a1d1 0e3e
000001c0: 7955 1540 1a52 11bf 8c8e d0bf d8f0 513e
000001d0: 3bb0 1cbe b10a fa3f 8768 433f 4d95 a3bf
000001e0: ca1e 20bf 1788 223f 7f5b a0be 6863 ebbf
000001f0: a40f 9abf f479 14bc 37e8 89be bd5c 7f3f
00000200: f654 ba3f 6386 adbe 5b08 fbbd 35b8 023e
00000210: 1698 623f 2dc3 493f 3817 b83e 70f6 0139
00000220: f94a fcbf 7815 0bbf 272e 0bbe b710 c1bf
00000230: 16f6 b2bf dd00 703d 9c6b aebf 2709 12bf
00000240: 870a 93be 6761 f53f 9f0e a83f 91e8 31bf
00000250: ca56 883e 36bc 783f 416f 5dbe fe6d 3c3d
00000260: 5857 023d 077b a73f 30e9 94be 7756 1f3f
00000270: 341b 2240 c8c1 7dbe 8b15 543f 3681 0b40
00000280: f847 52be 92e5 55be 6b98 853f 7e00 553f
00000290: f21c b7bd 932c 473f 70d3 063f 183a a3be
000002a0: ddca 3fbe 713f 08be a4d4 86bf c831 3ebf
000002b0: b508 76be 9665 bf3f feec d63e 0c9b cebe
000002c0: dedf 443f da03 85be 6030 d7bf d90a 75bf
000002d0: d858 94bf c88c 17bf e860 b6bf cbb3 0e3e
000002e0: be72 22bf 2073 acbf a5d4 163d 5222 83bf
000002f0: 8d74 4abf 8d68 15bf d458 adbf 6d4b afbf
00000300: 52f2 76bf 1d96 9a3d e3dc 813e 1ba6 22bf
00000310: c681 babd 69d6 ed3e a243 70bf 4dd6 1ac0
00000320: e94f 2cbe a19b 0cc0 0a05 16c0 5a11 b3bf
00000330: 31a2 eebf e0eb e2bf 4962 9dbf 9173 883f
00000340: b2cf a6be c173 953f 629d 383f 0583 99bf
00000350: 71b8 273e 3a6e 513f 5981 84bf 9301 1fbe
00000360: 08ce 8dbf f4bf debe 4da8 04c0 3fbb 9dbf
00000370: ebbc 873f 6ff3 a1bf 7892 93bf 03d2 d53e
00000380: 0593 09c0 c0f3 9f3f 3b4e 8abd ca48 dfbf
00000390: 54d1 a53e 6127 fcbf a200 24bf 0770 2b3f
000003a0: 17b7 b0bf e717 413f add3 dc3f e590 0f3f
000003b0: ae01 d2be 92a6 1740 a8cd f43f e046 883f
000003c0: 43d6 c63f 963a 8c3d 8c4c a7be ad60 073f
000003d0: e78f 84be b315 853e fc25 733e 1f1b c93d
000003e0: 57c0 7d3f d765 743e b3cd 153e bf59 133f
000003f0: 8ef3 c13e d468 543f 0058 7f3f f40d c63f
-0.32776952 -1.8477312 -0.24484316 -0.17425756 0.6898191 1.9915558 1.3433464 0.529996
1.4017683 1.4898156 0.53473204 -1.3372451 -0.75848293 0.72465247 -1.3594897 -1.4366376
1.2076837 -0.25981674 -1.0572122 -0.8486938 2.0535986 1.2997922 -0.05881434 0.20625812
-0.006742797 -2.0936174 -1.3662184 0.02365972 -0.75214094 -0.5947172 2.0962036 0.74017197
-1.982551 -0.1816347 -0.12101179 -1.801794 2.008353 0.9682466 1.9586442 0.27888754
1.2460024 1.8259443 -0.12245741 1.1056819 1.1158029 -1.0899994 -0.63178545 1.2328043
0.88990265 -0.38346648 -0.6686163 1.6684699 0.49054417 -0.025412343 -0.084665194 0.33335516
0.55074507 1.9773761 0.25815725 -1.544338 1.8644794 -0.40915182 -1.4726675 -1.979603
1.9693884 2.2660623 -1.173901 0.3442062 0.5320265 -0.7949344 -0.10420421 0.96619284
-0.5625984 0.7015502 0.98008835 -0.511003 0.08002421 1.8866519 0.9866557 -0.26467115
1.0661777 1.6875167 -0.67275625 -0.23904298 -2.312686 -1.6718684 -2.0152717 -1.9612519
-0.35062698 -0.82261974 1.1334621 -0.40497229 2.2051806 3.6376917 -0.498814 -1.5642118
0.3142115 -1.253791 -1.5168302 -3.2499619 -0.30837852 -0.6669607 -0.3994492 0.103007995
0.31850135 1.2093093 -0.61571854 0.16637568 -0.00703672 -0.6452008 -1.9198699 0.13947155
2.3333418 -0.567659 -1.6293502 0.20502031 -0.15301602 1.9534513 0.7633137 -1.2779938
-0.6254698 0.63488907 -0.31319806 -1.8389711 -1.2036023 -0.009062279 -0.26934978 0.9975088
1.4557178 -0.3389159 -0.12257453 0.12765582 0.88513315 0.7881344 0.35955215 0.00012394204
-1.971038 -0.54329634 -0.13591824 -1.5083226 -1.398135 0.058594573 -1.362659 -0.57045215
-0.2871897 1.917035 1.3129462 -0.69495493 0.26628715 0.9716219 -0.21624471 0.046003334
0.03182158 1.308442 -0.29084158 0.6224131 2.5329103 -0.24780953 0.8284537 2.1797614
-0.20535266 -0.20888355 1.0437139 0.83203876 -0.08941068 0.7780239 0.5266638 -0.3188026
-0.1872973 -0.13305451 -1.0533643 -0.7429471 -0.24026759 1.4952877 0.41977686 -0.40352666
0.76904094 -0.259795 -1.6811638 -0.9571968 -1.1589613 -0.5919919 -1.4248323 0.13935773
-0.6345633 -1.3472633 0.036823887 -1.0244849 -0.7908409 -0.58362657 -1.3542733 -1.3694893
-0.964635 0.07548163 0.25363836 -0.63534707 -0.091067836 0.46452644 -0.938532 -2.41933
-0.16827358 -2.1969988 -2.3440576 -1.398967 -1.8643247 -1.7728233 -1.2295619 1.0660268
-0.32580334 1.167595 0.7211515 -1.1993109 0.16378953 0.8180882 -1.0351974 -0.15527944
-1.1078501 -0.43505824 -2.0727723 -1.2322768 1.0604528 -1.2652415 -1.1529074 0.4176179
-2.1495984 1.2496262 -0.067532025 -1.7444088 0.32386267 -1.9699517 -0.64063466 0.66967815
-1.3805875 0.754271 1.7252098 0.56080467 -0.41016906 2.3695416 1.9125261 1.0646629
1.5534137 0.06847112 -0.32675588 0.5288189 -0.2589104 0.25993118 0.23744959 0.09819626
0.9912161 0.23866974 0.1462925 0.57558817 0.3788113 0.82972455 0.9974365 1.5473008

group1.group.1.batch1.weight f4 [16]
00000000: 01b8 bd3f 7611 8e3f 9b3b fe3f 5060 c43f
00000010: cca5 df3f bada 0040 3d05 4640 2af9 0f40
00000020: 8c10 a93f a6e9 1c40 42d8 d83f 0f37 e33e
00000030: fa46 0240 821c 1040 68f4 013e 3944 3a40
1.4821779 1.1099079 1.986194 1.5341892 1.7472472 2.01335 3.0940697 2.2495828
1.3208175 2.4517608 1.6940997 0.44377944 2.035582 2.25174 0.1269089 2.910414

group1.group.1.batch1.bias f4 [16]
00000000: 6476 85bf a55d 4b3d b678 3bbf 5320 8dbf
00000010: d795 d1bd 934b 56bd bd3c 9ebe 705c cfbe
00000020: df50 34be 6caf b5be 06f8 55bf 6f64 6fbf
00000030: a5f3 083e ce50 ecbe eb4e cabe fd6b 94bf
-1.0426755 0.049649853 -0.73231065 -1.102549 -0.10233658 -0.052318167 -0.30905715 -0.40500212
-0.17608975 -0.354854 -0.8358158 -0.93512625 0.13374193 -0.461554 -0.39513335 -1.1595455

group1.group.1.batch1.running_mean f4 [16]
00000000: be2c 89c0 d26a acc0 cd13 63c2 5683 fb42
00000010: dfdb 15c3 100d 61c2 56d8 0cc3 7239 97c1
00000020: dfa4 3cc1 c029 31c3 705f 3a40 c203 bcc2
00000030: b9c4 bcc2 66ca 8cc2 a56e 80c2 9b1a 5bc2
-4.2867117 -5.3880396 -56.769337 125.756516 -149.85887 -56.262756 -140.84506 -18.90305
-11.790252 -177.16309 2.912075 -94.00734 -94.384224 -70.39531 -64.2161 -54.77598

group1.group.1.batch1.running_var f4 [16]
00000000: b769 0e45 3e4a a945 3e81 9645 47f0 c945
00000010: 37bb 5d45 442f 9c45 1662 1a46 8896 5b45
00000020: 6984 b145 51cd 6446 74e0 3f45 e84f ce45
00000030: c432 bf45 5335 5d45 01a9 0045 8a88 6045
2278.6072 5417.2803 4816.1553 6462.0347 3547.701 4997.908 9880.521 3513.4082
5680.5513 14643.329 3070.0283 6601.9883 6118.3457 3539.3328 2058.5627 3592.5337

group1.group.1.conv2.weight f4 [16, 16, 3, 3]
00000000: 9068 8b3f d689 8dbf 3932 6f3e 70f2 443f
00000010: ec19 83bf 2f55 8cbf bf3a 9cbf 9de6 15c0
00000020: a192 a1bf 70d0 91bf bf53 9cbd f6a5 9abe
00000030: 9153 50be 5890 f33e a604 2bbf 29f0 44be
00000040: f719 993c 799a 9cbf eb7b 393f a486 09bf
00000050: 9ddf b1bf 58e6 e83f dcd9 053c e3e0 bfbf
00000060: e1e6 bfbe dd1e c6be 6b41 493d 349b c3bf
00000070: 8245 62bf 8690 acbd c0b5 a4bf 2e04 65bf
00000080: 1d30 08be daa7 d5bf 3500 6bbf 709d 8dbe
00000090: 062b a33f 5130 c7be 6b5a c8bf 6acf 2340
000000a0: df39 c7bd b2d0 c23e 211c 133f fe33 f7bf
000000b0: e937 393f a7b5 01bf c9a6 b13f 22f7 51be
000000c0: 29dd 26bf 3234 403f 1b74 333e 2073 203d
000000d0: acef 2e3f a399 3ebc 8cbb 0d3f 05e0 a33f
000000e0: 7634 0940 dcb4 44bd d59c 523f 84dc 8a3e
000000f0: 41d4 57bf a953 d73e ec85 d3bf 5b03 cbbe
00000100: 0629 f03e f342 2f3e fd9f 5bbc c9e3 993f
00000110: b5e2 443e 7d4b 04bf 6c39 1abf b4fe 27c0
00000120: 41fe 49be d92c 70be 7a21 4abf 0298 873f
00000130: 9f57 0740 2d38 543e a0ee e1bd ee4a 2abb
00000140: 4381 aa3d 97ff 33bf 1c4e 45bf ba67 afbe
00000150: 7d9b 7fbf 0621 cd3e 1a7b 9e3f d224 c8be
00000160: 944e 0740 de64 a63f c00d 1ebf 33ab 4cbf
00000170: c84a 843f b972 aa3f cc44 3e3f 3213 673f
00000180: e992 113f 4b30 5a3f 96a0 863e e332 b4bf
00000190: f702 983d 09b4 2c3f f2a0 a2be b5bc 843f
000001a0: 6c10 f73f 9d84 933c d6e5 1140 ea94 1640
000001b0: 46b1 6cbe f9dc 23c0 dc33 8cbf 7706 683f
000001c0: 0f17 d9bf 20e8 f3be 897e bebd fb77 ddbf
000001d0: 0950 463e a11e f93f e2b3 4e3f cc2e e5bf
000001e0: 27a6 0440 a2de f53e 7bf0 083d 44af a73e
000001f0: e9a7 60c0 e212 b0bf af2a 86bd 3528 643e
00000200: fc2a 063e 93b4 11be 3b43 843d 1ea5 0fbd
00000210: fe2b 71bc 0832 fabe 8dac 88bf 109b ae3d
00000220: 7752 99bf 8614 903f 21b9 7abf 61ce 3ac0
00000230: 1eab 983f aac9 a1bf 5a74 42c0 0f85 873f
00000240: 80bc 19bf c084 f3bd f5f4 c8be f5f0 fc3e
00000250: ad00 123e 5226 9ebe c805 a33f 28cd 43be
00000260: 3a65 643f ed63 c9bd 467f 93bd 24b3 45be
00000270: 06f4 523f f967 d83f 97fc 463f e76c 6c3f
00000280: 4c96 833f d2a7 02bf 9260 f1bd d6a2 963f
00000290: b839 96bf 4121 ee3f 2702 c43f 974b 5fbe
000002a0: f1c0 a33e 8e5b e63e 25dd 673e 2cc2 783d
000002b0: 19d7 ea3e e8de f13e fb55 ac3f 0e32 cc3e
000002c0: 7f7e 8c3f fcc1 2b3f 5f64 61bf 1742 39be
000002d0: 91f0 75bf 4993 c13d 2e7b c6bf e5de 26bf
000002e0: 1b0a b5be 843a cebf 66ac a9bf 908b f3bf
000002f0: 2a8d 86bf 2475 b63c 7876 d73f d353 833f
00000300: e1a3 b13e f993 0c40 6d4e b03f c7ca 9f3b
00000310: c2c5 9b3e fb9e aebf a4e1 26c0 4b42 97bf
00000320: f635 9a3e a4f7 68bf a237 9cbf 2b8e abbe
00000330: 6d96 38bf 5cf3 ca3e f0a9 9fbf bab3 3f3f
00000340: ac96 ed3e dd92 893f cb8a 2dbf 77aa 053f
00000350: 8b53 093f 30a8 0fc0 9e8b 7bbf e8c1 2cc0
00000360: bc12 0abe 6f45 a43f 1dea 833e d15d 863e
00000370: 2ed8 a03f 1eaf 453f f378 c43e 7b5d 873f
00000380: 140e 3dbf 19c5 b5bf cb8a f6bf c296 60bf
00000390: cd99 8ac0 9de4 9dbf 7cae bebd 4a22 47c0
000003a0: c7be 0fbe 6bbf 08bf b635 a03e 4aa3 8e3f
000003b0: bd5b 513f 2e54 583f 9530 2f3f 8d38 4b3e
000003c0: da02 5cbe e6be cc3d cc63 b5bf bd26 19be
000003d0: 0534 3abf 560f 123d ef58 f4be f39f 84be
000003e0: dda3 a2be af57 c5be 7cd9 9b3d 298e 6dbe
000003f0: fb1e 2d3f b78c 443f 4c6b 04c0 ab13 ce3f
1.0891285 -1.1057689 0.23359002 0.7693243 -1.0242286 -1.0963496 -1.2205428 -2.3422005
-1.2622873 -1.1391735 -0.07633161 -0.30204743 -0.20344378 0.47571063 -0.6680397 -0.19232239
0.018689139 -1.2234641 0.7245471 -0.5372107 -1.3896366 1.8195295 0.0081696175 -1.4990505
-0.37480834 -0.38695422 0.049134653 -1.5281739 -0.8838731 -0.08426003 -1.2867966 -0.894595
-0.13299604 -1.6691849 -0.9179719 -0.27659178 1.2747505 -0.3890405 -1.5652593 2.5595345
-0.09727835 0.38049847 0.57464796 -1.9312742 0.7235094 -0.50667804 1.3879024 -0.2050443
-0.65181214 0.75079644 0.1752476 0.03917229 0.6833446 -0.01163331 0.553643 1.280274
2.143827 -0.048024043 0.82270557 0.27121365 -0.8430825 0.42056015 -1.6525245 -0.39650998
0.46906298 0.17115383 -0.013404843 1.202264 0.19227107 -0.51677686 -0.6024387 -2.6249208
-0.19725896 -0.23454608 -0.7895733 1.0593264 2.114723 0.20724554 -0.11031842 -0.0025984603
0.08325436 -0.70311874 -0.7707231 -0.34258825 -0.9984663 0.40064257 1.2381318 -0.39090592
2.114171 1.2999532 -0.6173973 -0.7994873 1.0335321 1.331626 0.74323726 0.90263665
0.5686479 0.8522994 0.26294392 -1.4078029 0.074224405 0.6746221 -0.31763417 1.0370089
1.9301887 0.01800757 2.279653 2.352839 -0.231145 -2.560362 -1.0953326 0.90634865
-1.6960162 -0.47638035 -0.093014784 -1.730224 0.19366468 1.9462472 0.8074323 -1.7904906
2.0726411 0.48021418 0.033432465 0.32750905 -3.5102484 -1.3755763 -0.0655111 0.22280963
0.13102335 -0.1422904 0.06458136 -0.035069577 -0.014719961 -0.48866296 -1.0677658 0.085256696
-1.1978291 1.1256263 -0.97938734 -2.9188464 1.1927221 -1.2639668 -3.0383515 1.0587481
-0.60053253 -0.118905544 -0.39249387 0.49402586 0.1425807 -0.3088861 1.2736139 -0.1912123
0.8921696 -0.098335125 -0.0720201 -0.19306618 0.824036 1.690673 0.7772917 0.9235367
1.0280242 -0.51037323 -0.117859975 1.1768444 -1.1736364 1.8603898 1.5313157 -0.21806179
0.3198314 0.44991726 0.22642954 0.06073205 0.4586723 0.47240376 1.3463739 0.3988194
1.0976104 0.6709287 -0.8804378 -0.18091618 -0.960702 0.094519205 -1.5506341 -0.6518386
-0.35359272 -1.6111608 -1.3255737 -1.9026966 -1.051183 0.022272654 1.6833029 1.0259956
0.34695342 2.1965315 1.3773934 0.004876468 0.30424315 -1.3642267 -2.607522 -1.1817106
0.30119294 -0.9100287 -1.2204478 -0.33506903 -0.7210453 0.39638793 -1.2473736 0.74883616
0.46404016 1.0747944 -0.67789906 0.52213234 0.536431 -2.2446404 -0.98259914 -2.699335
-0.13483709 1.283369 0.25764552 0.2624345 1.2565973 0.7722033 0.38373527 1.0575403
-0.73849607 -1.4200774 -1.9261106 -0.8773004 -4.3312745 -1.2335392 -0.09310624 -3.1114678
-0.1403762 -0.5341708 0.31290978 1.1143582 0.81780607 0.8450345 0.68433505 0.19845791
-0.21485463 0.099973485 -1.417108 -0.14956184 -0.72735626 0.035659157 -0.477241 -0.25903282
-0.31765643 -0.3854346 0.07609841 -0.23198761 0.676254 0.76777214 -2.069049 1.6099752

group1.group.1.batch2.weight f4 [16]
00000000: a099 4f40 737a f13f a3e9 2140 e8fa 9040
00000010: bcb3 8240 7e4c 2140 e179 7d3f 53a2 5b40
00000020: 8290 8140 8484 4440 bd6f aa40 8122 e83f
00000030: 9624 9b40 5adf a640 b4a3 8340 0ad3 8940
3.2437515 1.8865494 2.529885 4.530628 4.08444 2.5202937 0.990141 3.4317825
4.04889 3.070588 5.32614 1.813553 4.848216 5.2147646 4.1137333 4.3070116

group1.group.1.batch2.bias f4 [16]
00000000: f549 60be b625 903f 5c7c 713e 91b9 823f
00000010: fe65 59be dc5d db3f bc05 903f 132d 80bd
00000020: 3f95 e53e 4f0e b03f ecf5 ca3e 1cde 073f
00000030: abb8 993e 556e 253f b698 1b3f 1b7f 783f
-0.21903212 1.1261508 0.23582596 1.021288 -0.21230313 1.7138019 1.125175 -0.06258597
0.44840428 1.3754367 0.39640749 0.53073287 0.30023703 0.6462148 0.60779893 0.9706895

group1.group.1.batch2.running_mean f4 [16]
00000000: 2c55 0dc1 a7cb 59c1 100c 83c1 220f adc0
00000010: 44a7 b9c0 cc6e 90c0 33b2 2a40 da61 2fc0
00000020: 90a8 8941 088a 90c1 07a6 6fc1 21e6 91c1
00000030: e5bf b2c0 3d23 e940 37f6 20c1 bb0c 19c1
-8.833294 -13.61222 -16.38089 -5.4080973 -5.801668 -4.513525 2.6671264 -2.7403474
17.207306 -18.067398 -14.978034 -18.237368 -5.5859246 7.2855515 -10.060111 -9.565608

group1.group.1.batch2.running_var f4 [16]
00000000: 1b35 c243 5579 dd43 70dd f643 a659 ad43
00000010: e651 9943 c3ed d343 a242 9143 4b54 e743
00000020: 071e f543 6bc8 fd43 f58f fc43 d987 8e43
00000030: 67a8 be43 a0c9 9f43 9847 e943 605e ee43
388.4149 442.9479 493.72998 346.70038 306.63983 423.8575 290.52057 462.65854
490.2346 507.56577 505.12466 285.0613 381.31564 319.5752 466.55933 476.7373
